model/2022_10_21_hj_num_4.onnx (onnx, 9460 bytes, 10 tensors)

conv.0.weight f4 [3, 1, 5, 5]
0	0xbf0ec058	-0.55762243
1	0xbd9c21c1	-0.076236255
2	0xbebd9f3d	-0.37035552
3	0xbec09f1a	-0.37621385
4	0xbee11cd5	-0.4396731
5	0xbf4dda7d	-0.8041151
6	0xbe2a0b03	-0.16605763
7	0x3ea2012a	0.31641513
8	0xbe189f66	-0.14904556
9	0x3d976ced	0.07393823
10	0xbdb33097	-0.08749502
11	0xbe7de2b0	-0.24793506
12	0xbe8154eb	-0.252601
13	0xbece9f81	-0.40356067
14	0xbeb2ac3d	-0.34897032
15	0xbee9af99	-0.45641783
16	0xbeaec072	-0.341312
17	0x3e9917e1	0.2990103
18	0x3e65661a	0.2240223
19	0x3ed8d62e	0.42350906
20	0x3da1822f	0.07886159
21	0xbe9a18b9	-0.30096987
22	0xbe665ef6	-0.22497162
23	0xbf3049fb	-0.68862885
24	0xbc9afb95	-0.018918792
25	0x3bb86ab4	0.0056279544
26	0xbf6192c7	-0.8811459
27	0x3d39eee4	0.04539384
28	0x3ef16a4d	0.47151414
29	0xbe545af5	-0.20737822
30	0xbeb988eb	-0.36237273
31	0xbdb1ee6a	-0.08688052
32	0xbe1e06fb	-0.1543235
33	0xbe41f7d9	-0.18942203
34	0xbe960c97	-0.2930648
35	0x3e71a0bd	0.23596473
36	0xbe18042b	-0.1484534
37	0xbe288400	-0.16456604
38	0xbf01c5bf	-0.5069236
39	0xbf13c954	-0.5772908
40	0xbe8da591	-0.2766538
41	0x3d35237b	0.04422329
42	0x3e47a226	0.19495448
43	0xbd0e0e78	-0.034681767
44	0x3e42f20b	0.19037645
45	0xbec717e7	-0.38885424
46	0xbd17013d	-0.036866415
47	0x3f0a35ea	0.53988516
48	0x3e6fb0ed	0.23407336
49	0xbe3a4e08	-0.18193829
50	0xbe85a177	-0.2609975
51	0xbf085866	-0.53259885
52	0xbe06c887	-0.13162433
53	0x3e98e116	0.29859227
54	0x3eb28b30	0.34871817
55	0x3ea9caaa	0.33162433
56	0x3e4528e9	0.19253887
57	0x3e41b5f8	0.18917072
58	0xbdd398d4	-0.10331884
59	0xbe08acd1	-0.13347174
60	0xbdda0d7d	-0.10647104
61	0xbe8034ff	-0.25040433
62	0x3e6faf3c	0.2340669
63	0x3eade20e	0.3396153
64	0x3dcbeda9	0.099574395
65	0xbc883d10	-0.01663068
66	0xbe074306	-0.13209161
67	0xbdb93427	-0.090431504
68	0x3e5b0741	0.21389486
69	0x3f00b709	0.5027929
70	0xbe78b1b5	-0.2428654
71	0xbeeb48a0	-0.45953846
72	0xbdf6f197	-0.12057798
73	0x3e04653c	0.12929243
74	0xbf218b69	-0.6310335

conv.0.bias f4 [3]
0	0xbc6aa063	-0.014320466
1	0xbd5cfa5c	-0.0539497
2	0xbf12f725	-0.5740836

conv.5.weight f4 [24, 72]
0	0x3e1571e0	0.14594221
1	0x3ec07c0e	0.37594646
2	0xbe3c8ae6	-0.1841236
3	0x3f22fa7e	0.6366347
4	0xbad7cac8	-0.0016463632
5	0x3f12c4c3	0.57331485
6	0xbf05f800	-0.5233154
7	0x3d231d16	0.03982266
8	0xbeb6f1cb	-0.35731348
9	0xbc266ebd	-0.010158238
10	0xbd605ebe	-0.054777853
11	0xbddd6a1e	-0.10811256
12	0x3e9487f0	0.29009962
13	0x3e928edd	0.2862462
14	0x3e540b50	0.2070744
15	0x3e388eeb	0.18023269
16	0x3eaf87cc	0.34283292
17	0x3e4eca68	0.201944
18	0xbe3e5b5e	-0.18589541
19	0x3e90abba	0.28256017
20	0x3eb04a92	0.34431893
21	0x3d52ce17	0.051466074
22	0x3ea43eb2	0.32079083
23	0x3d5f0b8d	0.054454375
24	0x3db768fe	0.089555725
25	0xbe82ddf5	-0.25559965
26	0x3ea858a9	0.32880142
27	0xbe52d1ef	-0.20587896
28	0x3ebcd0ba	0.36877996
29	0x3d2dc9f1	0.042428914
30	0x3e82b3fc	0.25527942
31	0xbe930a31	-0.28718713
32	0x3e8a327c	0.26991642
33	0xbeb57a40	-0.35444832
34	0x3de4532a	0.11148675
35	0xbea2c8ee	-0.31793922
36	0x3e69776d	0.22799464
37	0xbe912da1	-0.28355125
38	0xbc27c137	-0.010238937
39	0xbd931192	-0.07181086
40	0x3e1356cf	0.14388584
41	0x3d3ae0ee	0.045624666
42	0xbdabdb6f	-0.08391463
43	0xbeb4b7ff	-0.35296628
44	0xbe9c3dc5	-0.30515876
45	0xbebd6b8b	-0.3699611
46	0xbee50714	-0.44731963
47	0x3e6cb644	0.23116404
48	0x3d4d467b	0.050116044
49	0xbe168c47	-0.14701949
50	0xbd092709	-0.033484492
51	0x3d652671	0.055944864
52	0x3dae2990	0.08504021
53	0x3c2ea9b8	0.010660581
54	0xbe8f66da	-0.28008157
55	0x3cabee76	0.02098773
56	0xbc0194bd	-0.007908997
57	0xbe860ed7	-0.26183197
58	0x3e1560b2	0.14587668
59	0x3e226f2e	0.15862724
60	0xbecc78b3	-0.39935836
61	0xbf08cbbc	-0.53435874
62	0xbe00361f	-0.12520646
63	0xbef3f7e2	-0.47650057
64	0x3e6aea9e	0.22941062
65	0x3e010e8c	0.12603205
66	0xbda8f9ec	-0.08250794
67	0xbea11e9b	-0.31468663
68	0xbe055eed	-0.13024493
69	0xbf12eafa	-0.57389796
70	0xbe711de9	-0.23546566
71	0xbefca05f	-0.49341103
72	0x3d5f387d	0.05449723
73	0x3d0c7f5f	0.034301158
74	0x3ea4efed	0.322143
75	0x3e2adac0	0.16685009
76	0x3eacd82a	0.3375867
77	0x3dfa88d2	0.12233128
78	0x3e3948e2	0.18094209
79	0x3c2cccc2	0.010546865
80	0x3da20256	0.07910602
81	0x3e3eb0e0	0.1862216
82	0x3cb8d92b	0.022564491
83	0xbe5a8efe	-0.2134361
84	0xbd3872d8	-0.0450314
85	0x3e66af08	0.22527707
86	0x3ec82753	0.39092502
87	0x3e21f1f3	0.15814953
88	0x3eb621bc	0.35572612
89	0x3c94d9b6	0.018170219
90	0xbd85e7a9	-0.06538326
91	0x3e394050	0.1809094
92	0x3b0efbeb	0.0021817635
93	0x3e112330	0.14173579
94	0xbda3f9f2	-0.08006658
95	0x3de0aadf	0.10970091
96	0x3dd001f3	0.10156622
97	0x3e2988bf	0.1655607
98	0x3e7fa4e7	0.24965249
99	0x3eab8a86	0.33504122
100	0x3d9d24b2	0.07673015
101	0xbdeddc01	-0.11614228
102	0xbed5c41d	-0.41751185
103	0xbe5e5ba9	-0.21714653
104	0xbe8b5c55	-0.2721888
105	0xbe8a0d53	-0.2696329
106	0xbe9f652a	-0.3113187
107	0xbe7741f2	-0.2414625
108	0xbe5840d3	-0.21118478
109	0xbed681d1	-0.41895917
110	0xbeb8c7c4	-0.3608991
111	0xbe7a4a49	-0.244424
112	0xbeed02d6	-0.46291226
113	0xbea12f21	-0.3148127
114	0xbef36c7c	-0.47543705
115	0x3d34fe11	0.04418761
116	0x3d2ecb69	0.042674456
117	0x3de74a12	0.11293425
118	0xbd99cb20	-0.07509446
119	0xbc2e7927	-0.010649002
120	0xbe91a3f8	-0.2844541
121	0xbe35f11b	-0.17767756
122	0xbe598ef4	-0.21245939
123	0xbe55a9b2	-0.20865515
124	0xbe23e3df	-0.16004895
125	0x3e45f214	0.19330627
126	0x3db1b454	0.08676973
127	0xbe7beab4	-0.24601251
128	0xbe2be36e	-0.16785976
129	0x3c62f5d3	0.013852554
130	0xbe3ca355	-0.18421681
131	0x3b6206dc	0.0034488952
132	0xbc4464e2	-0.011986943
133	0xbe458972	-0.19290712
134	0xbd8c3cb8	-0.06847519
135	0xbde1df67	-0.11028939
136	0xbf053a88	-0.52042437
137	0xbeb65913	-0.35614833
138	0xbedd3993	-0.43207988
139	0xbe2c7b78	-0.16843975
140	0xbf232788	-0.63732195
141	0xbc7d4f1a	-0.015460754
142	0xbecac1f7	-0.39601108
143	0xbf07788b	-0.5291831
144	0xbe3a5cf3	-0.1819952
145	0xbedfe91f	-0.43732545
146	0xbd16c118	-0.036805242
147	0xbef031be	-0.4691295
148	0xbdb7ee4b	-0.08980998
149	0xbdf6b6ac	-0.12046561
150	0x3eee53fa	0.46548444
151	0x3da75951	0.08171333
152	0x3ed30f67	0.4122269
153	0x3dbcc5ff	0.09217452
154	0x3e0a3b1d	0.13499112
155	0x3e92f90e	0.2870564
156	0xbefac3ed	-0.48977605
157	0xbe6a136a	-0.22858968
158	0xbe8af3c5	-0.27139106
159	0x3cfb762c	0.030695997
160	0xbee86623	-0.45390424
161	0xbe08bc65	-0.13353117
162	0x3e602108	0.218876
163	0x3d4ffd55	0.050778706
164	0xbe4fd623	-0.2029653
165	0x3d945b7c	0.07244012
166	0x3dfcf131	0.12350691
167	0xbc4cbfe2	-0.01249692
168	0xbc908241	-0.017640235
169	0x3e6b8470	0.2299974
170	0xbdbac43e	-0.091194615
171	0x3e951b18	0.29122233
172	0x3d94cf91	0.07266153
173	0xbc3bed60	-0.011470169
174	0x3dc4e6e3	0.09614351
175	0x3e2e34f4	0.17012388
176	0x3ea5b99f	0.3236818
177	0x3e8da99b	0.2766846
178	0x3adb8abb	0.0016749719
179	0x3ed4254d	0.41434708
180	0xbeabf5e2	-0.3358603
181	0x3e25732e	0.16157219
182	0xbe58abbe	-0.21159264
183	0x3df669f6	0.12031929
184	0xbecc7272	-0.39931065
185	0x3dba7cb7	0.09105819
186	0x3f2a014a	0.66408217
187	0x3e4ea970	0.20181823
188	0xbd1aa604	-0.03775598
189	0x3ec24ee3	0.3795081
190	0x3e520b9a	0.20512238
191	0x3e7864ba	0.24257174
192	0x3da12222	0.078678384
193	0x3ea395d8	0.3195026
194	0x3d0ff628	0.035146862
195	0x3cceccb0	0.025244087
196	0x3e17abe0	0.14811659
197	0xbd919f24	-0.07110432
198	0x3e4ed309	0.20197691
199	0x3f0557f5	0.52087337
200	0xbd1fdcbb	-0.039028864
201	0x3d924a3c	0.07143065
202	0x3e603f8f	0.21899246
203	0xbef0bf9c	-0.47021186
204	0x3ebd34a8	0.36954236
205	0xbe6f9dc8	-0.23400033
206	0xbea5feea	-0.32421046
207	0x3be49520	0.006975785
208	0xbeb6c726	-0.35698813
209	0xbef18bff	-0.4717712
210	0x3d6fb0f3	0.05851836
211	0x3e2bda00	0.16782379
212	0x3e50f010	0.20404077
213	0x3d9fb2d4	0.07797781
214	0x3e99f940	0.30072975
215	0xbd13c83b	-0.036079627
216	0x3e67f265	0.2265106
217	0xbe373a37	-0.17893301
218	0x3e3c4b9d	0.18388219
219	0x3e1e940b	0.15486161
220	0x3e6ceb28	0.2313658
221	0x3ec3f592	0.38273293
222	0xbe457037	-0.19281088
223	0x3ebb0c8f	0.3653302
224	0xbce76ab2	-0.028249118
225	0x3ec8d54c	0.39225233
226	0x3d7cdb22	0.06173242
227	0xbd0add32	-0.033902355
228	0xbed3ecbf	-0.4139156
229	0x3f338e64	0.70139146
230	0x3eca127f	0.39467236
231	0x3e9d6d13	0.3074728
232	0x3eda27cb	0.42608485
233	0xbdd5c87b	-0.10438629
234	0xbe66d118	-0.225407
235	0x3ef61788	0.48064828
236	0x3e449efc	0.19201273
237	0x3f25c581	0.6475449
238	0xbe90c0cf	-0.282721
239	0xbe43cf2d	-0.19122
240	0x3e4f6226	0.20252284
241	0xbc87e0b9	-0.016586648
242	0xbda1c96f	-0.078997485
243	0x3d20906b	0.039200228
244	0xbe2c3204	-0.16815954
245	0xbe18a1c4	-0.14905459
246	0x3e840bb5	0.25790182
247	0x3ec39249	0.38197544
248	0xbe835263	-0.25648794
249	0x3ed4244c	0.41433942
250	0xbe80fe11	-0.25193837
251	0x3e7e4844	0.24832255
252	0xbe5d1f7b	-0.2159404
253	0x3e817fd2	0.25292832
254	0xbe948428	-0.29007077
255	0x3de364b0	0.11103189

conv.5.bias f4 [24]
0	0xbe83e982	-0.2576409
1	0x3ea08270	0.31349516
2	0x3effd883	0.49969873
3	0x3f03f872	0.5155097
4	0xbe01cfff	-0.12677
5	0x3eead635	0.45866552
6	0x3e679849	0.22616686
7	0xbe88c582	-0.26713187
8	0xbdae7f7f	-0.08520412
9	0x3d897142	0.06711055
10	0x3ed11f56	0.4084422
11	0x3e826ebb	0.25475106
12	0x3dc1a5ce	0.09455453
13	0xbe0fd1b6	-0.14044842
14	0xbd87a874	-0.06623927
15	0xbe4c7af4	-0.19968778
16	0x3db6afaa	0.08920224
17	0x3f1bbbcb	0.60833424
18	0x3ec8035e	0.3906507
19	0xbda6b264	-0.08139494
20	0x3e40dd1e	0.1883435
21	0x3f02280f	0.50842375
22	0x3f0b3f06	0.5439304
23	0xbe2d8823	-0.16946463

BN.weight f4 [24]
0	0x3fda5de8	1.7059908
1	0x3f67d9a2	0.90566456
2	0x3fe38190	1.7773914
3	0x40136ddf	2.303581
4	0x3fdc6e69	1.7221195
5	0x3fd2cf43	1.6469501
6	0x3fcc5fef	1.5966777
7	0x3fc56076	1.5420063
8	0x3fc26bc0	1.5189133
9	0x3fe60cb1	1.7972623
10	0x4005e1de	2.0919108
11	0x400ac34b	2.1681697
12	0x3fde5638	1.7370062
13	0x4003890e	2.0552402
14	0x3ff6d88e	1.9284837
15	0x3fe99e93	1.8251518
16	0x3fd9c7a3	1.7014049
17	0x3fad4593	1.3536857
18	0x3fe56b44	1.792336
19	0x3fd7b7ef	1.6853007
20	0x3fd1a555	1.637858
21	0x3fe7125b	1.8052477
22	0x3fe9c5da	1.8263505
23	0x3fe825eb	1.8136572

BN.bias f4 [24]
0	0x3f18cdea	0.596892
1	0x3e262c52	0.16227844
2	0x3efc5066	0.4928009
3	0x3f589e0c	0.8461616
4	0x3e90495e	0.28180975
5	0x3f1eea8f	0.6207666
6	0x3f24e631	0.64413744
7	0x3ee58141	0.44825175
8	0x3f0083c6	0.5020107
9	0x3ee0fa4a	0.43940955
10	0x3f171fa8	0.5903268
11	0x3f60861d	0.8770464
12	0x3f38f501	0.72248846
13	0x3f40376d	0.75084573
14	0x3f2430f8	0.6413722
15	0x3f0dfc8c	0.5546348
16	0x3eb506ed	0.35356846
17	0x3f1ee584	0.62068963
18	0x3f4101db	0.75393456
19	0x3e81abcf	0.25326392
20	0x3f0206f1	0.5079184
21	0x3edeae2a	0.43492252
22	0x3f4ceb74	0.8004677
23	0x3edc5daa	0.4304021

BN.running_mean f4 [24]
0	0xbf8a8c46	-1.0824058
1	0xbfd0bf1b	-1.6308321
2	0x3fb719b8	1.4304724
3	0x3fe44e8e	1.7836473
4	0x3f087fea	0.5332018
5	0x3ff6a488	1.9268961
6	0x3f8b7ea9	1.0898029
7	0xbfb9317b	-1.4468225
8	0xbfd156b1	-1.6354581
9	0x3fd29d89	1.6454326
10	0x3f96cc1d	1.178104
11	0x3f6c62fa	0.92338526
12	0xbfd91118	-1.6958342
13	0x3fca5ea2	1.581013
14	0x3fe81ad0	1.8133183
15	0x3f1f1678	0.6214366
16	0xbdde2256	-0.10846393
17	0x3fa130f0	1.259306
18	0x3ed21f3a	0.4103945
19	0x3f053108	0.5202794
20	0xbcb50c22	-0.022100512
21	0x40413c84	3.0193186
22	0x3fd20f31	1.6410886
23	0xbf62c22a	-0.8857752

BN.running_var f4 [24]
0	0x40095781	2.1459658
1	0x40275884	2.6147776
2	0x3fde774a	1.7380154
3	0x40473ccd	3.113086
4	0x4041a9ed	3.0259964
5	0x4070fcb0	3.7654228
6	0x40405e85	3.005769
7	0x402e42bf	2.7228239
8	0x401487f9	2.320799
9	0x401a3df5	2.4100316
10	0x401b6350	2.4279366
11	0x4073d2bf	3.809738
12	0x40793c2a	3.8942971
13	0x4042824f	3.0392034
14	0x4043d008	3.0595722
15	0x4026135e	2.594932
16	0x3fe7103d	1.805183
17	0x40679c45	3.618913
18	0x3ff1b7d1	1.8884221
19	0x4061fdf8	3.531126
20	0x4047725e	3.1163554
21	0x40bfa2b4	5.988611
22	0x40a1466b	5.039846
23	0x4014c253	2.3243606

dense.1.weight f4 [6, 24]
0	0xbe861a3a	-0.26191884
1	0x3e812a42	0.25227553
2	0x3edb071b	0.4277886
3	0x3eef690b	0.4675983
4	0xbe756186	-0.23962983
5	0x3efd8fba	0.49523717
6	0x3f219e12	0.6313182
7	0xbe1fb6c1	-0.15597059
8	0x3c506cf7	0.012721292
9	0xbec2b5d1	-0.3802934
10	0x3ed49c16	0.41525334
11	0x3eb65537	0.3561189
12	0xbd35409c	-0.04425107
13	0x3dfa76a0	0.12229657
14	0xbe14f7da	-0.14547673
15	0xbf03f6d1	-0.51548487
16	0xbd63799c	-0.055535898
17	0x3f0570af	0.52125067
18	0x3eaa5c7b	0.33273682
19	0xbf25a572	-0.64705575
20	0x3f216b3f	0.6305427
21	0x3f1e39f8	0.61807203
22	0x3edcfa8e	0.43159908
23	0xbec0e819	-0.37677076
24	0x3eab4e4e	0.3345818
25	0x3e95534c	0.29165113
26	0xbeb01027	-0.34387323
27	0x3f2c1167	0.67214054
28	0x3e9a9b15	0.30196443
29	0xbf854b3b	-1.0413584
30	0xbf13a4c6	-0.576733
31	0x3f1b6b4f	0.60710615
32	0xbe8cdbce	-0.27511448
33	0xbf63941a	-0.8889786
34	0xbf333cfa	-0.7001492
35	0x3f25e40e	0.6480111
36	0xbf200e0b	-0.6252143
37	0xbee82537	-0.45340893
38	0xbf598a46	-0.84976614
39	0xbe9d1174	-0.30677378
40	0x3f0f0206	0.5586246
41	0xbed7df1a	-0.421624
42	0xbf322e1a	-0.69601595
43	0x3ee86595	0.4539
44	0xbe9ac520	-0.3022852
45	0xbf40588f	-0.7513513
46	0xbf2b5917	-0.66932815
47	0xbf1b68c0	-0.6070671
48	0xbf03b199	-0.5144287
49	0xbe5f140f	-0.21784995
50	0x3f10378f	0.56334776
51	0xbef2eb90	-0.47445345
52	0x3e8504c8	0.2598021
53	0xbf1220a1	-0.5708104
54	0xbe119da8	-0.14220297
55	0x3e8f02c0	0.27931786
56	0x3f3da881	0.7408524
57	0x3ea615ef	0.3243861
58	0xbf90ac08	-1.13025
59	0xbf3e68d5	-0.7437871
60	0x3e793788	0.2433759
61	0xbf555bb3	-0.83343047
62	0x3e803b6c	0.25045335
63	0xbf331572	-0.699546
64	0xbf0b2b5f	-0.54363054
65	0xbec5bb27	-0.38619348
66	0xbf186ca8	-0.59540796
67	0xbe03211c	-0.12805599
68	0xbe8fcbef	-0.28085276
69	0xbf006ce3	-0.5016615
70	0xbef4a4d5	-0.47782007
71	0xbe88a1e0	-0.26686
72	0xbf0017f9	-0.5003658
73	0xbe011dd1	-0.1260903
74	0xbf32dbef	-0.6986684
75	0xbf489320	-0.78349495
76	0xbeac85c2	-0.336958
77	0xbf45de9d	-0.77292806
78	0x3e984190	0.2973752
79	0xbea336e0	-0.31877804
80	0xbe26be0f	-0.16283439
81	0x3ef2be71	0.4741092
82	0xbf39f389	-0.7263723
83	0xbf6192a8	-0.88114405
84	0xbf6be512	-0.9214641
85	0x3f230ce8	0.6369157
86	0x3f1aa39d	0.60405904
87	0x3f05c3fa	0.5225216
88	0xbf59c56e	-0.8506688
89	0xbe535a78	-0.2063998
90	0xbf265bd6	-0.6498388
91	0x3eb76289	0.35817364
92	0xbebbbfa7	-0.36669657
93	0x3d3dabb7	0.04630634
94	0xbf2e60a1	-0.68116194
95	0x3f04262f	0.51620764
96	0xbeab9248	-0.3351004
97	0x3c9b02fa	0.018922318
98	0xbe65c8e9	-0.22439922
99	0xbf5d5196	-0.86452615
100	0xbf228c56	-0.63495386
101	0xbf20556a	-0.6263033
102	0xbec8bb3f	-0.39205357
103	0xbf22e198	-0.6362548
104	0xbef4b795	-0.47796312
105	0x3e9849af	0.29743716
106	0x3f0ae1ef	0.54251
107	0xbebe6c5c	-0.37192047
108	0x3eee2f65	0.46520534
109	0xbf770125	-0.9648612
110	0xbf505518	-0.8137984
111	0x3efd89d5	0.4951922
112	0x3f1d0301	0.6133271
113	0xbed11b8a	-0.40841323
114	0x3f3e7425	0.7439597
115	0x3ebce7e1	0.3689566
116	0xbee919a6	-0.4552738
117	0xbecf8c56	-0.40536755
118	0xbf0e3b7b	-0.5555951
119	0xbf2177df	-0.63073534
120	0x3f1082e3	0.5644972
121	0xbeba1e5d	-0.3635129
122	0xbf199267	-0.5998902
123	0xbf1c8cf7	-0.61152595
124	0x3eec8757	0.46197006
125	0x3e85c058	0.2612331
126	0xbe6e3183	-0.23261075
127	0xbf0883d6	-0.53326166
128	0xbf204b14	-0.6261456
129	0xbf6c37da	-0.9227272
130	0xbf46e84d	-0.7769821
131	0xbf801ad7	-1.0008191
132	0x3f28fcb1	0.66010576
133	0x3ed69af6	0.419151
134	0xbf439848	-0.7640424
135	0xbf40ec1c	-0.75360274
136	0xbf014944	-0.5050242
137	0xbe693a27	-0.2277609
138	0xbf108e5b	-0.5646722
139	0xbf6b52c8	-0.9192319
140	0xbe9bd9d0	-0.30439615
141	0xbf4ec756	-0.8077291
142	0x3edd891e	0.43268675
143	0x3f15eb1c	0.58561873

dense.1.bias f4 [6]
0	0xbd2aded8	-0.041716427
1	0xbe077a1b	-0.13230173
2	0xbef70921	-0.48249152
3	0xbcddc6c3	-0.027072316
4	0xbe01c906	-0.1267434
5	0xbc7191a8	-0.0147442
