model/2023_2_1_hj_num_2.onnx (onnx, 130034 bytes, 14 tensors)

conv.0.weight f4 [16, 1, 3, 3]
-0.03605692 0.18721062 -0.03587906 0.02846448 0.1480449 0.20516768 0.013146394 -0.15515454
0.20551711 -0.28948593 0.104858756 0.025960188 -0.08121157 -0.0063765966 -0.30773306 0.26361027
-0.048939247 -0.07161462 -0.29427058 0.24719346 -0.026580052 -0.013210856 0.29191712 -0.11508815
-0.3468901 -0.11600359 0.21425979 0.19332021 -0.12982467 -0.34545532 -0.07905208 -0.34317294
0.16868111 -0.15278195 -0.25997517 -0.14710575 -0.35437715 -0.015247384 -0.12041471 -0.10259866
-0.24144895 0.23680641 0.11301193 -0.09948808 -0.0026813764 0.19986732 -0.152654 -0.3527588
0.21418227 -0.24955176 0.23676132 -0.37404072 -0.16187342 -0.25791416 -0.053619664 0.16919008
-0.29032356 0.176004 -0.24989769 0.2547854 0.043425035 0.07619145 0.13041984 0.26985958
0.14346726 0.19297801 -0.13267255 -0.28006637 0.300829 -0.04010495 -0.0927373 -0.25661916
0.043276425 0.06630217 0.03646212 -0.14758267 0.3431947 0.10262926 -0.324623 -0.14158809
-0.12421442 -0.25669673 0.28829977 -0.14291532 -0.09815039 -0.121579945 0.16296105 -0.123757794
0.22631852 0.13260059 -0.27034542 0.32396287 0.05123826 -0.04861661 -0.20668712 -0.12188201
-0.2981109 0.021060476 0.17913839 0.033651832 0.062572025 0.31365773 -0.117883466 0.17485006
-0.082675874 -0.18901943 -0.07705992 0.25744486 0.048727363 -0.07796536 -0.01722446 -0.13886341
-0.20059079 -0.22643742 -0.112090014 -0.07472374 0.13242097 0.028543925 -0.32494172 -0.15834136
-0.12090149 0.16131426 -0.042854134 0.08193308 0.1564586 0.20195182 0.09225375 0.18625487
0.33058807 0.15551913 0.2285608 -0.0345493 -0.26064622 -0.28461128 -0.2139659 -0.2142695
0.32358178 0.2943432 0.19327486 0.2221386 0.24802528 0.322171 -0.23644163 0.09048324
00000000: 6cb0 13bd 24b4 3f3e ecf5 12bd 572e e93c
00000010: 1599 173e 7a17 523e f963 573c d5e0 1ebe
00000020: 1473 523e 8037 94be 30c0 d63d 76aa d43c
00000030: 4052 a6bd c5f2 d0bb 308f 9dbe edf7 863e
00000040: 8574 48bd b0aa 92bd a2aa 96be 4820 7d3e
00000050: 69be d9bc 5972 58bc 2976 953e 56b3 ebbd
00000060: 949b b1be 4a93 edbd eb66 5b3e bcf5 453e
00000070: c2f0 04be 85df b0be 0fe6 a1bd 5db4 afbe
00000080: beba 2c3e df72 1cbe 771b 85be e4a2 16be
00000090: ec70 b5be 2ad0 79bc fd9b f6bd 3f1f d2bd
000000a0: 653e 77be 617d 723e cc72 e73d 68c0 cbbd
000000b0: 08ba 2fbb 05aa 4c3e 5551 1cbe cd9c b4be
000000c0: 9952 5b3e 7f8a 7fbe 8f71 723e 4482 bfbe
000000d0: 25c2 25be 530d 84be 4ba0 5bbd 2a40 2d3e
000000e0: 4aa5 94be 643a 343e 2ee5 7fbe 3b73 823e
000000f0: 73de 313d 430a 9c3d c78c 053e 092b 8a3e
00000100: 15e9 123e 079c 453e 50db 07be dc64 8fbe
00000110: 4206 9a3e 1745 24bd 0eed bdbd 9663 83be
00000120: 9f42 313d 6fc9 873d 4e59 153d e91f 17be
00000130: 37b7 af3e 4a2f d23d fc34 a6be 78fc 10be
00000140: 2164 febd c16d 83be 079c 933e 6558 12be
00000150: 1203 c9bd e8fe f8bd 43df 263e ba74 fdbd
00000160: 0bc0 673e 73c8 073e b76a 8abe 76de a53e
00000170: 36df 513d 3622 47bd caa5 53be 469d f9bd
00000180: fea1 98be 0587 ac3c 0e70 373e 81d6 093d
00000190: c325 803d bf97 a03e e36c f1bd e50b 333e
000001a0: f851 a9bd 4f8e 41be 97d1 9dbd d0cf 833e
000001b0: 5896 473d 4dac 9fbd 501a 8dbc 3632 0ebe
000001c0: ac67 4dbe 36df 67be 738f e5bd c308 99bd
000001d0: 5d99 073e f3d4 e93c c35e a6be 3d24 22be
000001e0: 339b f7bd 912f 253e d187 2fbd 88cc a73d
000001f0: af36 203e 75cc 4e3e 89ef bc3d 99b9 3e3e
00000200: d742 a93e 6840 1f3e d80b 6a3e 9183 0dbd
00000210: 6c73 85be 92b8 91be e019 5bbe 7769 5bbe
00000220: 83ac a53e 27b4 963e d8e9 453e 4d78 633e
00000230: 57fa 7d3e 99f3 a43e c11d 72be 474f b93d

conv.0.bias f4 [16]
0.20233552 0.14673442 -0.055538483 0.16604011 0.039008237 -0.06704219 -0.26635286 -0.21405312
-0.105674066 0.022866141 0.1659422 0.052894037 0.14075562 0.032171514 -0.1951607 0.012374276
00000000: 0b31 4f3e 8c41 163e 527c 63bd 6b06 2a3e
00000010: 1ac7 1f3d 6a4d 89bd 675f 88be be30 5bbe
00000020: a56b d8bd c651 bb3c c1ec 293e 6ba7 583d
00000030: 3e22 103e 47c6 033d 35d8 47be 7abd 4a3c

conv.2.weight f4 [16, 16, 3, 3]
-0.032115348 -0.057909295 -0.015693128 -0.07193705 0.030621674 -0.01543827 -0.015127285 -0.06160154
-0.026403582 0.0049076015 -0.069599696 -0.040556952 -0.046618447 -0.070063174 0.063874215 0.0518709
0.015787782 -0.05991438 -0.053400155 -0.07029396 -0.0021784364 0.05225247 -0.08180218 -0.0005189353
0.013693353 -0.013707051 -0.06267264 -0.07742539 -0.06663244 0.025874447 0.024363635 -0.043405406
0.054499496 0.014382797 -0.0231375 -0.0445864 -0.08087716 -0.04720252 0.0063276547 -0.008740767
-0.0458066 0.05555094 0.004834453 -0.029604072 0.034005042 0.060812708 -0.04411594 -0.039045643
0.07173711 -0.038134716 -0.047996163 -0.01080741 0.023630695 0.049954474 0.011900021 -0.060653932
0.004623204 -0.011705585 -0.026741842 -0.0033691349 0.055942938 0.02086299 -0.017990293 -0.068685465
0.07912202 -0.02792472 0.011405617 -0.03652633 -0.034538053 -0.016147934 -0.08327023 -0.057302065
0.044607732 0.01393011 -0.04431639 -0.07776321 0.03563729 0.051222153 -0.020441957 0.026714263
-0.05055384 -0.02740396 0.04293566 0.034947798 0.0339619 -0.053912148 -0.018279206 -0.053390592
0.0022086273 -0.05169712 0.053272184 -0.037812606 -0.082904495 0.028872732 0.06465869 0.024441805
0.0016227507 0.003396951 0.024368914 -0.07060778 -0.0225975 0.003795494 0.044867903 -0.049097028
-0.08814857 0.030252073 0.05984618 0.04487571 0.012303485 -0.010058905 -0.05454198 -0.030801538
-0.0071092956 0.001115106 -0.08036943 -0.028525969 -0.0039674905 -0.07589934 -0.0449867 0.07601861
-0.056130245 0.041311685 0.038164627 0.045481745 0.0023047316 0.0025495766 0.02251182 -0.019793412
-0.053306162 0.0666197 -0.05497112 -0.032038894 0.067701206 -0.0004866023 -0.029122347 -0.04937653
0.012120456 0.029546855 -0.007527345 0.061834373 0.018381666 -0.022067515 0.01742155 -0.057754874
0.030429801 0.06539076 0.0818153 0.05029449 0.022357356 0.024481848 0.034424033 -0.040081564
-0.02140932 -0.031732656 -0.06363715 -0.03324173 -0.07481362 -0.07114081 -0.06898234 -0.016395956
-0.01068895 0.010630079 -0.09754709 -0.1040894 -0.054294925 0.008276568 -0.07747577 -0.08880209
-0.014214578 -0.11256231 -0.05553944 0.021302706 -0.080853604 -0.0794501 0.0534142 0.064699136
-0.056840036 -0.043341722 -0.01540495 0.025864497 0.045921 -0.022784295 -0.064759 0.023087248
-0.07212787 -0.0047580823 -0.009566845 -0.02984702 -0.040133115 -0.113302074 -0.091131926 -0.027897423
-0.060036372 0.0050559156 0.036162425 -0.081110716 -0.10257546 0.0014674086 0.044839837 -0.08090269
-0.01484779 0.04224814 -0.020943457 -0.07137928 -0.018068176 -0.02645697 -0.048533473 -0.06924864
0.058447517 -0.045513343 -0.067291364 -0.004969365 -0.03666068 -0.045400947 0.025622983 0.0051138704
-0.10468589 -0.03075721 -0.111502364 0.00045472354 -0.018475283 0.016642762 -0.030713622 -0.054050792
-0.0012143718 -0.06329972 0.0143767055 -0.031872768 -0.023956928 -0.078822576 -0.06351027 -0.046353042
0.026612673 -0.043648444 -0.07815938 0.010787193 0.05760372 0.042995144 -0.0850297 -0.09026515
0.061383486 -0.01992858 0.012421198 -0.055606816 -0.05749102 0.068536386 -0.039010454 0.05930168
0.087569036 -0.075119756 -0.074260786 -0.049403824 -0.031448178 0.074840896 -0.018724388 -0.005755625
00000000: 628b 03bd 4c32 6dbd e08e 80bc bb53 93bd
00000010: 4eda fa3c ccf0 7cbc 6fd8 77bc e551 7cbd
00000020: 534c d8bc f2cf a03b 498a 8ebd 0c1f 26bd
00000030: fcf2 3ebd 487d 8fbd 7cd0 823d 9576 543d
00000040: 6155 813c c868 75bd 1fba 5abd 48f6 8fbd
00000050: 19c4 0ebb b006 563d e787 a7bd 2909 08ba
00000060: 165a 603c 8a93 60bc 835a 80bd 3491 9ebd
00000070: 9776 88bd a6f6 d33c 3f96 c73c dec9 31bd
00000080: dd3a 5f3d d3a5 6b3c db8a bdbc 3ba0 36bd
00000090: eda2 a5bd 6e57 41bd 3758 cf3b 6f35 0fbc
000000a0: b49f 3bbd 6289 633d 556a 9e3b 3d84 f2bc
000000b0: df48 0b3d bf16 793d eab2 34bd 53ee 1fbd
000000c0: e8ea 923d 2633 1cbd a097 44bd 9011 31bc
000000d0: 2995 c13c 109d 4c3d 4ef8 423c 4270 78bd
000000e0: 3f7e 973b c8c8 3fbc b511 dbbc b4cc 5cbb
000000f0: 6c24 653d dce8 aa3c 6160 93bc f7aa 8cbd
00000100: ba0a a23d 62c2 e4bc a0de 3a3c a29c 15bd
00000110: c677 0dbd ac48 84bc 9589 aabd 92b5 6abd
00000120: 99b6 363d 1e3b 643c 1a85 35bd 5142 9fbd
00000130: 68f8 113d 52ce 513d e475 a7bc dfd7 da3c
00000140: 8b11 4fbd 457e e0bc 4ddd 2f3d 6c25 0f3d
00000150: a21b 0b3d fcd2 5cbd 46be 95bc 18b0 5abd
00000160: 9ebe 103b 5cc0 53bd ef33 5a3d 64e1 1abd
00000170: d5c9 a9bd 8286 ec3c c66b 843d 2e3a c83c
00000180: 7ab2 d43a 619f 5e3b 51a1 c73c d09a 90bd
00000190: 641e b9bc d3bd 783b 68c7 373d f719 49bd
000001a0: 3d87 b4bd 32d3 f73c 4521 753d 98cf 373d
000001b0: 8e94 493c 1bce 24bc 6967 5fbd 8253 fcbc
000001c0: 18f5 e8bb c028 923a ba98 a4bd 4baf e9bc
000001d0: b901 82bb 1d71 9bbd f943 38bd a5af 9b3d
000001e0: d4e8 65bd 7136 293d 8352 1c3d 114b 3a3d
000001f0: fb0a 173b cc16 273b b56a b83c cb25 a2bc
00000200: 9057 5abd e96f 883d 6629 61bd 373b 03bd
00000210: eea6 8a3d a81e ffb9 fd91 eebc 0b3f 4abd
00000220: e194 463c 3f0c f23c f2a7 f6bb 0a46 7d3d
00000230: 2695 963c efc6 b4bc a3b7 8e3c 6090 6cbd
00000240: eb47 f93c 97eb 853d c88e a73d 9801 4e3d
00000250: c626 b73c 288e c83c 3700 0d3d 912c 24bd
00000260: 9962 afbc 1afa 01bd 3254 82bd 7b28 08bd
00000270: e237 99bd 46b2 91bd 9d46 8dbd d050 86bc
00000280: b520 2fbc c829 2e3c c5c6 c7bd d32c d5bd
00000290: 5b64 5ebd 719a 073c 9eab 9ebd dfdd b5bd
000002a0: 43e4 68bc 1287 e6bd 537d 63bd 0383 ae3c
000002b0: 9396 a5bd bcb6 a2bd d9c8 5a3d fb80 843d
000002c0: 19d1 68bd 1787 31bd 0b65 7cbc c8e1 d33c
000002d0: a917 3c3d 21a6 babc 5ea0 84bd 7821 bd3c
000002e0: c7b7 93bd b0e9 9bbb 42be 1cbc bd81 f4bc
000002f0: 9f62 24bd eb0a e8bd 60a3 babd 2389 e4bc
00000300: b3e8 75bd 18ac a53b 0d1f 143d 601d a6bd
00000310: 1513 d2bd 1056 c03a faa9 373d 4fb0 a5bd
00000320: 2544 73bc 630c 2d3d 9d91 abbc 4d2f 92bd
00000330: b603 94bc 4abc d8bc 09cb 46bd 3bd2 8dbd
00000340: aa66 6f3d 336c 3abd 0ed0 89bd 0ed6 a2bb
00000350: 8229 16bd 58f6 39bd 4ae7 d13c 4192 a73b
00000360: 8e65 d6bd 8bf6 fbbc 5a5b e4bd f667 ee39
00000370: 7a59 97bc 6756 883c 229b fbbc 5d64 5dbd
00000380: 8e2b 9fba 49a3 81bd 468c 6b3c 058d 02bd
00000390: 5241 c4bc bb6d a1bd ac11 82bd b0dc 3dbd
000003a0: d202 da3c b6c8 32bd 0612 a0bd c4bc 303c
000003b0: e1f1 6b3d ad1b 303d 0d24 aebd efdc b8bd
000003c0: 406d 7b3d 4341 a3bc 4882 4b3c f9c3 63bd
000003d0: b47b 6bbd ce5c 8c3d 6dc9 1fbd 52e6 723d
000003e0: 6557 b33d 63d8 99bd 0a16 98bd aa5b 4abd
000003f0: cecf 00bd 2f46 993d e363 99bc af99 bcbb

conv.2.bias f4 [16]
-0.02061275 0.060166456 0.024679642 -0.02650258 0.011295 0.028123254 0.101373166 0.043732565
0.024366794 -0.017312352 0.02970313 0.06612173 0.036255214 0.018708356 0.08912814 0.019409874
00000000: 12dc a8bc 1a71 763d f62c ca3c f01b d9bc
00000010: aa0e 393c bd62 e63c bc9c cf3d eb20 333d
00000020: df9c c73c a2d2 8dbc fa53 f33c d46a 873d
00000030: 5980 143d 4442 993c d088 b63d 7501 9f3c

conv.4.weight f4 [32, 16, 3, 3]
0.017023277 0.003199478 -0.07559339 0.016666727 -0.06999346 0.03845866 -0.042419028 0.064368665
-0.008835942 -0.018556662 0.048099976 0.062493447 -0.032307286 -0.051817846 0.061965108 0.0149272615
-0.07585761 0.055603597 -0.030158918 0.018026 0.035949796 -0.05652604 -0.050343227 -0.025601268
-0.025373453 0.045293905 0.036657047 0.041551504 0.0049026674 0.004270325 0.030408144 -0.052191414
-0.0021508168 -0.058120348 0.013430305 -0.027650362 -0.0705358 -0.033116836 0.04967731 -0.083686695
0.030037403 0.040165212 0.0207017 -0.06712265 0.07779879 0.048109587 0.037380118 0.054423098
-0.062137727 -0.08163495 -0.030572148 -0.05330348 -0.0012996221 -0.0741033 0.022700371 0.090012595
-0.033950947 0.062061157 0.063018076 -0.01860246 0.09960716 -0.019541165 -0.027769314 -0.11891539
-0.02618152 -0.008442157 -0.013998622 0.044841234 0.033367824 0.01984083 -0.06200078 0.020782804
-0.03066008 -0.016131494 -0.014404502 0.0141295055 -0.050799742 -0.028421119 0.050397962 -0.0796525
-0.035968207 -0.042372327 -0.0739085 -0.04265652 -0.04344148 -0.1359547 -0.075327136 -0.07140142
-0.04469042 0.030466078 0.008930657 -0.053441033 -0.04856311 0.054479085 -0.015917702 0.063336916
-0.028547047 0.017877502 0.07509997 -0.06049598 0.05986156 -0.09884637 0.037139557 0.07212218
-0.0059815156 0.08398606 0.04564717 0.026709504 -0.06108385 -0.020621166 0.02338198 -0.00014463285
0.04267445 0.06562004 0.02160651 0.09289985 -0.0032759914 -0.00815104 -0.0050064772 -0.052742343
-0.07108164 -0.0029379632 0.0698018 -0.035572518 -0.0033583855 0.062352534 0.06867238 -0.05530214
-0.07869068 0.0352504 -0.056068663 0.04291759 0.018056476 -0.067538105 0.015582604 0.04004437
0.0637217 0.077369876 0.064738385 0.03146932 -0.03707928 -0.0413423 -0.0035753727 -0.059623856
0.030186882 -0.036583968 -0.0567094 0.071271166 0.039937392 -0.041981936 0.014895849 0.0051154727
0.08158083 0.008012244 0.011649846 0.04372335 -0.07995811 -0.031246087 -0.073847905 -0.025121002
0.05288662 -0.06025385 0.018898733 -0.06382586 -0.08334375 -0.0144027015 0.030637711 0.02656668
0.01757082 -0.030574298 -0.053158298 0.060899924 0.01193936 -0.074496225 -0.024366932 -0.064782344
0.046878826 0.07075226 -0.0074763987 -0.06259772 0.026144505 -0.041618764 -0.05371313 -0.04364799
0.00022239824 0.05344807 -0.04032187 0.056293182 -0.008516402 0.06504356 0.066167496 -0.0033271105
-0.021905666 -0.067508996 0.008365156 0.03174886 -0.007500406 -0.0008086649 -0.055304285 0.05010092
-0.06736432 -0.035480328 -0.037329853 0.06355002 0.021386262 -0.049775023 -0.039907597 0.037400614
0.0008242371 -0.013676001 -0.05304867 0.045025665 0.006148778 0.06741011 0.05067438 -0.067998074
-0.030225094 -0.031211069 0.021300972 0.06723716 0.012417593 -0.0787963 -0.054360144 -0.051037293
0.007820733 -0.001631303 -0.04244139 -0.09377666 -0.027845541 0.016478844 0.021066032 -0.028968235
-0.034215633 0.011689677 -0.034653764 -0.029132621 0.062232073 0.055040713 -0.029684605 0.036600772
-0.05589038 0.0035710928 -0.008197711 0.045578852 -0.03605844 -0.05555348 0.051795494 -0.01715174
-0.008570491 0.015223254 0.053801253 0.030090237 -0.08022756 0.029939733 -0.06611242 -0.02957392
00000000: 6674 8b3c 55ae 513b b5d0 9abd a988 883c
00000010: bb58 8fbd d486 1d3d 93bf 2dbd b8d3 833d
00000020: a0c4 10bc 2404 98bc 7b04 453d 21f9 7f3d
00000030: a554 04bd f33e 54bd 20cf 7d3d 7991 743c
00000040: 3c5b 9bbd 99c0 633d d60f f7bc 43ab 933c
00000050: 1840 133d d987 67bd b334 4ebd c0b9 d1bc
00000060: fddb cfbc 1a86 393d b325 163d e931 2a3d
00000070: 8ea6 a03b 15ee 8b3b 801a f93c aac6 55bd
00000080: b8f4 0cbb 9a0f 6ebd c80a 5c3c 0383 e2bc
00000090: 1375 90bd 85a5 07bd 6f7a 4b3d ee63 abbd
000000a0: 0011 f63c 4784 243d 9d96 a93c 9a77 89bd
000000b0: f954 9f3d 8f0e 453d e51b 193d c1ea 5e3d
000000c0: 2184 7ebd 3a30 a7bd 7172 fabc c054 5abd
000000d0: 1558 aaba 79c3 97bd 21f6 b93c 8658 b83d
000000e0: 2610 0bbd d733 7e3d 9f0f 813d 3064 98bc
000000f0: d7fe cb3d cb14 a0bc 797c e3bc e989 f3bd
00000100: a17a d6bc f950 0abc 7a5a 65bc 71ab 373d
00000110: b3ac 083d 3c89 a23c 88f4 7dbd b340 aa3c
00000120: d92a fbbc 3226 84bc dc00 6cbc 717f 673c
00000130: 6413 50bd 68d3 e8bc 186e 4e3d da20 a3bd
00000140: 6653 13bd 9b8e 2dbd 575d 97bd 9ab8 2ebd
00000150: b1ef 31bd b537 0bbe 1d45 9abd e83a 92bd
00000160: 4d0d 37bd ff93 f93c e451 123c fce4 5abd
00000170: 1dea 46bd 7625 5f3d d765 82bc c9b6 813d
00000180: 7fdb e9bc d773 923c 03ce 993d a2ca 77bd
00000190: 6531 753d f76f cabd a61f 183d cbb4 933d
000001a0: 9700 c4bb e200 ac3d 87f8 3a3d e4cd da3c
000001b0: 0f33 7abd b8ed a8bc 918b bf3c 96a8 17b9
000001c0: 67cb 2e3d cd63 863d 2300 b13c 4742 be3d
000001d0: 04b2 56bb f18b 05bc 600d a4bb 5b08 58bd
000001e0: 4093 91bd d88a 40bb 3ff4 8e3d 7db4 11bd
000001f0: 5c18 5cbb 5f65 7f3d 1ba4 8c3d 7f84 62bd
00000200: 9428 a1bd b962 103d 41a8 65bd 5bca 2f3d
00000210: 2deb 933c 6b51 8abd 2e4e 7f3c 9105 243d
00000220: 8680 823d 1974 9e3d 8f95 843d f9e5 003d
00000230: 71e0 17bd 8b56 29bd cd50 6abb 2538 74bd
00000240: 7b4a f73c 12d9 15bd 1e48 68bd 9ef6 913d
00000250: 6495 233d 40f5 2bbd b80d 743c b29f a73b
00000260: da13 a73d c945 033c ffde 3e3c 4117 333d
00000270: 14c1 a3bd cbf7 ffbc 923d 97bd 8fca cdbc
00000280: a49f 583d becc 76bd 84d1 9a3c 22b7 82bd
00000290: 21b0 aabd 4ff9 6bbc f0fb fa3c 5ea2 d93c
000002a0: aef0 8f3c f376 fabc 84bc 59bd 3372 793d
000002b0: 4e9d 433c 7a91 98bd 299d c7bc 9bac 84bd
000002c0: 0304 403d 90e6 903d 94fc f4bb 3c33 80bd
000002d0: 002d d63c 7078 2abd 4d02 5cbd 3cc8 32bd
000002e0: 9333 6939 5dec 5a3d 8c28 25bd ae93 663d
000002f0: 6188 0bbc 8f35 853d d382 873d a70b 5abb
00000300: 8373 b3bc 2842 8abd 020e 093c 180b 023d
00000310: f7c5 f5bb 95fc 53ba bf86 62bd 9f36 4d3d
00000320: 4ef6 89bd d253 11bd 30e7 18bd 8326 823d
00000330: 3e32 af3c e5e0 4bbd 2676 23bd 6331 193d
00000340: 9e11 583a 4e11 60bc 9049 59bd d56c 383d
00000350: b07b c93b 500e 8a3d f08f 4f3d 9342 8bbd
00000360: 9e9a f7bc 5bae ffbc 607f ae3c a3b3 893d
00000370: 2973 4b3c f45f a1bd bea8 5ebd 7b0c 51bd
00000380: 8822 003c 72d1 d5ba 06d7 2dbd fa0d c0bd
00000390: 551c e4bc a4fe 863c ac92 ac3c cb4e edbc
000003a0: b125 0cbd 0f86 3f3c 1bf1 0dbd 89a7 eebc
000003b0: 0fe7 7e3d 5f72 613d 212d f3bc b1ea 153d
000003c0: 50ed 64bd ff08 6a3b b14f 06bc e4b0 3a3d
000003d0: 04b2 13bd 0c8c 63bd 8327 543d ce81 8cbc
000003e0: 3f6b 0cbc f56a 793c b45e 5c3d cd7f f63c
000003f0: 594e a4bd 2c44 f53c f365 87bd 0145 f2bc

conv.4.bias f4 [32]
0.012215341 0.0076813665 -0.05170358 -0.047235638 0.007790212 0.00011553033 0.022056326 0.09506357
-0.06999544 0.0530252 -0.027959576 -0.010473418 -0.015137715 -0.07290529 0.07989227 -0.090675965
-0.050751407 -0.069200106 0.08066724 0.062312707 0.07978743 -0.07066088 -0.0848195 0.10054527
0.026380872 0.056614697 0.00696773 -0.022804743 0.007281735 0.06912654 -0.057125755 0.074893124
00000000: db22 483c f9b3 fb3b 22c7 53bd 287a 41bd
00000010: 0945 ff3b e048 f238 78af b43c b0b0 c23d
00000020: c559 8fbd f430 593d 7b0b e5bc b398 2bbc
00000030: 2e04 78bc 5e4f 95bd 8f9e a33d 52b4 b9bd
00000040: b5e0 4fbd c9b8 8dbd de34 a53d 9c3b 7f3d
00000050: 9867 a33d a7b6 90bd d9b5 adbd aeea cd3d
00000060: b31c d83c d0e4 673d 8e51 e43b 03d1 babc
00000070: 9f9b ee3b 3792 8d3d b2fc 69bd 9161 993d

conv.7.weight f4 [64, 32, 3, 3]
-0.022809988 -0.03623509 -0.02970619 -0.012877817 -0.0025366456 0.0044765244 -0.045696158 0.014607015
0.05819991 0.0061400356 0.024752675 0.036877513 -0.0559512 -0.034179118 0.040787548 -0.038938463
-0.04802103 -0.00083896343 -0.025817605 -0.0005795014 -0.07958241 -0.026496058 -0.046532776 -0.018483926
-0.030339576 -0.036586672 -0.0957641 -0.0043718857 0.052462947 0.05451201 0.027854467 0.06346552
-0.0037772544 -0.032297675 0.03141964 0.026571793 -0.0064445063 -0.03857817 -0.045196608 -0.042617515
0.01808235 -0.085750826 0.007706836 -0.1181748 0.0020492447 0.0035989692 0.04367135 0.03210267
-0.035228085 0.0041691586 -0.03803936 -0.06792424 0.013143862 -0.016381733 0.004593043 -0.027058655
-0.015143083 -0.0254889 -0.002184953 0.0005672114 0.016661199 0.026007531 0.035448316 0.008671078
0.0035712386 -0.047758102 -0.023902513 0.034732614 -0.027098551 0.0205432 -0.06253852 -0.0034087857
-0.0048962226 0.018912831 0.052429315 -0.0075738067 -0.058693297 0.01846726 0.008330866 -0.052754894
-0.0036892602 -0.041378956 0.0402998 -0.047727052 -0.03691755 0.036183175 -0.08196276 -0.012422345
0.040333785 0.021675473 0.034837674 0.03137208 -0.028294967 0.016002588 -0.002030077 0.025392277
-0.03757226 -0.014643123 0.030406158 0.008824168 -0.033876218 -0.020571476 -0.016151728 0.046938688
0.032552663 -0.060480624 -0.09453968 -0.073894896 0.08304819 0.0674196 0.012435206 0.026270218
0.056134358 0.016394198 0.012030236 -0.0411909 0.0010615896 -0.026815 0.02815516 -0.027348164
0.0033287928 -0.05837066 -0.022313518 0.013200222 -0.013762125 -0.040227275 -0.02061526 0.017821372
0.018783081 -0.040012516 -0.075409494 -0.074988276 -0.020855218 -0.03380083 -0.030113969 -0.051281225
0.004717547 -0.025726905 0.007761557 -0.045746204 0.03166409 -0.011731647 0.027879803 0.010967433
-0.015494577 0.030039925 -0.015043478 0.06641437 -0.0041922433 0.007951033 0.044458497 0.08724817
0.023556124 -0.03256383 0.048779745 0.012468387 0.042137556 0.040909786 -0.017512737 0.018433388
0.03648421 -0.0035957687 -0.0039207125 -0.047296513 -0.042907286 0.004905493 -0.06094135 -0.020832608
0.01385343 -0.047553927 -0.017992983 -0.05536042 -0.02133334 -0.04960607 0.040256057 -0.01578242
-0.052724205 -0.041560315 -0.009389613 -0.017493179 0.030220743 0.04883808 0.027296085 -0.0011182656
-0.041453887 0.031227555 0.024957612 0.05184162 0.062695734 0.025105285 0.026329445 -0.03537482
0.008813954 0.008441899 0.008255433 -0.019548196 -0.025451807 -0.0032962682 0.011970516 -0.022814738
0.057533804 0.0018283934 -0.0014195723 -0.030122703 0.045738123 0.030360261 0.029136695 0.00814585
0.08236334 0.023623083 0.052578945 0.060294583 0.046953168 0.026903797 0.03644606 0.015088239
-0.018416412 -0.010517809 0.040503893 -0.009582361 0.06811083 -0.059515182 -0.02593779 -0.051577996
0.045273434 -0.04305655 0.00401963 0.060259435 -0.022335596 -0.018170582 -0.056270327 -0.038795583
-0.03708 -0.005474553 -0.031873792 -0.008140469 -0.01731561 -0.019066446 0.018708691 0.013908317
-0.06020188 0.014305815 0.017108504 0.0013626866 0.039032977 0.009186181 -0.00223421 -0.067630716
0.059223447 -0.0742796 0.006702628 0.009702857 0.009815938 0.065482505 0.02589968 -0.03199353
00000000: 03dc babc 3f6b 14bd 655a f3bc 7bfd 52bc
00000010: da3d 26bb cfaf 923b e52b 3bbd 4352 6f3c
00000020: 0763 6e3d 5a32 c93b 1fc6 ca3c e00c 173d
00000030: 162d 65bd 67ff 0bbd d810 273d f07d 1fbd
00000040: b3b1 44bd e2ed 5bba 717f d3bc aee9 17ba
00000050: 1afc a2bd 430e d9bc 2799 3ebd 9a6b 97bc
00000060: b48a f8bc e8db 15bd f81f c4bd 0942 8fbb
00000070: 63e3 563d fc47 5f3d 0d2f e43c 36fa 813d
00000080: d08b 77bb 914a 04bd e1b1 003d 17ad d93c
00000090: 702c d3bb 2504 1ebd 1420 39bd b48f 2ebd
000000a0: 7021 943c 219e afbd a089 fc3b a105 f2bd
000000b0: 9f4c 063b afdc 6b3b bbe0 323d 177e 033d
000000c0: 534b 10bd 709d 883b 29cf 1bbd dd1b 8bbd
000000d0: 5a59 573c fc32 86bc 3d81 963b 1daa ddbc
000000e0: b21a 78bc 19ce d0bc 6e31 0fbb eab0 143a
000000f0: 117d 883c bf0d d53c 4132 113d 2311 0e3c
00000100: 710b 6a3b 009e 43bd 34cf c3bc c943 0e3d
00000110: c8fd ddbc 374a a83c 3214 80bd ef65 5fbb
00000120: 7e70 a0bb 15ef 9a3c 1fc0 563d b22d f8bb
00000130: 6268 70bd a748 973c 2f7e 083c 8415 58bd
00000140: 84c7 71bb fb7c 29bd 6711 253d 717d 43bd
00000150: db36 17bd cf34 143d 17dc a7bd 1787 4bbc
00000160: 0a35 253d c390 b13c f3b1 0e3d 0380 003d
00000170: d9ca e7bc dc17 833c 0a0b 05bb 7703 d03c
00000180: 5fe5 19bd b6e9 6fbc 5616 f93c 3e93 103c
00000190: cac1 0abd 8385 a8bc a150 84bc c842 403d
000001a0: f155 053d 88ba 77bd 059e c1bd 3556 97bd
000001b0: 2b15 aa3d 4a13 8a3d 09bd 4b3c a434 d73c
000001c0: 24ed 653d 204d 863c 781a 453c cab7 28bd
000001d0: 0925 8b3a 22ab dbbc a6a5 e63c 4209 e0bc
000001e0: e027 5a3b 1316 6fbd d7ca b6bc be45 583c
000001f0: 897a 61bc 5bc5 24bd 55e1 a8bc 20fe 913c
00000200: fade 993c 2ae4 23bd 4b70 9abd 7493 99bd
00000210: 90d8 aabc bd72 0abd 92b1 f6bc 430c 52bd
00000220: a795 9a3b 3bc1 d2bc a954 fe3b 5f60 3bbd
00000230: 34b2 013d 1836 40bc 2f64 e43c c0b0 333c
00000240: f7dc 7dbc 4a16 f63c ec78 76bc 4204 883d
00000250: 165f 89bb 0d45 023c 1d1a 363d 2baf b23d
00000260: c6f8 c03c a761 05bd 45cd 473d 3548 4c3c
00000270: 6e98 2c3d 0591 273d df76 8fbc 9e01 973c
00000280: 7870 153d fda6 6bbb 5279 80bb fdb9 41bd
00000290: 8dbf 2fbd 42be a03b a39d 79bd 25a9 aabc
000002a0: 7ff9 623c e8c7 42bd 0566 93bc 9cc1 62bd
000002b0: 42c3 aebc bc2f 4bbd 89e3 243d 224a 81bc
000002c0: 56f5 57bd 263b 2abd e4d6 19bc db4d 8fbc
000002d0: 7e91 f73c 700a 483d 0a9c df3c c492 92ba
000002e0: 8dcb 29bd eed0 ff3c e873 cc3c e157 543d
000002f0: 9f66 803d 99a9 cd3c d9b0 d73c 30e5 10bd
00000300: 6768 103c e44f 0a3c cc41 073c 8a23 a0bc
00000310: 4f80 d0bc 3406 58bb fc1f 443c f9e5 babc
00000320: 91a8 6b3d b4a6 ef3a f110 baba e3c3 f6bc
00000330: e657 3b3d 15b6 f83c 14b0 ee3c 2c76 053c
00000340: 1cae a83d 3285 c13c 055d 573d 74f7 763d
00000350: f751 403d 5a65 dc3c 7748 153d a934 773c
00000360: 04de 96bc e352 2cbc 69e7 253d 56ff 1cbc
00000370: b17d 8b3d 31c6 73bd 7d7b d4bc 7343 53bd
00000380: a370 393d 115c 30bd 1ab7 833b 99d2 763d
00000390: 24f9 b6bc 79da 94bc b77b 66bd 1ee8 1ebd
000003a0: 33e1 17bd e163 b3bb 188e 02bd 9a5f 05bc
000003b0: 77d9 8dbc 3c31 9cbc f842 993c b6df 633c
000003c0: 3f96 76bd f062 6a3c 2227 8c3c 2d9c b23a
000003d0: 0be1 1f3d a381 163c d36b 12bb f981 8abd
000003e0: 4994 723d e71f 98bd b8a1 db3b bbf8 1e3c
000003f0: 07d3 203c b11b 863d 912b d43c a60b 03bd

conv.7.bias f4 [64]
-0.073882885 -0.038435083 -0.02257279 0.024992365 -0.05175163 0.010612652 -0.008755773 0.050654244
-0.029683407 -0.052836817 -0.056868345 0.0099137435 0.06618113 -0.020189099 0.085379906 -0.059605837
-0.04263947 0.13481109 -0.07386041 -0.053644422 -0.078553975 0.060823083 0.029912854 0.03988858
0.05050978 0.010045039 -0.04424118 0.0010725482 -0.013850849 -0.033176444 -0.100979865 -0.027682949
0.06411728 0.05049353 -0.023685215 -0.030830799 0.05622919 0.058026753 -0.07918319 0.07158182
-0.036969624 -0.015282954 -0.055193838 0.024196375 -0.036687974 -0.020965427 0.0036987285 -0.00473745
0.07938957 0.013698198 0.048754446 -0.06197738 0.038945757 -0.056014787 -0.05630742 -0.03169977
-0.0029602235 0.08642782 -0.0063785953 -0.02039895 0.014843407 -0.06569871 0.04839626 0.05803717
00000000: e94f 97bd 1b6e 1dbd 92ea b8bc cabc cc3c
00000010: 84f9 53bd b0e0 2d3c 6074 0fbc d37a 4f3d
00000020: 9e2a f3bc 6b6b 58bd c8ee 68bd 416d 223c
00000030: f989 873d 9c63 a5bc a9db ae3d 4025 74bd
00000040: baa6 2ebd eb0b 0a3e 2044 97bd 41ba 5bbd
00000050: e8e0 a0bd a021 793d cd0b f53c 3562 233d
00000060: 58e3 4e3d f293 243c 3d36 35bd bf94 8c3a
00000070: acee 62bc 06e4 07bd 88ce cebd 5ac7 e2bc
00000080: ec4f 833d 4ed2 4e3d 7f07 c2bc df90 fcbc
00000090: 9450 663d 76ad 6d3d cc2a a2bd 7d99 923d
000000a0: 766d 17bd 5b65 7abc ef12 62bd 7a37 c63c
000000b0: 2146 16bd b0bf abbc 5e66 723b 9c3c 9bbb
000000c0: 0097 a23d 686e 603c beb2 473d fedb 7dbd
000000d0: 9685 1f3d c36f 65bd 9ca2 66bd 9ed7 01bd
000000e0: 4f00 42bb 1201 b13d 8903 d1bb b31b a7bc
000000f0: c331 733c 0c8d 86bd 283b 463d 62b8 6d3d

bn.weight f4 [64]
1.1239084 1.1348146 1.122965 1.1157581 1.1196104 1.1763917 1.1388211 1.1597251
1.1524634 1.173581 1.1424518 1.1090353 1.1361818 1.1696827 1.1681029 1.118037
1.1416719 1.2269133 1.2025187 1.184264 1.1720651 1.1026895 1.1468654 1.1087719
1.1258407 1.1109897 1.1875845 1.1474464 1.159191 1.1554929 1.1140401 1.1206056
1.1181377 1.1566929 1.1727298 1.1604282 1.1344306 1.1101073 1.1978116 1.1525466
1.0917611 1.1880677 1.148359 1.1852897 1.1821897 1.1899385 1.1532588 1.1315727
1.1460664 1.1748652 1.0673921 1.1469326 1.1332818 1.1444509 1.2096934 1.1535567
1.1743017 1.1306337 1.0893703 1.1672255 1.1366618 1.1072499 1.1137924 1.1943291
00000000: 3bdc 8f3f 9b41 913f 51bd 8f3f 29d1 8e3f
00000010: 654f 8f3f 0194 963f e4c4 913f df71 943f
00000020: ec83 933f e737 963f dc3b 923f def4 8d3f
00000030: 686e 913f 2ab8 953f 6584 953f d61b 8f3f
00000040: 4e22 923f 7f0b 9d3f 22ec 993f f695 973f
00000050: 3b06 963f ee24 8d3f 7ccc 923f 3dec 8d3f
00000060: 8c1b 903f e934 8e3f c502 983f 86df 923f
00000070: 5f60 943f 31e7 933f de98 8e3f 0170 8f3f
00000080: 231f 8f3f 830e 943f 031c 963f e988 943f
00000090: 0635 913f ff17 8e3f e451 993f a686 933f
000000a0: d4be 8b3f 9a12 983f 6dfd 923f 93b7 973f
000000b0: fe51 973f e84f 983f fc9d 933f 60d7 903f
000000c0: 4eb2 923f fc61 963f 4ea0 883f b0ce 923f
000000d0: 610f 913f 5e7d 923f 3cd7 9a3f bfa7 933f
000000e0: 854f 963f 9bb8 903f 7c70 8b3f a567 953f
000000f0: 227e 913f 5dba 8d3f c090 8e3f c7df 983f

bn.bias f4 [64]
-0.1229267 -0.16441734 -0.12791649 0.05278222 -0.17298563 -0.115091465 -0.05399205 0.13440147
0.11180906 0.04780382 0.16067602 0.012514533 0.105569676 0.113856815 0.17350848 -0.12997189
-0.1527089 -0.11252407 0.077367544 0.14659397 -0.15533358 -0.1202155 -0.13530414 0.13309762
-0.13259928 -0.14060178 -0.0023769443 0.1267867 0.0026634817 0.12673359 -0.16100839 0.16271563
0.1372224 -0.13986605 -0.1751961 -0.06719159 -0.09025001 -0.08687771 -0.06685855 -0.115160756
-0.10038541 -0.13090077 0.15571958 0.14800946 -0.11002819 0.18227421 0.17890953 -0.14700985
0.17288096 0.09678051 0.069420524 -0.02824019 -0.16396803 -0.12906653 0.13182266 -0.17012624
-0.10208639 0.16648081 -0.072504595 -0.17634796 0.08948095 -0.1609683 0.15919222 -0.14572302
00000000: fec0 fbbd 055d 28be 8afc 02be 2b32 583d
00000010: 2523 31be 13b5 ebbd c526 5dbd 8aa0 093e
00000020: 26fc e43d f0cd 433d 4188 243e c109 4d3c
00000030: ea34 d83d c32d e93d 35ac 313e 5a17 05be
00000040: b95f 1cbe 0573 e6bd e072 9e3d bb1c 163e
00000050: c40f 1fbe 8b33 f6bd 2b8d 0abe be4a 083e
00000060: 1bc8 07be eaf9 0fbe 82c6 1bbb 5fd4 013e
00000070: cf8d 2e3b 73c6 013e 62df 24be ed9e 263e
00000080: 0784 0c3e 0c39 0fbe 9b66 33be bf9b 89bd
00000090: ffd4 b8bd f1ec b1bd 23ed 88bd 67d9 ebbd
000000a0: de96 cdbd da0a 06be f474 1f3e cb8f 173e
000000b0: 7656 e1bd 17a6 3a3e 0f34 373e c089 16be
000000c0: b507 313e dc34 c63d 592c 8e3d f957 e7bc
000000d0: 3ce7 27be 042a 04be 85fc 063e 9335 2ebe
000000e0: ab12 d1bd f279 2a3e 4a7d 94bd 8f94 34be
000000f0: ca41 b73d e0d4 24be 4903 233e 6a38 15be

bn.running_mean f4 [64]
-0.13541712 -0.141373 -0.08997327 0.04460722 -0.15441264 -0.06169591 -0.056493483 0.038689204
0.049210966 -0.0059807333 0.025609976 0.03008008 0.018836638 0.08803038 0.22116803 -0.069180876
-0.10485459 0.14315134 -0.070796736 0.035157304 -0.18442489 0.13925608 0.104427226 0.006045373
0.13145734 -0.046651788 -0.09358264 0.007308779 0.031204714 0.0677443 -0.20192012 -0.08005944
0.12767498 0.07341533 -0.09388602 -0.12902017 0.13189252 0.0304363 -0.14685078 0.03276205
-0.085911065 -0.026465686 -0.062444977 0.037362944 -0.0962915 0.060038235 0.099883646 -0.03202865
0.19036295 0.014405388 0.08881768 -0.032979187 -0.09041587 -0.08088257 -0.054505743 -0.17170797
0.033616737 0.17887442 -0.035842504 -0.028237203 0.025854385 -0.07500952 0.14652646 0.05024727
00000000: c9aa 0abe 15c4 10be e843 b8bd 0fb6 363d
00000010: 591e 1ebe dab4 7cbd b665 67bd 9278 1e3d
00000020: 7091 493d 07fa c3bb 03cc d13c 806a f63c
00000030: 4b4f 9a3c 4649 b43d df79 623e b4ae 8dbd
00000040: 01be d6bd 4496 123e e1fd 90bd 1b01 103d
00000050: e1d9 3cbe 2599 0e3e f1dd d53d 4418 c63b
00000060: c19c 063e f215 3fbd 41a8 bfbd 7b7e ef3b
00000070: 07a1 ff3c 86bd 8a3d 26c4 4ebe 34f6 a3bd
00000080: 3bbd 023e c75a 963d 5047 c0bd dd1d 04be
00000090: d50e 073e 8c55 f93c 0d60 16be 8031 063d
000000a0: 24f2 afbd 91ce d8bc 4ec6 7fbd e309 193d
000000b0: 7a34 c5bd a7ea 753d cc8f cc3d 7930 03bd
000000c0: 81ee 423e 9404 6c3c 0be6 b53d 2f15 07bd
000000d0: f52b b9bd c3a5 a5bd 6a41 5fbd 37d4 2fbe
000000e0: b4b1 093d db2a 373e 97cf 12bd b551 e7bc
000000f0: 93cc d33c 979e 99bd 080b 163e 15d0 4d3d

bn.running_var f4 [64]
0.00037917646 0.00023907289 0.0005722316 0.00031596998 0.00010258152 0.00016234879 0.00018538794 0.0001332015
0.00017485555 0.000100572994 0.00020591878 0.00014047766 0.00021449328 0.0003893039 0.00030711823 0.00025789527
0.0002084962 0.0002192249 0.00026502906 0.00025944717 0.00021479421 0.00022709512 0.00027801716 9.587429e-05
0.00044777553 0.00014089246 0.00029703043 0.00024617763 0.0003451559 0.00022345956 0.00018916326 0.00020845908
0.00035682606 0.00022906123 0.00018190053 0.00018053589 0.00014722395 0.000276311 0.00015584801 0.0002348887
0.00019032613 0.00013827851 0.00014239622 0.0002304102 0.000207706 0.00037730142 0.00012988642 0.00034328242
0.00017274782 0.0002280367 0.0002608867 0.00012217228 0.00021689355 0.00022640098 0.00015007712 0.00022254825
0.00012612356 0.00031119553 0.00016644559 0.00028471957 8.620432e-05 0.00029415652 0.00016722808 0.00025306744
00000000: 34cc c639 a4af 7a39 d001 163a c6a8 a539
00000010: 0921 d738 2c3c 2a39 b264 4239 01ac 0b39
00000020: 6e59 3739 b7ea d238 e7eb 5739 2f4d 1339
00000030: 9ae9 6039 7c1b cc39 b604 a139 1e36 8739
00000040: c69f 5a39 bcdf 6539 99f3 8a39 6906 8839
00000050: 623a 6139 6220 6e39 d5c2 9139 1e10 c938
00000060: 6ac3 ea39 88bc 1339 c0ba 9b39 6711 8139
00000070: 0af6 b439 7850 6a39 205a 4639 cf95 5a39
00000080: 6214 bb39 2830 7039 8dbc 3e39 3c4e 3d39
00000090: 2160 1a39 d6dd 9039 226b 2339 754c 7639
000000a0: 4892 4739 dbfe 1039 3250 1539 449a 7139
000000b0: a8cb 5939 8ad0 c539 1f32 0839 96fa b339
000000c0: a423 3539 231d 6f39 9fc7 8839 5f1b 0039
000000d0: eb6d 6339 0d66 6d39 055e 1d39 d75b 6939
000000e0: 0940 0439 f527 a339 e687 2e39 6a46 9539
000000f0: 98c8 b438 0539 9a39 f259 2f39 23ae 8439

dense.1.weight f4 [6, 64]
-0.2080601 -0.20983322 -0.22666836 0.13032153 -0.21708633 -0.11243713 0.039548215 0.044938866
0.047380857 0.11821047 0.22878669 0.08471086 0.027589869 0.19026138 0.19696584 -0.2261249
-0.24628644 -0.08311715 0.07663994 0.16298059 -0.206339 -0.099099696 -0.1550626 0.08035624
-0.20770337 -0.18552753 0.050013624 0.22991481 0.05572455 0.23400149 -0.23488787 0.112309456
0.2215761 -0.20128699 -0.17848201 -0.14196432 -0.16495849 -0.124006465 -0.13378257 -0.15156242
-0.04707674 -0.19876923 0.21250299 0.23562478 -0.07439019 0.12281386 0.15632215 -0.17168906
0.24191505 0.13700509 0.014323237 -0.09253943 -0.2122815 -0.15652789 0.14351189 -0.22346577
-0.17266357 0.22243795 -0.02572357 -0.2343494 0.061077554 -0.19365802 0.21453 -0.22682375
-0.05091406 0.11221239 -0.022863181 -0.1254957 0.14179932 0.12310985 0.18879223 -0.20612948
-0.11076121 0.08262575 -0.124806 -0.17456327 -0.1637392 0.12690158 -0.11473675 0.10749648
0.12470341 -0.104972236 0.124652795 0.14015839 -0.041065026 0.12504666 0.20818123 -0.041440755
-0.0043660183 0.1505193 -0.21664733 -0.20407556 0.122625224 -0.19922565 0.18374409 -0.18443476
-0.04754511 -0.07883019 0.08775578 0.1826477 -0.031005654 -0.20360085 -0.13985893 -0.14300793
0.124208376 0.024699446 -0.19882609 0.109106496 -0.14497402 -0.18277255 -0.08895741 0.13489956
0.02036492 -0.010497968 -0.18639131 0.21872452 0.059780538 0.026249079 -0.16235045 0.039856922
0.100563206 -0.009959689 -0.18775725 -0.114911966 0.07185459 0.16093473 -0.12125311 -0.10766039
0.1854396 0.16190708 0.17711516 0.053675774 0.15799883 0.20602228 0.074403405 0.109792314
-0.11288466 -0.13465512 -0.15488945 0.087652236 0.016709443 -0.066202596 0.017858928 0.20335397
-0.065112635 0.16582945 -0.16080603 -0.15886497 0.18746135 0.03472169 -0.036381863 0.076850146
0.003682497 -0.15218963 0.1831854 -0.122135386 0.065109804 -0.0407861 -0.0111170905 0.02357527
0.051962223 0.15675604 0.06297045 0.12316412 -0.12906453 0.19242702 -0.15911233 -0.05122625
0.19969015 -0.17379653 -0.0018629422 -0.11271499 0.04099134 -0.14795594 -0.11607717 0.08353507
-0.17881294 0.051160242 0.06601717 -0.20631549 0.09211886 0.18194668 0.13215873 0.03618703
-0.21539941 -0.07973562 -0.094123125 0.09112946 -0.1639927 -0.0055694273 -0.15094414 -0.10353546
0.21935815 -0.10811825 0.21137238 -0.17874856 -0.045112137 0.1411777 -0.19894192 0.06062458
0.20344122 -0.16647832 0.105699964 -0.21512513 0.14751308 -0.23450907 -0.1328332 0.18467914
0.09192796 0.12903866 -0.15904333 -0.085554466 0.1043476 -0.23055477 0.06943394 0.16852027
0.09180108 0.06401545 -0.16921411 -0.14797598 -0.20577973 -0.2258243 -0.034661036 0.21209209
-0.19723456 0.14325623 -0.19558302 0.21005021 0.2242886 0.12048131 0.22015253 0.18678166
-0.17301136 0.21897836 -0.019286295 -0.1606843 -0.19104736 -0.14656593 0.19284624 0.069281995
0.041659493 -0.22746786 0.1052841 0.25190058 -0.06460413 0.033711165 -0.20361663 -0.18636331
0.14899921 0.10256269 -0.16774254 -0.10860202 0.18880846 -0.1035867 0.10699289 0.13752474
00000000: b50d 55be 85de 56be c01b 68be 0273 053e
00000010: e14b 5ebe 7045 e6bd 4ffd 213d d111 383d
00000020: 6e12 423d 5518 f23d 0f47 6a3e e37c ad3d
00000030: 2604 e23c e1d3 423e 6ab1 493e 498d 67be
00000040: 8332 7cbe 5339 aabd 67f5 9c3d 62e4 263e
00000050: 884a 53be c8f4 cabd bbc8 1ebe d091 a43d
00000060: 31b0 54be eefa 3dbe 16db 4c3d ca6e 6b3e
00000070: 6d3f 643d 169e 6f3e 7286 70be 8002 e63d
00000080: d8e4 623e 2d1e 4ebe fdc3 36be 185f 11be
00000090: e1ea 28be 1af7 fdbd 4cfe 08be 2e33 1bbe
000000a0: 8ad3 40bd 298a 4bbe 629a 593e 9f47 713e
000000b0: e259 98bd d585 fb3d ea12 203e 42cf 2fbe
000000c0: 94b8 773e 104b 0c3e 03ac 6a3c 5085 bdbd
000000d0: 5260 59be d948 20be c8f4 123e 36d4 64be
000000e0: b8ce 30be c6c6 633e 3cba d2bc 4af9 6fbe
000000f0: 752c 7a3d 4a4e 46be c1ad 5b3e 7c44 68be
00000100: 438b 50bd 9ccf e53d 914b bbbc f281 00be
00000110: d733 113e 0421 fc3d c052 413e 9b13 53be
00000120: c6d6 e2bd b037 a93d 4a9a ffbd b7c0 32be
00000130: 40ab 27be 7df2 013e 1afb eabd 1d27 dc3d
00000140: 8064 ff3d affb d6bd f749 ff3d ae85 0f3e
00000150: cd33 28bd 3b0c 003e 762d 553e c8bd 29bd
00000160: d110 8fbb bb21 1a3e ccd8 5dbe 2ff9 50be
00000170: ef22 fb3d cf01 4cbe 6927 3c3e 77dc 3cbe
00000180: a9be 42bd b971 a1bd 4db9 b33d 0008 3b3e
00000190: 92ff fdbc be7c 50be 2e37 0fbe ac70 12be
000001a0: f660 fe3d 7e56 ca3c 1199 4bbe 3a73 df3d
000001b0: 1274 14be ba28 3bbe 4d2f b6bd 1c23 0a3e
000001c0: 55d4 a63c abff 2bbc 5ddd 3ebe 52f9 5f3e
000001d0: 70dc 743d 4f08 d73c 323f 26be 0341 233d
000001e0: 15f4 cd3d f72d 23bc 7043 40be f756 ebbd
000001f0: 8028 933d 13cc 243e 8d53 f8bd 0d7d dcbd
00000200: e1e3 3d3e f8ca 253e ad5d 353e 21db 5b3d
00000210: 72ca 213e 81f7 523e d060 983d cbda e03d
00000220: 1330 e7bd 08e3 09be 579b 1ebe 0483 b33d
00000230: 3ee2 883c 3a95 87bd e34c 923c 063c 503e
00000240: c659 85bd 32cf 293e 56aa 24be 80ad 22be
00000250: def5 3f3e 5538 0e3d 2605 15bd 9c63 9d3d
00000260: 0c56 713b 99d7 1bbe f494 3b3e 1e22 fabd
00000270: 4a58 853d 530f 27bd 7524 36bc ed20 c13c
00000280: 57d6 543d a884 203e a7f6 803d 783d fc3d
00000290: 7e29 04be 970b 453e 58ee 22be 9ed2 51bd
000002a0: 937b 4c3e b8f7 31be f82d f4ba 1ed7 e6bd
000002b0: 89e6 273d c381 17be deb9 edbd 6f14 ab3d
000002c0: bd1a 37be 678d 513d 0334 873d 5e44 53be
000002d0: d0a8 bc3d 3b50 3a3e 9e54 073e da38 143d
000002e0: aa91 5cbe 6e4c a3bd a0c3 c0bd 15a2 ba3d
000002f0: b4ed 27be be7f b6bb 1a91 1abe 660a d4bd
00000300: 6c9f 603e 1a6d ddbd 0072 583e dd09 37be
00000310: 81c7 38bd e390 103e 6eb7 4bbe 7b51 783d
00000320: e552 503e 4b79 2abe 3979 d83d c349 5cbe
00000330: ab0d 173e 2523 70be 6d05 08be 871c 3d3e
00000340: ba44 bc3d b622 043e 41dc 22be 2e37 afbd
00000350: 32b4 d53d 8d16 6cbe 6233 8e3d 9490 2c3e
00000360: 3402 bc3d 881a 833d 7746 2dbe 0487 17be
00000370: ecb7 52be 7c3e 67be bbf8 0dbd ab2e 593e
00000380: dbf7 49be c3b1 123e ea46 48be 6717 573e
00000390: e9ab 653e e8be f63d aa6f 613e b143 3f3e
000003a0: e429 31be dd3b 603e 4bfe 9dbc 6d8a 24be
000003b0: eba1 43be 6115 16be 7c79 453e b8e3 8d3d
000003c0: 25a3 2a3d 56ed 68be 319f d73d 1df9 803e
000003d0: 2c4f 84bd b814 0a3d e180 50be 06d6 3ebe
000003e0: 4093 183e 630c d23d b3c4 2bbe bc6a debd
000003f0: 0157 413e 4425 d4bd 171f db3d 49d3 0c3e

dense.1.bias f4 [6]
0.17672968 -0.17541528 -0.0044129826 0.11212248 -0.16139872 -0.03648171
00000000: a0f8 343e 10a0 33be c89a 90bb 79a0 e53d
00000010: b545 25be d86d 15bd
