model/2023_2_16_hj_num_1.onnx (onnx, 128477 bytes, 14 tensors)

conv.0.weight f4 [16, 1, 3, 3]
0	0x3e6085c2	0.21926025
1	0xbd9a9604	-0.075481445
2	0xbe39a11a	-0.18127862
3	0xbd6bdbaa	-0.057582535
4	0xbde8dce2	-0.11370255
5	0xbe97ec67	-0.29672548
6	0xbd97d88b	-0.07414349
7	0xbe652af4	-0.22379667
8	0xbe30f270	-0.17279983
9	0xbe3a3134	-0.18182832
10	0x3c75888f	0.014986171
11	0xbe0ab97d	-0.1354732
12	0x3cc54e97	0.024085326
13	0xbe3dbed6	-0.1852983
14	0x3d4699a4	0.048486367
15	0x3e8da641	0.27665904
16	0x3d3541a4	0.044252053
17	0xbd9ea079	-0.077454515
18	0x3e8df0d7	0.2772281
19	0xbe20720a	-0.15668502
20	0x3d6cd7e6	0.057823084
21	0x3e5dc4b0	0.21657062
22	0xbcd67cf1	-0.026182624
23	0xbc293950	-0.010328606
24	0xbc8a93c0	-0.016916156
25	0xbe493e49	-0.19652666
26	0xbdc62b47	-0.09676223
27	0xbe3b3bf2	-0.18284586
28	0x3cb11393	0.021615779
29	0xbda5cb74	-0.08095446
30	0xbdd3e9e1	-0.10347343
31	0x3af6e304	0.0018835966
32	0xbe96207f	-0.29321668
33	0x3ea2accc	0.3177246
34	0x3dcce847	0.10005241
35	0x3e452e4c	0.19255942
36	0x3db9f667	0.09080201
37	0x3e7d09f1	0.24710824
38	0x3d7faa82	0.06241847
39	0x3e486a1c	0.19571728
40	0x3c43e7ec	0.01195715
41	0x3d9eb98e	0.077502355
42	0x3c20b079	0.009807699
43	0x3e1f7e16	0.15575442
44	0xbe4cf761	-0.20016243
45	0x3d1e386c	0.038628027
46	0xbe6cbdd7	-0.23119293
47	0xbd3cf3da	-0.046130992
48	0xbe7ea6d1	-0.24868323
49	0x3e9c0a4f	0.30476615
50	0x3d777bf9	0.060420964
51	0x3de9eded	0.11422334
52	0xbdf416f1	-0.11918438
53	0xbe59af37	-0.21258245
54	0xbe15c743	-0.14626794
55	0x3e05b9cb	0.13059156
56	0x3db3aa34	0.08772698
57	0x3d0af047	0.033920553
58	0x3cef083c	0.029178731
59	0xbd73750b	-0.059437793
60	0xbe72f6b5	-0.23726924
61	0xbd33b353	-0.04387219
62	0x3df5bffe	0.1199951
63	0x3e86cf5f	0.26330087
64	0x3d2e47c7	0.04254892
65	0x3dd9bba3	0.10631492
66	0xbdadeb22	-0.08492114
67	0x3d8247e2	0.06361367
68	0xbe28601e	-0.16442916
69	0xbc328338	-0.010895543
70	0x3d3b9a14	0.045801237
71	0xbe46441d	-0.1936192
72	0x3e2e2273	0.17005329
73	0x3c938a50	0.018010288
74	0xbe231f5f	-0.15929936
75	0xbceb28fa	-0.028706063
76	0xbe80ed42	-0.25181013
77	0xbcd15400	-0.02555275
78	0x3d2b1736	0.041770183
79	0x3e803481	0.25040057
80	0xbd7d8cd8	-0.061901897
81	0x3dc99810	0.09843457
82	0xbd42d206	-0.047563575
83	0xbe47247c	-0.19447511
84	0x3e343782	0.175993
85	0x3e41c3b4	0.18922311
86	0xbe642788	-0.22280705
87	0xbe82c79a	-0.2554291
88	0xbe6c83e4	-0.23097187
89	0xbe65cb3c	-0.22440809
90	0x3e64a7d1	0.22329642
91	0xbe72250a	-0.23646942
92	0xbe6e3308	-0.23261654
93	0x3e06b369	0.13154377
94	0xbe8594f1	-0.26090196
95	0xbe1eed1e	-0.1552014
96	0x3e954685	0.29155365
97	0x3e491890	0.19638276
98	0xbc99ed73	-0.018789982
99	0x3d171273	0.03688283
100	0xbc9340ed	-0.017975295
101	0x3e4a61da	0.1976389
102	0x3e26cd87	0.1628934
103	0x3e00336d	0.12519617
104	0x3daaceb5	0.083402075
105	0xbc60a341	-0.013710798
106	0x3e775d05	0.24156578
107	0xbe364270	-0.17798781
108	0x3dbda754	0.09260431
109	0x3e8eee9e	0.27916425
110	0x3d01e9d3	0.031717133
111	0x3e193797	0.14962612
112	0xbd0ef698	-0.03490314
113	0xbe8c6699	-0.27422026
114	0xbdd603aa	-0.104499176
115	0x3dd769e4	0.10518244
116	0x3e76437b	0.2404918
117	0xbe6b0d67	-0.22954331
118	0x3e34f66d	0.17672129
119	0x3e1bf3f4	0.1522978
120	0x3e33c003	0.17553715
121	0x3e1961b2	0.14978674
122	0x3e5af7cc	0.2138359
123	0xbe66ce7b	-0.22539704
124	0xbd56a5fb	-0.052404385
125	0x3dcb2690	0.099194646
126	0x3d071832	0.03298206
127	0xbe7e0e3c	-0.24810117
128	0x3e5aa2fb	0.21351235
129	0xbe91746b	-0.28409132
130	0x3e806298	0.2507522
131	0x3cfcad08	0.030844226
132	0xbe1384ef	-0.14406179
133	0x3e938200	0.2881012
134	0x3c6e6905	0.014551406
135	0xbe17a9ba	-0.1481084
136	0xbd9fbe75	-0.07799999
137	0x3e680b15	0.22660477
138	0x3d521fa2	0.0512997
139	0xbd683a01	-0.05669594
140	0x3e12d6d1	0.14339758
141	0x3ea2fcb7	0.3183343
142	0x3e9354fd	0.28775778
143	0xbd932572	-0.071848765

conv.0.bias f4 [16]
0	0xbe8ea6d6	-0.2786166
1	0x3c49bce1	0.012313099
2	0xbc3356eb	-0.010946016
3	0x3e2122a5	0.15735872
4	0xbe29c629	-0.16579498
5	0xbd8c6e7c	-0.06857011
6	0xbe319cf7	-0.17345034
7	0xbe221c9f	-0.1583123
8	0x3d68e22d	0.056856323
9	0x3daee360	0.08539462
10	0x3e8828a6	0.26593512
11	0x3bb45dc8	0.0055043437
12	0x3d1a54bc	0.037678465
13	0xbcabea54	-0.02098576
14	0x3d73b05f	0.059494372
15	0x3e41e75f	0.18935917

conv.2.weight f4 [16, 16, 3, 3]
0	0x3a4c56a2	0.0007794892
1	0x3d5ba368	0.053622633
2	0x3d970363	0.07373693
3	0x3d343574	0.04399629
4	0x3cbceb50	0.023061424
5	0xbcc9fc3f	-0.024656413
6	0xbcea603b	-0.02861034
7	0xbc2d9795	-0.010595222
8	0x3d2228f1	0.039589826
9	0xbd28d0ee	-0.041214876
10	0xbc9d986e	-0.019237723
11	0x3df11e96	0.11773412
12	0x3afbe47d	0.0019217875
13	0xbba2a1f0	-0.004963152
14	0x3d8cd66a	0.06876834
15	0x3d2bf17b	0.04197834
16	0x3d13f713	0.0361243
17	0x3d46bdd6	0.048520885
18	0xbda6f3e0	-0.08151984
19	0xbdaa02a9	-0.08301289
20	0x3d1ecfab	0.038772266
21	0xbd1d47df	-0.03839862
22	0xbd4004f0	-0.04687971
23	0xbd2d7d1a	-0.042355634
24	0xbd1f526f	-0.038896974
25	0x3bea3bd6	0.0071482463
26	0x3ab3a869	0.0013706806
27	0xbd567659	-0.05235896
28	0x3a8bc8b2	0.001066467
29	0x3d117387	0.035510566
30	0x3d7f16ad	0.062277485
31	0xbd59ee18	-0.05320558
32	0x3bf86d7b	0.0075814105
33	0xbd29860c	-0.041387603
34	0xbc4b8a32	-0.012423085
35	0x3d78a7da	0.06070695
36	0xbd136909	-0.03598884
37	0xbdcbb3fa	-0.09946437
38	0x3d1ead67	0.038739588
39	0xbc168d97	-0.009189031
40	0xbcb8f71d	-0.02257877
41	0xbd2121c8	-0.039338857
42	0xbd566e2c	-0.05235116
43	0xbdf19c9c	-0.11797449
44	0xbdb10846	-0.08644156
45	0x3d4cccb2	0.0499999
46	0xbda65f2d	-0.08123622
47	0x3cd83e91	0.026397021
48	0xbcdb1234	-0.026742078
49	0xbc864853	-0.016391909
50	0xbdb244bc	-0.08704516
51	0xbdab7fe0	-0.083739996
52	0xbc0da451	-0.008645133
53	0x3cd3ffc6	0.025878798
54	0xbd9aeffe	-0.07565306
55	0xbd52cd9e	-0.051465623
56	0xbbfc77f8	-0.007704731
57	0xbccd19ad	-0.025036657
58	0x3d63ad74	0.05558534
59	0xbd609443	-0.054828893
60	0xbba7a12f	-0.00511565
61	0x3d3183f6	0.04333874
62	0x3b1b2b36	0.0023676879
63	0x3ca1eaf8	0.019765362
64	0x3be0623c	0.006847648
65	0x3cd6a7c1	0.026203038
66	0x3d102f2a	0.03520123
67	0xbd492bb0	-0.04911393
68	0xbd5a4766	-0.053290747
69	0x3bc61662	0.0060451487
70	0xbc46d0bc	-0.012134727
71	0x3d5509d0	0.05201131
72	0x3ab0c812	0.001348736
73	0x3d794033	0.06085224
74	0x3d29bff6	0.041442834
75	0xbc9b2e03	-0.018942839
76	0x3d1f3760	0.03887117
77	0x3cd24981	0.025669815
78	0x3cee46e6	0.029086541
79	0x3d6c2fae	0.05766266
80	0x3d4c81c7	0.049928453
81	0x3d56e618	0.05246553
82	0xbd38abd4	-0.045085743
83	0x3d41f4eb	0.047352713
84	0x3d226107	0.039643314
85	0x3d775cff	0.060391422
86	0xbbcd5fd9	-0.0062675294
87	0x3dc0fd33	0.09423294
88	0xbc48372d	-0.012220186
89	0x3c627cf5	0.013823737
90	0xbb2cc0f4	-0.0026360126
91	0xbce55b43	-0.027997619
92	0x3d64d8c2	0.05587078
93	0x3c5816f3	0.013189065
94	0x3d69738c	0.05699496
95	0xbcd3629d	-0.025803858
96	0x3d22f488	0.039783984
97	0x3d377ac2	0.044794805
98	0xbc4cd82c	-0.012502711
99	0xbd8fd05d	-0.07022164
100	0x3d431eef	0.047636922
101	0x3c971616	0.018443149
102	0xbc675f0f	-0.014121785
103	0x3ce02ecd	0.027366066
104	0xbc900b5e	-0.017583545
105	0xbdaede6e	-0.08538519
106	0x3d321edb	0.043486457
107	0xbccdb8de	-0.025112566
108	0xbce27279	-0.027642475
109	0x3d139965	0.03603496
110	0xbcd128d5	-0.025532166
111	0xbd7fbadb	-0.06243406
112	0xbd5c64a6	-0.053806923
113	0x3c790883	0.015199783
114	0xbdaaea13	-0.08345427
115	0xbd97ea15	-0.074176945
116	0xbd9552ac	-0.07291159
117	0xbd6e335e	-0.058154456
118	0x3d734cf7	0.05939957
119	0x3d3b1288	0.04567197
120	0xbc8c2c69	-0.01711102
121	0x3d9afb85	0.07567505
122	0xbd361df2	-0.04446215
123	0xbc719419	-0.014744782
124	0x3d1fdb7c	0.039027676
125	0xbda67ca8	-0.08129245
126	0x3da97173	0.08273592
127	0xbd1c5564	-0.038167372
128	0x3d77d323	0.06050409
129	0x3d6c64ff	0.057713505
130	0x3aa330b3	0.0012450427
131	0x3d6ed4e1	0.058308486
132	0x3c85cb14	0.016332187
133	0xbcbd7c31	-0.023130508
134	0xbd94e6e4	-0.072706014
135	0x3d0906a5	0.033453602
136	0x3d33c0d4	0.043885067
137	0x3d90ecca	0.07076414
138	0xbd49f4e0	-0.049305797
139	0x3d97c4ec	0.07410607
140	0x3ca0ae5d	0.019614393
141	0xbd337f76	-0.043822728
142	0xbd8f4f42	-0.06997539
143	0xbd9a41f1	-0.075321086
144	0x3d2c1dcc	0.042020604
145	0x3d25b93b	0.040459853
146	0x3cc99024	0.024604864
147	0xbd8302dd	-0.063970305
148	0xbb0529d8	-0.002031913
149	0x3d0d5ecd	0.034514237
150	0xbc86b14f	-0.01644197
151	0x3d9163cc	0.07099113
152	0xbd68bdac	-0.05682151
153	0x3d03ea9a	0.032206155
154	0x3dacb654	0.08433214
155	0xbd4ac820	-0.04950726
156	0x3d0ee380	0.03488493
157	0x3d8d606a	0.06903155
158	0x3da58d96	0.08083646
159	0xbd8eb5e4	-0.06968287
160	0x3d9a48b7	0.075334005
161	0x3d87ec98	0.066369236
162	0xbd40a915	-0.04703625
163	0xbd06e34c	-0.03293161
164	0xbd221742	-0.03957296
165	0x3cde1d55	0.027113596
166	0x3d754f0c	0.059889838
167	0x3d626560	0.05527246
168	0xbd497c39	-0.049190734
169	0x3d889179	0.06668372
170	0x3c93197c	0.017956488
171	0x3d8c7a31	0.06859244
172	0x3ceed080	0.029152155
173	0x3d0eb304	0.03483869
174	0x3d870b2e	0.06593929
175	0xbd220e0d	-0.03956418
176	0xbd4e98f8	-0.05043885
177	0xbd7333ce	-0.059375577
178	0xbd96deb9	-0.073667
179	0x3d114dc7	0.035474565
180	0xbd365a95	-0.04451998
181	0xbd1f8a8a	-0.03895048
182	0x3cbe0fa8	0.023200825
183	0xbdadc80d	-0.08485422
184	0xbcf323ab	-0.029680094
185	0x3d65f017	0.05613717
186	0xbd9ee2b9	-0.07758088
187	0x3c9af2ea	0.018914659
188	0xbce9780b	-0.028499624
189	0xbcef40f9	-0.029205786
190	0x3c9ce086	0.01915003
191	0xbd845d32	-0.06463088
192	0x3d32d27c	0.043657765
193	0x3d2cd49b	0.042194944
194	0xbda034ca	-0.07822569
195	0x3d80529b	0.06265756
196	0x3c0fcbaf	0.008776589
197	0xbc016dd6	-0.007899722
198	0xbc255253	-0.010090428
199	0xbd41a313	-0.04727466
200	0xbc063adb	-0.008192743
201	0xbd00f5a7	-0.031484272
202	0x3c2164af	0.009850665
203	0x3d15e4db	0.036595207
204	0xbdc53f6d	-0.09631238
205	0x3d0efba5	0.034907956
206	0xbcb8e9ca	-0.022572417
207	0xbc492372	-0.012276517
208	0x3c8c4418	0.017122313
209	0xbdafadb9	-0.08578057
210	0x3c8421d8	0.01612942
211	0x3d4ee564	0.050511733
212	0x3c80b6ce	0.015712168
213	0x3d3c3647	0.0459502
214	0xbd5d92c5	-0.05409505
215	0x3d0e295f	0.034707423
216	0xbc4d83a1	-0.01254359
217	0xbd44686e	-0.047951154
218	0x3da64e73	0.08120432
219	0xbd644cd2	-0.055737324
220	0x3d06f105	0.032944698
221	0x3d1aa9ee	0.037759714
222	0xbd7bfcb0	-0.06152028
223	0x3d47917e	0.048722737
224	0xbc279155	-0.010227521
225	0x3cfe9119	0.031075047
226	0x3d603616	0.05473908
227	0x3de888bd	0.11354206
228	0x3d31cdc5	0.043409128
229	0xbd6a49a0	-0.05719912
230	0x3cc24788	0.02371575
231	0x3dbf491e	0.09340118
232	0x3d94f834	0.072739035
233	0xbd09940b	-0.03358845
234	0xbc7fc2d3	-0.015610415
235	0x3cd226c4	0.02565325
236	0xbd10eb83	-0.03538085
237	0x3d203a68	0.0391182
238	0x3d052211	0.03250319
239	0x3d5075bf	0.05089354
240	0xbaed0653	-0.001808355
241	0xbd757da9	-0.059934292
242	0xbd78c69c	-0.060736284
243	0xbc068154	-0.008209545
244	0x3d564041	0.05230737
245	0xbd3fbf77	-0.046813454
246	0x3d8a677e	0.06758021
247	0x3c10aa52	0.00882967
248	0x3c169de4	0.0091929175
249	0xbda36057	-0.0797736
250	0xbd14789a	-0.036247827
251	0x3d6eda61	0.05831373
252	0xbd44eed7	-0.048079338
253	0xbd44c664	-0.048040763
254	0x3d41a94d	0.0472806
255	0xbc43b750	-0.011945561

conv.2.bias f4 [16]
0	0x3d2910d0	0.0412758
1	0x3d1d2b94	0.038371637
2	0x3c52cbe1	0.012865991
3	0x3d3d88a0	0.046272874
4	0x3cfd5615	0.030924836
5	0xbcf50de3	-0.029913848
6	0xbd702734	-0.058631137
7	0x3d915419	0.070961185
8	0x3c578a00	0.01315546
9	0x3c809fa4	0.015701123
10	0x3d1e09b8	0.038583487
11	0xbd646f2f	-0.055770095
12	0xbca46917	-0.020069642
13	0x3bc9d04a	0.006158863
14	0xbd7d10d7	-0.061783638
15	0xbbb453a1	-0.0055031334

conv.4.weight f4 [32, 16, 3, 3]
0	0x3da38cb9	0.07985825
1	0x3cf9e827	0.030506207
2	0x3d94f6af	0.07273614
3	0x3d153a5f	0.03643262
4	0x3d5e32d9	0.05424771
5	0xbcd5157f	-0.026011227
6	0xbc369ae6	-0.011145329
7	0xbc74d827	-0.014944113
8	0x3cc984fe	0.024599548
9	0x3d0109eb	0.0315036
10	0x3c19d7c2	0.00938982
11	0x3d7448d9	0.059639785
12	0xba1233d5	-0.00055771816
13	0x3ce7bde1	0.028288784
14	0x3d7c057e	0.061528675
15	0xbd32c918	-0.04364881
16	0x3c90fe76	0.017699461
17	0x3cc41d5d	0.023939783
18	0xbb026aa0	-0.001989998
19	0x3d555239	0.052080367
20	0xbd55e1de	-0.052217357
21	0xbc9e8015	-0.019348184
22	0xbda198f9	-0.07890505
23	0x3d5bfe66	0.05370941
24	0xbd80b5c4	-0.06284669
25	0xbd9ea3aa	-0.0774606
26	0x3c3690d1	0.011142925
27	0xbc893ea2	-0.016753498
28	0x3c8cd967	0.01719351
29	0xbcdd7c23	-0.027036732
30	0x3c77afd3	0.015117603
31	0x3d6d85b9	0.057988856
32	0x3cf482c6	0.029847514
33	0xbd6645e8	-0.05621901
34	0x3d165ddc	0.036710605
35	0xbc91e8b3	-0.017811155
36	0xbc76b66c	-0.015058141
37	0x3d6b9883	0.057518493
38	0x3c6c0419	0.014405274
39	0xbd9cfb87	-0.076651625
40	0xbd6c1923	-0.05764116
41	0x3d912c21	0.07088495
42	0x3d0b0cbe	0.0339477
43	0xbccc5f72	-0.024947856
44	0xbc9d2b05	-0.019185552
45	0xba90d476	-0.0011049646
46	0xbc8e742f	-0.017389385
47	0x3da8b11b	0.08236905
48	0x3b78c4ad	0.0037959025
49	0xbc83abad	-0.016073072
50	0x3d172b35	0.03690644
51	0x3d7e529a	0.062090494
52	0xbd058716	-0.03259953
53	0x3cfde712	0.030993972
54	0xbd9580ea	-0.07299979
55	0x3d022581	0.031774048
56	0xba935655	-0.0011240939
57	0x3c287a2a	0.010283032
58	0x3cc1857f	0.023623226
59	0xbd98c54c	-0.074595064
60	0x3d5b92c5	0.053606767
61	0x3cd7d1cd	0.026345158
62	0x3d630959	0.055428836
63	0xbd4faec8	-0.050703794
64	0x3d520578	0.051274747
65	0xbbe9da55	-0.007136623
66	0x3d1ad428	0.037799984
67	0xbc2644fb	-0.010148282
68	0x3a921f30	0.0011148211
69	0xbc4ec062	-0.01261911
70	0x3d1fde02	0.039030083
71	0x3bf16760	0.0073670596
72	0x3d2823e9	0.04104987
73	0x3cc72f49	0.02431454
74	0xbd3d5464	-0.04622306
75	0xbc39fa42	-0.01135117
76	0xbcc648bb	-0.024204602
77	0xbd7557cc	-0.059898183
78	0xbce4e6cb	-0.027942082
79	0x3d797c80	0.060909748
80	0x3cead821	0.028667511
81	0xbd974dce	-0.07387887
82	0x3d1983b5	0.03747912
83	0x3d1887bf	0.037238833
84	0x3cfc085c	0.030765705
85	0x3d51caa8	0.05121866
86	0x3d2440ec	0.040100977
87	0xbd0aebc9	-0.03391627
88	0xbd250668	-0.040289313
89	0x3d8a4fac	0.067534775
90	0xbc836daa	-0.016043503
91	0xbccb7a47	-0.02483858
92	0xbc457d3a	-0.012053782
93	0x3d517a02	0.051141746
94	0x3d84603f	0.0646367
95	0xbccd4823	-0.025058812
96	0x3bd84ed5	0.0066011944
97	0xbd5b8e94	-0.05360277
98	0xbc5dbeb1	-0.013534234
99	0x3d0edf63	0.034881007
100	0xbd33acd3	-0.04386599
101	0xbb0ed72f	-0.002179574
102	0xbda03032	-0.078216925
103	0xbd669f22	-0.056304105
104	0x3ce3f815	0.027828256
105	0x3c90ee04	0.01769162
106	0xbd3d1aca	-0.046168126
107	0xbc9d8504	-0.019228466
108	0x3cd97244	0.026543744
109	0xbd8e9078	-0.06961149
110	0x3d026056	0.031830154
111	0x3d0afe7e	0.03393411
112	0x3d357f6d	0.044310976
113	0x3d1bff4d	0.03808527
114	0xbc33de21	-0.010978253
115	0x3d25ccca	0.040478505
116	0xbbdcd4df	-0.0067392434
117	0xbbe906c9	-0.0071114046
118	0xbd8b8bea	-0.06813796
119	0xbd2b71ce	-0.04185658
120	0x3c13fa18	0.009031795
121	0x3c882d8c	0.016623281
122	0xbd411d67	-0.04714718
123	0xbd60b222	-0.05485738
124	0xbb23a7d9	-0.0024971871
125	0x3cf0255a	0.029314686
126	0xbd1a60af	-0.03768986
127	0x3d8e4f4b	0.06948718
128	0x3cafcc71	0.02145979
129	0xbce0a55a	-0.027422596
130	0x3cfb7645	0.030696044
131	0xbcead167	-0.028664304
132	0xbd9699ec	-0.07353577
133	0x3d6f5c98	0.058437914
134	0x3db0abf3	0.08626547
135	0xbd16be8d	-0.036802817
136	0xbd912001	-0.070861824
137	0x3c1d8bdc	0.009615865
138	0xbd2d9727	-0.04238048
139	0xbcb544bc	-0.022127502
140	0xbd68518b	-0.05671839
141	0xbd6813d7	-0.056659546
142	0xbd46963f	-0.04848313
143	0xbd0cc362	-0.03436602
144	0xbdb170a9	-0.08664066
145	0x3ccdb77b	0.025111904
146	0x3d801e3c	0.06255767
147	0xbcce2d04	-0.02516795
148	0xbd6d1cee	-0.057888918
149	0xbd1682c6	-0.03674581
150	0xbd72a9c1	-0.05924392
151	0xbca05b1e	-0.019574698
152	0xbccc015c	-0.024902992
153	0xbd69d4c2	-0.057087667
154	0x3d36ec93	0.04465921
155	0xbd40375b	-0.04692779
156	0xbce8348f	-0.028345374
157	0xbb18bba9	-0.0023305214
158	0xbd8ccc60	-0.06874919
159	0xbdb27af5	-0.087148584
160	0x3cad78a3	0.021175688
161	0x3d02ef02	0.031966217
162	0x3b7547ff	0.0037426946
163	0x3c474be3	0.012164089
164	0xbda6c5d2	-0.081432
165	0x3d4b4dff	0.04963493
166	0xbce57b1f	-0.02801281
167	0xbd4fd1d4	-0.050737217
168	0x3c618d8c	0.013766658
169	0xbd3d0030	-0.046142757
170	0x3d670e2d	0.056410003
171	0x3d4bce5b	0.049757343
172	0xbd029339	-0.031878684
173	0x3cb8d1bb	0.022560945
174	0x3c33d0c0	0.010975063
175	0x3cad2424	0.021135397
176	0xbc82a57a	-0.015948046
177	0x3d324dc7	0.043531206
178	0xbd8d79de	-0.0690801
179	0x3bdab30c	0.006674176
180	0x3d522d3d	0.051312674
181	0xbd838a50	-0.064228654
182	0xbd2dd141	-0.04243589
183	0xbc7552a4	-0.014973316
184	0xbd1abba1	-0.037776593
185	0x3afdfa9c	0.0019377056
186	0x3d89f5ca	0.06736334
187	0x3cc64739	0.024203883
188	0x3d262300	0.040560722
189	0xbd452af1	-0.048136655
190	0xbd28b119	-0.04118452
191	0x3bfa6acc	0.0076421257
192	0x3d07645f	0.033054706
193	0xbba00b12	-0.004884132
194	0xbd611d3e	-0.05495953
195	0x3d98c928	0.074602425
196	0xbb195634	-0.0023397328
197	0x3bfc9ec1	0.0077093546
198	0x3bb53dab	0.005531033
199	0xbd3ff771	-0.046866838
200	0xbcc070b6	-0.023491245
201	0xbd9c6abd	-0.07637546
202	0xbd2596f2	-0.040427156
203	0xbd1d6139	-0.038422797
204	0xbc079eaf	-0.008277579
205	0xbda798b5	-0.081834234
206	0xbbe6411f	-0.007026806
207	0x3c6f5189	0.014606842
208	0xbb3b5f90	-0.0028590895
209	0xbd8b178c	-0.067916006
210	0x3ce479be	0.027890082
211	0x3d70b7fc	0.05876921
212	0x3ba75c20	0.0051074177
213	0x3d03814e	0.032105736
214	0x3d0c67b1	0.034278575
215	0x3d20fe97	0.039305296
216	0xbcae44b4	-0.021272995
217	0x3d675959	0.056481693
218	0xbd82806c	-0.06372151
219	0x3d9cdaef	0.07658946
220	0x3bcab7ce	0.006186462
221	0xbd5cdc8b	-0.053921264
222	0x3d4bb1e0	0.04973018
223	0xbd9ebad3	-0.07750478
224	0xbdc16e1e	-0.09444831
225	0xbc1c723c	-0.00954872
226	0xbd573731	-0.05254287
227	0xbc91085e	-0.017704185
228	0xbb91efd9	-0.004453641
229	0xbd16567c	-0.03670357
230	0xbd56c2de	-0.052431934
231	0xbce0051e	-0.02734619
232	0xbd4819f2	-0.04885287
233	0x3d3226eb	0.043494146
234	0x3d087acb	0.03332023
235	0x3d058b0b	0.032603305
236	0x3cf2a4d1	0.029619606
237	0xbd982f0c	-0.074308485
238	0x3d98229e	0.07428478
239	0xbcdda048	-0.027053967
240	0xbbe3cb47	-0.006951723
241	0xbd1bbcbc	-0.038021788
242	0x3cb7cf68	0.022437766
243	0xbc9a5620	-0.018839896
244	0x3baee2ae	0.005337081
245	0xbd031682	-0.032003887
246	0x3c6fda0a	0.014639387
247	0x39d226b4	0.00040083157
248	0xbc1746c0	-0.009233177
249	0x3c2a1b84	0.010382537
250	0x3c76f69b	0.015073444
251	0xbd1b359f	-0.037892934
252	0xbd271862	-0.040794738
253	0x3d0b306f	0.033981737
254	0x3d6804be	0.056645148
255	0x3d17ba17	0.037042703

conv.4.bias f4 [32]
0	0xbc3874ce	-0.011258317
1	0x3d5c8532	0.053837962
2	0x3d39155a	0.045186378
3	0x3d845563	0.06461599
4	0xbd86df0e	-0.06585513
5	0x3cfef1ed	0.031121219
6	0x3d3a4413	0.045475077
7	0x3d823a75	0.06358806
8	0x3d06fa85	0.032953758
9	0xbd458c4a	-0.048229493
10	0x3d006a92	0.031351633
11	0xbd3ba304	-0.04580976
12	0x3d6ea85b	0.058266025
13	0xbcb0d30e	-0.021585014
14	0xbd388631	-0.04504985
15	0xbce1fe69	-0.027587133
16	0x3aefa68b	0.0018283887
17	0xbd41cfc5	-0.047317285
18	0xbd8a6b7a	-0.06758781
19	0x3cbb49ca	0.022862334
20	0x3c74aa08	0.014933117
21	0x3d5f9950	0.05458957
22	0x3d7dcf40	0.061965227
23	0x3c8eba10	0.017422706
24	0x3bc41067	0.0059834006
25	0xbd6666da	-0.05625043
26	0x3da1ef52	0.07906975
27	0x3cc7ac89	0.024374263
28	0xbcbc4747	-0.022983206
29	0xbab44256	-0.001375268
30	0x3d8423f8	0.06452173
31	0x3d5f3949	0.05449799

conv.7.weight f4 [64, 32, 3, 3]
0	0x3d1eb883	0.038750183
1	0xbd9823ed	-0.07428727
2	0x3b513da6	0.0031927614
3	0x3d849718	0.06474131
4	0x3ce7d229	0.028298454
5	0x3cec3a98	0.028836533
6	0x3d205ee6	0.039153002
7	0xbd006b2f	-0.03135222
8	0xbcb03669	-0.02151032
9	0xbae4d56c	-0.0017458624
10	0x3d0ad8ff	0.03389835
11	0xbd925917	-0.07145899
12	0xbc29851e	-0.010346679
13	0xbd3229af	-0.043496784
14	0x3c1a83a8	0.009430803
15	0xbcedbafc	-0.029019825
16	0x3cec24ad	0.028826082
17	0xbc4bfcab	-0.012450377
18	0x3d04f79d	0.032462705
19	0x3d7a1d7d	0.06106328
20	0xbcb4d783	-0.02207542
21	0xbd31c4fd	-0.043400753
22	0x3c816faf	0.015800325
23	0xbcd0f15c	-0.025505714
24	0xbc5bf7fd	-0.013425824
25	0x3bcfb0f2	0.006338232
26	0x3c8fc1ea	0.01754852
27	0xbd075f29	-0.033049736
28	0x3d847533	0.064676665
29	0xbcd4dcb1	-0.02598414
30	0xbd7a2ca6	-0.061077736
31	0xbbff15f9	-0.0077846018
32	0xbd2d5223	-0.04231466
33	0xbd763cb1	-0.060116474
34	0x3ceb114f	0.028694777
35	0xbb741db4	-0.003724915
36	0xbd534953	-0.0515836
37	0xbd14c7e9	-0.03632346
38	0xbd12877d	-0.035773743
39	0xbd729de7	-0.05923262
40	0xba015f66	-0.0004935175
41	0x3caf019c	0.021363072
42	0xbc521517	-0.012822411
43	0xbc8cc047	-0.017181529
44	0x3d53ea24	0.051736966
45	0xbc9ea790	-0.01936701
46	0xbc907ec0	-0.017638564
47	0x3d1a7b6d	0.037715364
48	0xbd16cca0	-0.03681624
49	0xbd0154df	-0.03157508
50	0x3d194bef	0.03742593
51	0x3d426f5c	0.04746948
52	0x3cfd2e14	0.03090576
53	0x3cd2e231	0.025742622
54	0xbd1a9bd5	-0.03774627
55	0x3d3245ef	0.043523725
56	0xbd4df725	-0.050284524
57	0x3ce9bc02	0.028532032
58	0x3d68f35c	0.05687271
59	0xbce3ca5c	-0.027806453
60	0x3c3b76bb	0.011441882
61	0xbc321db9	-0.010871344
62	0xbc8a5e79	-0.016890751
63	0x3be01741	0.0068387096
64	0xbc859b96	-0.01630954
65	0x3d4ade7d	0.049528588
66	0x3c83f144	0.016106255
67	0xbd23d12b	-0.0399944
68	0xbca9971f	-0.020701943
69	0xbb638d5e	-0.0034721713
70	0xbc662c11	-0.014048592
71	0x3d235b5f	0.03988206
72	0x3d009868	0.031395346
73	0x3c137f94	0.009002585
74	0xbb996623	-0.004681365
75	0xbd1ba22e	-0.037996463
76	0xbd23fd0f	-0.040036257
77	0x3d033c80	0.03204012
78	0x3c28d438	0.010304503
79	0xbc62e0ef	-0.013847574
80	0x3d3d28ab	0.046181362
81	0x3c6300e8	0.013855197
82	0xbd2aa430	-0.041660488
83	0xbcefbe05	-0.029265413
84	0x3bcea8cf	0.0063067446
85	0x3c3187db	0.010835613
86	0x3cd2e1c7	0.025742425
87	0x3be41776	0.0069608046
88	0x3d30874e	0.043097787
89	0x3c50fb44	0.012755219
90	0xbd0fdb17	-0.03512105
91	0x3d8e3544	0.06943753
92	0xbad0f5e7	-0.0015942425
93	0xbd2ffeec	-0.04296772
94	0x3d443c7e	0.047909252
95	0x39ed7dbe	0.00045297848
96	0x3b5d8658	0.0033802
97	0xbd19d58b	-0.037557166
98	0x3cec9c56	0.02888314
99	0x3cb9b78f	0.022670535
100	0x3c3d4ea8	0.011554398
101	0xbd3b06bc	-0.04566072
102	0xbd0facd3	-0.035076927
103	0xbd9852db	-0.074376784
104	0x3cddb0be	0.027061816
105	0xbd0ac37f	-0.033877846
106	0xbcb91efc	-0.022597782
107	0x3d6ef4ad	0.05833881
108	0xbbb9023c	-0.0056460183
109	0xbc18dbd4	-0.009329755
110	0x3d5ab3e4	0.053394213
111	0xbcc9f6d3	-0.024653828
112	0x3be39392	0.006945082
113	0xbd255eb3	-0.040373515
114	0x3d25365f	0.040335055
115	0x3c2b2190	0.010445014
116	0xbce8e981	-0.028431656
117	0xbd1e170a	-0.03859619
118	0x3b8fc911	0.0043879827
119	0xbd1a06aa	-0.03760401
120	0x3c9b7ebe	0.018981334
121	0x3b6f08a5	0.0036473658
122	0xbd0f519d	-0.034989942
123	0x3ca822a9	0.02052434
124	0x3ced50b5	0.028969148
125	0x3c73db28	0.014883794
126	0xbd19e654	-0.037573174
127	0xbc0d6996	-0.008631131
128	0xbd0a91d5	-0.033830483
129	0xbd0ff3a4	-0.035144463
130	0xbd4c4fbc	-0.049880728
131	0x3c38fcb7	0.011290721
132	0x3b2a9f19	0.002603477
133	0xbcf60440	-0.030031323
134	0x3cbca48f	0.023027686
135	0xbdab2d07	-0.08358198
136	0x3c26d996	0.0101837125
137	0xbd0aa441	-0.03384805
138	0x3c2f9412	0.010716455
139	0x3b876c55	0.004132787
140	0x3d342a4e	0.043985657
141	0x3cc4c7f5	0.024021128
142	0x3d0a7841	0.03380609
143	0x3ce6de9b	0.028182318
144	0xbcdf5b8a	-0.027265329
145	0xbc6326cb	-0.013864229
146	0xbc8f8fa8	-0.017524555
147	0x3c4923e7	0.012276626
148	0xbcf84b18	-0.030309245
149	0xbc8f378f	-0.017482547
150	0x3cd398ba	0.025829662
151	0xbd9cfc98	-0.07665366
152	0x3bf62508	0.0075117387
153	0xbcd75f18	-0.026290461
154	0xbccefa61	-0.025265874
155	0x3cb74bb6	0.022374969
156	0xb93215bc	-0.000169835
157	0x3d108b28	0.03528896
158	0xbc44a06c	-0.012001138
159	0xbd050b34	-0.032481387
160	0xbc0f6086	-0.00875104
161	0x3c8c9ff0	0.017166108
162	0x3d05439f	0.03253519
163	0x3cbb7aa0	0.02288562
164	0xbd10f48e	-0.035389476
165	0x3c3e8260	0.0116277635
166	0xbd5c13c1	-0.053729776
167	0x3d5b610a	0.05355934
168	0x3d170621	0.03687108
169	0x3c613f7f	0.013748049
170	0x3be0a706	0.0068558482
171	0xbc11b529	-0.00889329
172	0x3cf1612c	0.02946528
173	0xbcc94e8c	-0.024573587
174	0x3b9cf6e4	0.004790174
175	0x3d3a140e	0.045429282
176	0xbb9d455d	-0.0047995285
177	0x3c9795eb	0.018504104
178	0xbbeadbfb	-0.007167337
179	0x3bf54e50	0.007486142
180	0x3c6f0df1	0.014590726
181	0xbd3c9f1f	-0.046050187
182	0xbc57b9fd	-0.013166902
183	0xba910186	-0.0011063076
184	0x39cc4c5e	0.0003896681
185	0xbc8d262d	-0.017230118
186	0x3c235632	0.009969281
187	0xbbfabaaf	-0.007651649
188	0xbd855fe4	-0.0651243
189	0x3d2c4a2a	0.042062916
190	0x3b196f18	0.0023412164
191	0x3b66de6d	0.003522779
192	0xbc6bd1eb	-0.01439331
193	0xbd76972e	-0.06020277
194	0xbd022c06	-0.031780265
195	0xbcc9d316	-0.024636786
196	0xbd0bbbb2	-0.034114547
197	0xbda3e58e	-0.080027685
198	0x3d312ed3	0.043257546
199	0xbd116d29	-0.035504494
200	0x3c96ffd0	0.018432528
201	0x3d13eb96	0.036113344
202	0x3b86dd82	0.0041157613
203	0x3cc5da3a	0.02415191
204	0xbccab5c3	-0.024744874
205	0xbd33ed3a	-0.04392741
206	0x3d359236	0.04432889
207	0xbd15821d	-0.03650104
208	0xbd45ec02	-0.048320778
209	0x3cd41917	0.02589087
210	0xbc1ab964	-0.009443615
211	0xbd1b953f	-0.03798413
212	0x3cc13081	0.023582699
213	0xbd4ac2fe	-0.049502365
214	0xbd1fe838	-0.03903982
215	0xbd2972ee	-0.04136937
216	0x3d703480	0.058643818
217	0x3c12e4a6	0.008965647
218	0xbcd05fcc	-0.025436305
219	0xbcb4c2f2	-0.022065613
220	0xbc8fb7e3	-0.017543739
221	0xbd0e1d22	-0.034695752
222	0xbccfc4af	-0.02536234
223	0xbcf1d7cf	-0.02952185
224	0x3c8f2b5a	0.017476726
225	0x3ca967a1	0.020679297
226	0x3ca7c197	0.020478053
227	0x3cc04e6c	0.023474894
228	0xbd6ab5ac	-0.057302162
229	0x3cf47747	0.029842032
230	0xbd3b6489	-0.045750175
231	0xbd4b70db	-0.049668174
232	0x39065bd5	0.00012813446
233	0x3c5c64cc	0.013451766
234	0x3d856b21	0.06514574
235	0xbc407dc9	-0.0117487395
236	0xbcbe0454	-0.023195423
237	0x3bf7bacc	0.0075601097
238	0xbcea28ef	-0.028583972
239	0xbd02c85c	-0.03192936
240	0x3d01edd2	0.031720944
241	0xbd228ef2	-0.039687105
242	0xba372fad	-0.0006988
243	0xbcbbc098	-0.022918984
244	0xbbec6b0f	-0.007214911
245	0xbcb2e95d	-0.021839792
246	0xbd0de36f	-0.034640726
247	0xbd57725d	-0.0525993
248	0xbd340a13	-0.04395492
249	0x3ca437f4	0.020046212
250	0x3b72e5c8	0.003706323
251	0x3cd13b71	0.02554104
252	0xbcb3ae61	-0.021933736
253	0x3ba9d4a8	0.0051828213
254	0xbc7aefa8	-0.015315928
255	0x3cc3bdc8	0.023894206

conv.7.bias f4 [64]
0	0x3d46c26c	0.04852526
1	0xbc2d28cd	-0.01056881
2	0xbd077faa	-0.033080734
3	0xbd4b5a61	-0.04964674
4	0xbd1c4f71	-0.0381617
5	0x3d7edc83	0.062222015
6	0x3d2b7e92	0.041868754
7	0xbcb4b976	-0.02206109
8	0x3cf6444a	0.03006186
9	0xbcc84b41	-0.024449946
10	0xbb39a17b	-0.002832501
11	0xbcdea891	-0.027179988
12	0x3d06f122	0.032944806
13	0xbd2cb303	-0.042162906
14	0x3d24125e	0.04005658
15	0x3c49ae11	0.012309567
16	0x3d2c30e3	0.04203881
17	0xbcbebf78	-0.023284659
18	0x3aa4bf3c	0.0012569199
19	0x3d49c047	0.049255636
20	0x3d8d57dd	0.06901524
21	0xbb1b1d28	-0.0023668502
22	0xbd56e582	-0.05246497
23	0xbd6caf99	-0.05778465
24	0xbd849063	-0.06472852
25	0xbd49e264	-0.04928817
26	0xbd94d2b6	-0.072667524
27	0xbcfa1a14	-0.030530013
28	0x3d2d3b9c	0.042293176
29	0xbd8f135e	-0.06986116
30	0x3d27b845	0.040947217
31	0x3ce9389f	0.028469382
32	0x3ccb08f2	0.024784539
33	0x3c0cc52f	0.008591934
34	0xbda0e576	-0.07856266
35	0x3c325119	0.010883593
36	0x3d84164d	0.06449566
37	0x3d34ef2d	0.04417341
38	0x3c9e05a8	0.019289806
39	0x3c885416	0.016641658
40	0xbd8e81ca	-0.06958349
41	0x3b313f2a	0.0027045705
42	0x3ce96152	0.028488789
43	0x3d6cf2d3	0.057848763
44	0x3d013072	0.03154034
45	0xbd55fbe7	-0.052242186
46	0xbd4eeb5d	-0.05051743
47	0xbd2ca308	-0.042147666
48	0x3d1f07b1	0.038825694
49	0x3c4a905d	0.01236352
50	0x3cced1b1	0.025246473
51	0x3cd79bea	0.026319463
52	0x3d6a692d	0.05722921
53	0xbdae0b75	-0.08498279
54	0xbd13cd05	-0.036084194
55	0x3c05be4f	0.008163049
56	0x3d61b309	0.05510238
57	0xbda6de3e	-0.08147858
58	0x3d00c18b	0.031434577
59	0x3d5d7e56	0.05407556
60	0xbcfe4e75	-0.03104327
61	0x3daf43ed	0.08557878
62	0x3d71ee30	0.059065044
63	0xbd34d528	-0.044148594

bn.weight f4 [64]
0	0x3f922c09	1.1419688
1	0x3f8f1944	1.1179585
2	0x3f8c9757	1.0983685
3	0x3f8a6ef0	1.0815105
4	0x3f8a3df3	1.0800155
5	0x3f931d88	1.1493387
6	0x3f982b9d	1.188831
7	0x3f8d4253	1.1035866
8	0x3f93e2a0	1.1553535
9	0x3f8db5a9	1.1071063
10	0x3f8e0932	1.1096556
11	0x3f9725a0	1.1808357
12	0x3f898cd4	1.0746102
13	0x3f905d16	1.1278408
14	0x3f8c8099	1.0976745
15	0x3f8bfdf4	1.0936875
16	0x3f8e8a82	1.1136019
17	0x3f97a4ae	1.1847131
18	0x3f95fd8e	1.1718004
19	0x3f8b5465	1.088513
20	0x3f89c167	1.0762147
21	0x3f8b89ff	1.0901488
22	0x3f93c05f	1.1543082
23	0x3f8aba40	1.0838089
24	0x3f969c64	1.1766477
25	0x3f99458c	1.1974349
26	0x3f8e3105	1.110871
27	0x3f91271c	1.134006
28	0x3f8cf822	1.1013224
29	0x3f963378	1.1734457
30	0x3f91ed5a	1.1400559
31	0x3f8749b9	1.0569373
32	0x3f8f015b	1.1172289
33	0x3f879ba1	1.0594369
34	0x3f908091	1.1289235
35	0x3f8e6df6	1.1127307
36	0x3f9132f4	1.1343675
37	0x3f8f1cf3	1.118071
38	0x3f8a68a7	1.0813187
39	0x3f98a3d5	1.1924998
40	0x3f909ab3	1.129721
41	0x3f8efe39	1.1171333
42	0x3f8d182f	1.1023005
43	0x3f89ebaa	1.0775044
44	0x3f9a50c7	1.2055901
45	0x3f99e8a2	1.2024119
46	0x3f8ebec2	1.1151965
47	0x3f8e6165	1.1123472
48	0x3f935e17	1.1513089
49	0x3f8b9d86	1.0907447
50	0x3f97493f	1.1819228
51	0x3f95389e	1.1657903
52	0x3f8e8814	1.1135278
53	0x3f968f08	1.17624
54	0x3f8e434c	1.1114287
55	0x3f8fc1b8	1.1230993
56	0x3f959465	1.1685911
57	0x3f9302c1	1.1485215
58	0x3f9135f1	1.1344587
59	0x3f917cfb	1.1366266
60	0x3f89822b	1.0742849
61	0x3f8521c3	1.0400928
62	0x3f873574	1.0563188
63	0x3f8f26df	1.1183738

bn.bias f4 [64]
0	0xbdc7fd8c	-0.09765157
1	0x3da1ff6d	0.07910047
2	0xbe2e4647	-0.17018996
3	0xbcdd83a4	-0.02704031
4	0x3db32924	0.08748081
5	0x3d2263e4	0.039646044
6	0xbd2b4645	-0.04181506
7	0x3dffdde0	0.12493491
8	0xbda60dbb	-0.08108088
9	0xbca42dd3	-0.020041382
10	0x3dee3be2	0.116325155
11	0x3ce3bfc4	0.027801402
12	0xbe12026a	-0.14258733
13	0x3e1910ff	0.1494789
14	0x3e314134	0.1731003
15	0x3d7abd2c	0.061215565
16	0x3b904164	0.0044023264
17	0xbdbb6e7b	-0.09151932
18	0xbe0f515e	-0.13995883
19	0x3dc989cb	0.09840735
20	0xbd6bf662	-0.057608016
21	0x3e19a657	0.1500486
22	0x3dc0db30	0.09416807
23	0x3e2ebbc6	0.17063817
24	0x3d3b72e7	0.045763876
25	0xbdd107d4	-0.10206571
26	0x3e20aac4	0.15690142
27	0x3c43addc	0.011943307
28	0x3dc1756a	0.09446223
29	0xbd82cd4e	-0.06386815
30	0xbda07dab	-0.07836469
31	0x3e3d5b6a	0.18491903
32	0x3dc16027	0.09442168
33	0x3e0ad720	0.13558626
34	0x3e309e35	0.17247851
35	0xbe2c2f9a	-0.16815034
36	0x3e0120b7	0.12610136
37	0xbde6db88	-0.11272341
38	0x3d9b21e4	0.075748235
39	0xbdaee101	-0.0853901
40	0xbdde399f	-0.10850834
41	0xbdd380e9	-0.10327322
42	0xbb33ced9	-0.0027436523
43	0x3e159bc2	0.14610198
44	0x3dceaa6b	0.100910984
45	0xbd96f664	-0.07371214
46	0x3db5c9e3	0.088763975
47	0x3e1086f2	0.14113978
48	0xbdc7e2b4	-0.09760037
49	0x3e2deabd	0.16984077
50	0xbdf1d6b6	-0.11808531
51	0x3d1c5c92	0.03817422
52	0x3d95d904	0.07316783
53	0x3c865663	0.016398614
54	0x3de3a7ce	0.111159906
55	0xbdd9db2c	-0.10637507
56	0xbdda9b92	-0.10674204
57	0x3dc678fc	0.09691045
58	0xbda4c37f	-0.080451004
59	0xbe363040	-0.17791843
60	0x3e26db93	0.16294698
61	0x3db67fbd	0.08911083
62	0x3db139c2	0.086535946
63	0x3d78c0bd	0.060730685

bn.running_mean f4 [64]
0	0x3d7eea4c	0.06223516
1	0xbc8574a3	-0.016290968
2	0xbd7a8bae	-0.061168365
3	0xbd29993d	-0.041405905
4	0xbcf1b031	-0.02950296
5	0x3d5767b9	0.052589152
6	0x3d9741a1	0.073855646
7	0xbd2e6573	-0.04257722
8	0x3c52de0c	0.012870323
9	0xbca9bc31	-0.02071962
10	0xbc00b291	-0.007855074
11	0x3cb98aee	0.022649255
12	0x3cd4adec	0.025961839
13	0xbc83413c	-0.016022317
14	0x3d75aa22	0.059976704
15	0x3ccfb587	0.025355114
16	0x3d14b2bc	0.036303267
17	0x3c34c50b	0.011033307
18	0x3b7c2d27	0.0038479061
19	0x3d6fef6d	0.058577944
20	0x3d9dd228	0.077061
21	0x3ce6bf08	0.028167263
22	0xbd20b9b5	-0.039239604
23	0xbd14bf84	-0.036315456
24	0xbd8b0b53	-0.06789269
25	0xbd96b898	-0.07359427
26	0xbda68642	-0.081310764
27	0x3c869b0a	0.01643135
28	0x3cd8bdac	0.02645763
29	0xbd9d3c26	-0.07677488
30	0x3d948228	0.07251388
31	0x3c97b0ec	0.01851698
32	0x3d3e5b98	0.04647407
33	0x3beed4c7	0.0072885486
34	0xbd8df45f	-0.06931376
35	0x3b43b95f	0.0029865128
36	0x3d52bd74	0.051450208
37	0x3d1f07e9	0.038825903
38	0x3c44864e	0.011994911
39	0x3b1139cf	0.00221597
40	0xbdb90c66	-0.09035568
41	0x3a0ddfc0	0.00054120645
42	0x3cf09877	0.029369576
43	0x3d399309	0.04530624
44	0x3cbea1db	0.023270538
45	0xbd1fe811	-0.039039675
46	0xbcd38f6c	-0.025825225
47	0xbd0bc1ea	-0.034120478
48	0x3d8c266c	0.06843266
49	0x3cd2edcc	0.025748156
50	0x3c8bc6dc	0.017062597
51	0x3d6fb95e	0.05852639
52	0x3d5a0d42	0.0532353
53	0xbdc3e4f4	-0.09565154
54	0xbd0b639a	-0.034030534
55	0x3d46c5b4	0.04852839
56	0x3d93130c	0.07181367
57	0xbda59374	-0.08084765
58	0x3d25f103	0.04051305
59	0x3d4ef02e	0.050522022
60	0xbcc0ba50	-0.02352634
61	0x3daf44dc	0.08558056
62	0x3d4270de	0.04747092
63	0xbccc1746	-0.024913441

bn.running_var f4 [64]
0	0x389c77dd	7.460986e-05
1	0x38b0b899	8.426718e-05
2	0x38a577a8	7.890101e-05
3	0x38ed4e32	0.00011315606
4	0x387466d7	5.826991e-05
5	0x39014fb4	0.0001233209
6	0x39278e94	0.00015979476
7	0x394ba566	0.00019421204
8	0x38f7094a	0.00011779608
9	0x38d1e2f0	0.00010008167
10	0x396abfdf	0.00022387457
11	0x39dd3e31	0.0004219874
12	0x394caa16	0.00019518318
13	0x38e449d8	0.00010885642
14	0x38f6dd8d	0.00011771461
15	0x3978a31f	0.0002371189
16	0x3891c658	6.951083e-05
17	0x39e6d7e8	0.0004402988
18	0x38ee02f4	0.000113492744
19	0x3982d283	0.00024952376
20	0x3910cd02	0.00013809282
21	0x38e64fd0	0.00010982121
22	0x391bd70a	0.0001486206
23	0x38dde018	0.00010579842
24	0x39676d1d	0.00022070525
25	0x39613ba6	0.00021479893
26	0x390b2e4f	0.00013273324
27	0x39c4ddd6	0.00037549314
28	0x3988de0f	0.00026105388
29	0x396f5274	0.00022823532
30	0x39978fcd	0.00028908104
31	0x390f937f	0.0001369249
32	0x390c742c	0.00013394718
33	0x389a1eed	7.3490526e-05
34	0x38beffa3	9.107522e-05
35	0x38d3e75b	0.00010104357
36	0x3964a93b	0.00021806818
37	0x393f24cd	0.00018228889
38	0x390d2bdb	0.00013463145
39	0x3910b077	0.00013798648
40	0x38e10bdf	0.00010731047
41	0x39fecd35	0.00048599546
42	0x3916e48d	0.00014390257
43	0x393fe965	0.00018302126
44	0x38cf19eb	9.875357e-05
45	0x39b9f8a5	0.00035471204
46	0x38d1c773	0.00010003047
47	0x395969bf	0.00020734126
48	0x39da2002	0.00041604048
49	0x39b1d9be	0.000339223
50	0x38945fe1	7.075049e-05
51	0x39434b5f	0.00018624727
52	0x390dd60e	0.0001352655
53	0x391124b2	0.00013841948
54	0x3963a375	0.000217093
55	0x399a8bb0	0.00029477244
56	0x399a5612	0.00029437296
57	0x38826b87	6.2189116e-05
58	0x38d4e002	0.000101506725
59	0x38db5dd6	0.00010460212
60	0x38ee63eb	0.000113673355
61	0x392e5d59	0.00016628708
62	0x38a7a246	7.993406e-05
63	0x39367712	0.0001740123

dense.1.weight f4 [6, 64]
0	0xbe14b571	-0.1452234
1	0x3d9b962a	0.07597001
2	0xbe845702	-0.25847632
3	0x3dc2ba75	0.0950822
4	0x3d72ec87	0.0593076
5	0x3e086230	0.13318706
6	0xbe20cf8a	-0.1570417
7	0x3e8798bc	0.26483715
8	0xbe3b1c6a	-0.18272558
9	0x3d662887	0.056190994
10	0x3e8ded3f	0.27720067
11	0xbd9563e9	-0.07294447
12	0xbe77fa95	-0.24216683
13	0x3e0c57f8	0.13705432
14	0x3c669b07	0.014075047
15	0xbcc37734	-0.023860551
16	0xbbb2253d	-0.005436568
17	0xbe228c4f	-0.15873836
18	0x3c9a804d	0.018860007
19	0x3e7e7e2a	0.24852815
20	0x3d3f3f23	0.04669107
21	0x3dd94d51	0.1061045
22	0x3e853fd3	0.26025257
23	0x3e572dab	0.21013515
24	0x3da58357	0.08081692
25	0xbd7a89fe	-0.061166756
26	0x3e13fe18	0.14452398
27	0xbda708b2	-0.081559554
28	0x3e6a31da	0.2287058
29	0xbca2c36b	-0.019868573
30	0xbe2416aa	-0.1602427
31	0x3e52b064	0.205751
32	0xbcbfd275	-0.023415783
33	0x3e11f3b9	0.14253129
34	0x3df96116	0.12176721
35	0xbe6b3341	-0.2296877
36	0x3e8476b2	0.25871807
37	0xbe8808b8	-0.26569152
38	0x3e4f5d7d	0.20250507
39	0xbdfbcee3	-0.1229532
40	0xbe2fac28	-0.17155516
41	0xbe78f56e	-0.24312374
42	0x3d7ab2ba	0.061205603
43	0x3e5d753a	0.2162675
44	0x3df026d8	0.11726159
45	0xbe3fcc8a	-0.18730369
46	0x3d2dba6d	0.042414118
47	0x3df2756f	0.11838805
48	0xbe77cf1b	-0.24200098
49	0x3e34c3c3	0.17652802
50	0xbe62804b	-0.22119252
51	0x3ddc4534	0.10755387
52	0x3e354aff	0.1770439
53	0xbd57abd9	-0.05265412
54	0x3e944a3f	0.28962895
55	0xbe55c616	-0.20876345
56	0xbe522a2c	-0.205239
57	0x3e428db9	0.18999375
58	0xbd6e2962	-0.058144934
59	0xbe1850f9	-0.14874639
60	0x3e454db7	0.19267927
61	0x3e38bf53	0.18041734
62	0x3d92b1bb	0.07162806
63	0x3e21e2b1	0.15809132
64	0x3e37c6a3	0.17946868
65	0xbe1c9889	-0.15292563
66	0x3d210707	0.039313342
67	0x3e5f9df0	0.21837592
68	0xbe6fe022	-0.23425344
69	0x3e606408	0.21913159
70	0x3e06b877	0.13156305
71	0x3dae0f8c	0.08499059
72	0xbd4847d2	-0.04889662
73	0xbd80f3a3	-0.0629647
74	0x3dccbef8	0.09997362
75	0x3e242786	0.16030702
76	0x3e57cec5	0.2107497
77	0xbe81cd82	-0.25352103
78	0xbe755fe5	-0.23962362
79	0x3d00070b	0.031256717
80	0x3e0b953e	0.1363115
81	0x3e634630	0.22194743
82	0x3e7b7bef	0.24558996
83	0x3d9f693a	0.07783742
84	0x3e253ffe	0.16137692
85	0x3bdc4b80	0.0067228675
86	0x3dad8e79	0.0847444
87	0xbdf3b1f0	-0.11899173
88	0xbdf61158	-0.12015027
89	0xbe096486	-0.13417253
90	0xbe09be75	-0.1345156
91	0x3aafd3c4	0.0013414552
92	0x3c49f550	0.012326553
93	0xbe2a52cf	-0.16633151
94	0x3e497fdd	0.19677682
95	0xbd6648d7	-0.05622181
96	0xbdf7bc32	-0.12096442
97	0x3e3031be	0.17206475
98	0xbe1b033a	-0.1513795
99	0x3e2aa49b	0.16664355
100	0x3d5f8b0b	0.05457596
101	0x3e06ee10	0.13176751
102	0x3e236b6a	0.15958944
103	0xbe72ec85	-0.23723038
104	0x3e10d538	0.14143836
105	0x3e532989	0.20621313
106	0xbabd7949	-0.0014455701
107	0xbdf453e3	-0.119300626
108	0xbe5a88dd	-0.21341272
109	0x3d901c6e	0.070366725
110	0xbdfabe84	-0.12243369
111	0xbdc1d7e9	-0.0946501
112	0x3c31b28d	0.0108457925
113	0xbe2f457f	-0.17116354
114	0x3a25d55a	0.00063260423
115	0x3e6319b5	0.22177775
116	0x3e49c94c	0.19705695
117	0xbe357fe4	-0.17724568
118	0x3e134f92	0.14385822
119	0x3e5c1be8	0.2149502
120	0x3e411b93	0.18858175
121	0xbe04b4e6	-0.12959632
122	0x3e5888d2	0.21145943
123	0xbdf7168d	-0.12064848
124	0xbe4d6932	-0.2005966
125	0xbdc340f4	-0.09533873
126	0x3de5793e	0.11204766
127	0xbe09c149	-0.13452639
128	0xbe42a35a	-0.19007626
129	0x3e70c8b8	0.23514068
130	0x3d6a8d44	0.057263628
131	0x3d9f494f	0.077776544
132	0xbd87f5a1	-0.06638647
133	0x3da5c245	0.080936946
134	0x3e17b351	0.14814498
135	0xbdf6802e	-0.12036167
136	0x3e37667b	0.17910187
137	0xbe36d1f4	-0.17853528
138	0xbe0240af	-0.12719987
139	0x3e3d616e	0.18494198
140	0x3e4ae555	0.19814046
141	0x3e30fec3	0.17284684
142	0xbca891ed	-0.020577395
143	0x3e128a08	0.14310467
144	0x3e22100b	0.15826432
145	0x3e5638a7	0.20920049
146	0x3df3cc56	0.11904208
147	0xbda33c5d	-0.07970498
148	0x3e383244	0.17987925
149	0xbe75e36f	-0.2401254
150	0xbdbba8fe	-0.09163092
151	0x3dfc8865	0.12330703
152	0x3e4594db	0.19295065
153	0x3e6f311a	0.23358575
154	0xbe6c9f63	-0.23107676
155	0xbc9c92ee	-0.01911303
156	0x3d48b689	0.049002204
157	0x3e5dc76e	0.21658108
158	0xbd3f2713	-0.046668123
159	0xbda57915	-0.08079735
160	0xbd7af602	-0.061269768
161	0xbd8c0fa9	-0.068389244
162	0xbdfab65a	-0.12241812
163	0x3e297fb3	0.1655262
164	0xbe098ff6	-0.13433823
165	0x3ae8ca17	0.0017760423
166	0xbe15beec	-0.14623612
167	0x3e0f07ef	0.1396787
168	0xbd683953	-0.056695294
169	0x3d88fed2	0.06689228
170	0x3e757ede	0.23974177
171	0xbe1d2f3e	-0.15350053
172	0x3e8836da	0.26604348
173	0xbe281563	-0.16414408
174	0xbe1fe360	-0.1561408
175	0xbe092c10	-0.13395715
176	0x3e0f5d57	0.1400045
177	0xbdaabc86	-0.08336739
178	0x3e54206d	0.20715494
179	0xbe608441	-0.21925451
180	0xbdaaebfe	-0.08345793
181	0x3e277d01	0.16356279
182	0xbd9649e9	-0.07338316
183	0xbd94afcc	-0.07260093
184	0x3bb05236	0.005380894
185	0x3e4d4958	0.2004751
186	0xbe5f926f	-0.21833204
187	0xbce0890c	-0.027409099
188	0x3e0d88ac	0.13821667
189	0xbda4a8e6	-0.08040027
190	0xbe07cd36	-0.13261876
191	0x3de1f607	0.11033254
192	0x3d6fe9d4	0.058572605
193	0x3df7bb5b	0.12096282
194	0xbd075a7b	-0.033045273
195	0xbe4fc283	-0.20289044
196	0x3c8fb86a	0.01754399
197	0xbe641b7b	-0.22276108
198	0x3de7e7f6	0.1132354
199	0xbd9cacce	-0.076501474
200	0x3e1404fe	0.1445503
201	0xbe4797c0	-0.19491482
202	0xbdede9ff	-0.11616897
203	0x3e432629	0.19057526
204	0xbba5b753	-0.0050572543
205	0x3ded9500	0.11600685
206	0x3cc5b68b	0.024134895
207	0x3e623031	0.22088696
208	0xbe412ceb	-0.18864791
209	0x3df4a94b	0.119463526
210	0xbde8ac53	-0.11360993
211	0xbd8a7ce0	-0.06762099
212	0xbe4212ba	-0.18952456
213	0x3e7fbf81	0.24975397
214	0xbe0f4ebf	-0.13994883
215	0x3e1fca4d	0.15604515
216	0x3de2ad04	0.11068156
217	0xbe77ade7	-0.24187432
218	0x3e2dcdc6	0.16973028
219	0x3e8879d3	0.26655445
220	0xbe6a12d6	-0.22858748
221	0xbe89c50c	-0.26908147
222	0x3e127c74	0.14305288
223	0x3e3608e8	0.17776835
224	0x3de26801	0.110549934
225	0x3dd37a0a	0.103260115
226	0x3e1f411b	0.1555218
227	0xbdf7b537	-0.12095111
228	0xbe16f365	-0.14741285
229	0x3dc40d4a	0.09572847
230	0xbe0bac46	-0.13639936
231	0xbe6eb676	-0.23311791
232	0x3dec91d8	0.11551255
233	0x3e5dac11	0.2164767
234	0xbe5ff1ef	-0.21869634
235	0x3d32c571	0.043645326
236	0xbd58fa24	-0.052972928
237	0x3e41c839	0.18924035
238	0x3e8907ab	0.26763663
239	0x3e7e73d0	0.24848866
240	0x3dca9e81	0.098935135
241	0x3e1b424e	0.15162012
242	0xbdc4040b	-0.09571084
243	0xbe4655ee	-0.19368717
244	0xbe3a0dc7	-0.18169318
245	0x3e1ca81c	0.15298504
246	0xbe0eb1d6	-0.13935027
247	0x3ae991bb	0.001781992
248	0x3d1ede44	0.038786188
249	0xbe358d7e	-0.17729756
250	0xbd179dc2	-0.037015684
251	0xbe455de3	-0.19274096
252	0x3df30356	0.11865871
253	0xbe18c821	-0.14920093
254	0x3e30396b	0.17209403
255	0xbe2a8f42	-0.16656211

dense.1.bias f4 [6]
0	0x3e7463be	0.23866174
1	0xbc895168	-0.01676245
2	0xbbddf3d5	-0.006773452
3	0x3c2f5746	0.01070196
4	0xbe17b33c	-0.14814466
5	0xbe22ff96	-0.15917811
