model/2023_1_6_hj_num_7.onnx (onnx, 9460 bytes, 10 tensors)

conv.0.weight f4 [3, 1, 5, 5]
0	0x3dad83f2	0.08472432
1	0x3cf40d5b	0.029791525
2	0xbca011fd	-0.019539827
3	0xbc184f64	-0.009296272
4	0xbca5d8d7	-0.020244999
5	0xbe111e42	-0.14171699
6	0xbe1e0f7a	-0.15435591
7	0x3cbddb83	0.02317596
8	0x3d5fa8d3	0.054604363
9	0x3db9ad52	0.09066261
10	0x3c6f502d	0.014606518
11	0xbc784841	-0.015153945
12	0xbc14fd54	-0.009093601
13	0xbd22db5d	-0.039759982
14	0xbd7023e7	-0.05862799
15	0xbdb481c7	-0.088138156
16	0x3dbce26b	0.09222873
17	0x3e151b35	0.1456116
18	0x3e17dd27	0.14830457
19	0x3e232123	0.1593061
20	0xbc61f30d	-0.013790858
21	0xbd851258	-0.064976394
22	0x3d0e89aa	0.034799255
23	0xbe4a3c09	-0.19749464
24	0xbc8dc6c3	-0.017306691
25	0xbd72f2ed	-0.059313703
26	0xbdf2a438	-0.118477285
27	0xbc91b295	-0.01778535
28	0x3c12c7cd	0.008958769
29	0xbc04ff63	-0.00811753
30	0xbe179d10	-0.14806008
31	0xbd6670e6	-0.056260012
32	0x3d17c48c	0.037052676
33	0x3cb6093c	0.0222212
34	0xbe042a1d	-0.1290669
35	0xbe0f7e3c	-0.14012998
36	0xbd1cf010	-0.03831488
37	0x3d11af57	0.035567608
38	0x3d2069a4	0.039163247
39	0x3cf2e2b4	0.029649116
40	0xbda41b0b	-0.080129705
41	0x3d2fe7b5	0.042945582
42	0xbe0ca235	-0.13733752
43	0xbc87c190	-0.01657179
44	0xbdd0ec2d	-0.10201297
45	0xbd36d171	-0.044633333
46	0x3baedbf8	0.005336281
47	0xbe212908	-0.15738308
48	0xbe2a7998	-0.16647947
49	0x3d8a841c	0.06763479
50	0x3d1153a6	0.035480164
51	0x3da81ab7	0.082082205
52	0x3e10ded8	0.14147508
53	0x3e05e752	0.13076523
54	0x3e09e757	0.13467155
55	0x3ac672e8	0.0015140446
56	0xbc382a3b	-0.011240537
57	0xbcd97326	-0.026544165
58	0xbd02538b	-0.031817954
59	0xbd246c5f	-0.040142413
60	0xbe39d38c	-0.18147105
61	0x3a4bc72f	0.0007773516
62	0xbd24cfa1	-0.040237073
63	0xbdf6e7fe	-0.12055968
64	0xbd46a24f	-0.048494633
65	0x3e0dc624	0.13845116
66	0x3d950a74	0.072773844
67	0x3c12d656	0.0089622345
68	0x3becf41d	0.007231249
69	0xbe0351d8	-0.1282419
70	0xbd820989	-0.06349475
71	0x3aecfe2e	0.0018081123
72	0xbc357df4	-0.011077393
73	0xbcb2dad9	-0.02183287
74	0xbd691cf1	-0.056912366

conv.0.bias f4 [3]
0	0xbe8e5c34	-0.2780472
1	0x3e03fe06	0.12889871
2	0xbe82f0f9	-0.25574473

conv.5.weight f4 [24, 72]
0	0xbcbcdbfd	-0.023054117
1	0xbd2a11fd	-0.04152106
2	0xbc0ef24d	-0.008724761
3	0xbd33873c	-0.04383014
4	0xbcc66a89	-0.024220722
5	0xbcbd5f88	-0.023116842
6	0x3cb47eea	0.022033174
7	0x3cb340ea	0.02188154
8	0x3d29ec52	0.04148514
9	0x3c994f24	0.018714495
10	0x3d3e8be5	0.046520133
11	0x3c809897	0.01569776
12	0x3c683d08	0.014174707
13	0xbd46b68c	-0.048513934
14	0xbc998929	-0.01874216
15	0xbcb301db	-0.02185147
16	0x3bfa3e07	0.0076367888
17	0xbd18243d	-0.037143935
18	0x3ba03229	0.004888792
19	0x3d0fb79e	0.03508722
20	0x3bbefecb	0.0058287135
21	0x3d3399c9	0.043847833
22	0xbb02a309	-0.0019933602
23	0x3d29a3e8	0.04141608
24	0x3bd3bc3e	0.006461649
25	0x3b98bc76	0.004661138
26	0x3cc50c70	0.024053782
27	0x3bdc038a	0.006714289
28	0x3cbb5159	0.022865938
29	0x3c74ba35	0.014936973
30	0x3c17c225	0.009262596
31	0xbcc6d125	-0.02426965
32	0x3c1e3e26	0.009658372
33	0x3c9dc291	0.019257816
34	0x3d06bd2b	0.03289525
35	0x3c1c677b	0.009546156
36	0x3d68baf4	0.056818917
37	0xbc1a1e17	-0.009406588
38	0x3b9bf9c2	0.004759998
39	0x3c31a6a2	0.010842951
40	0x3c830e4e	0.015998032
41	0x3c23cfe8	0.009998299
42	0xbc4d8361	-0.01254353
43	0xbbfebb2c	-0.0077737775
44	0x3d0bf7cc	0.034171864
45	0xbd5f7a15	-0.054559786
46	0xbd17050f	-0.03687006
47	0x3b4e81a4	0.0031510377
48	0xbbd7e548	-0.0065886118
49	0xbc590d5d	-0.013247815
50	0x3ad05083	0.0015893135
51	0xbd006dc1	-0.03135467
52	0xbc89e0a7	-0.016830755
53	0x3c668b00	0.014071226
54	0xbbb4c6e3	-0.005516873
55	0x3cf00f6b	0.029304227
56	0x3ba9053b	0.005158094
57	0x3d68a1ef	0.056795057
58	0xbbc7bf3b	-0.0060957945
59	0x3a9fe1d5	0.001219804
60	0xbc70c816	-0.014696142
61	0x3df80171	0.1210965
62	0x3ac81866	0.001526606
63	0x3d8499df	0.06474661
64	0xbcbb7fb9	-0.022888051
65	0x3d981780	0.07426357
66	0x3cda54cf	0.026651768
67	0x3bece19c	0.007229043
68	0x3cad0ee8	0.021125272
69	0xbd00db97	-0.031459417
70	0x3c66b38c	0.014080893
71	0xbcba0c7d	-0.022711033
72	0x3c834a61	0.016026678
73	0x3de407c8	0.11134297
74	0xbd041245	-0.032243986
75	0x3d3f3b08	0.046687156
76	0xbd4ebe6a	-0.05047456
77	0x3d2f49b9	0.042794917
78	0xbdb006f9	-0.0859508
79	0xbd5b6059	-0.05355868
80	0xbcdf25e9	-0.027239757
81	0xbdac911c	-0.08426115
82	0xbd98af08	-0.074552596
83	0xbdb02931	-0.08601607
84	0x3bbc531f	0.0057472135
85	0x3ceb8d9d	0.02875405
86	0x3b5c0df7	0.003357766
87	0x3d7e4b8e	0.062083773
88	0x3ba66212	0.005077609
89	0x3e025b8f	0.1273024
90	0x3c574110	0.013138071
91	0xbc687226	-0.014187371
92	0xbba3c1fd	-0.0049974904
93	0xbd85ffab	-0.065429054
94	0xbd065de5	-0.03280439
95	0xbb3de29e	-0.0028974186
96	0xbc1b0830	-0.009462401
97	0xbc15ec71	-0.00915061
98	0xbbec58ce	-0.007212735
99	0xbc8d9aa4	-0.017285652
100	0x3b911e78	0.004428681
101	0xbcbd03f7	-0.02307318
102	0xbd9c8ef6	-0.07644455
103	0xbc83399c	-0.016018681
104	0xbd1582de	-0.036501758
105	0xbcef722d	-0.029229248
106	0xbd64e0c5	-0.05587842
107	0xbd1faaa1	-0.038981084
108	0xbd82e0c9	-0.063905306
109	0x3d3e198a	0.046411075
110	0xbcf2ff6c	-0.02966281
111	0xbcb03321	-0.021508755
112	0xbd297fa5	-0.041381497
113	0xba02195c	-0.0004962885
114	0xbc87dd63	-0.016585058
115	0xbbf13d56	-0.007362048
116	0xbd32f371	-0.043689195
117	0x3d6aac74	0.05729337
118	0x3c5e0c45	0.01355273
119	0xbcd4abad	-0.025960768
120	0xbb263d7d	-0.002536624
121	0x3d4798b5	0.048729617
122	0x3b3c3d61	0.0028723108
123	0x3d5f360e	0.05449491
124	0x3d51d96a	0.051232733
125	0x3b41ea5f	0.002958916
126	0x3c995b11	0.018720182
127	0x3d35ac86	0.044353984
128	0x3d2d6d15	0.042340357
129	0x3c0c0b61	0.008547635
130	0x3d2d296c	0.04227583
131	0x3d38fb9c	0.04516183
132	0xba5badd6	-0.00083800906
133	0xbdd99b37	-0.10625308
134	0x3c7eb0cf	0.015545084
135	0xbcecafc4	-0.028892405
136	0x3d2d6a6e	0.042337827
137	0xbd2a1ddb	-0.04153238
138	0xbca35745	-0.019939074
139	0xbd9b42f4	-0.0758113
140	0xbcbd39e6	-0.023098897
141	0x3c5c6bcb	0.013453434
142	0xbd584e46	-0.052809022
143	0xbcacd418	-0.021097228
144	0xbcb80b20	-0.022466242
145	0xbe09a47a	-0.13441649
146	0xbd4612d1	-0.04835779
147	0xbdd7a953	-0.10530343
148	0xbd24e520	-0.040257573
149	0xbd961fe9	-0.07330305
150	0x3d0a197c	0.03371571
151	0x3cac0df9	0.021002756
152	0x3d7d463b	0.061834555
153	0x3c8303b0	0.01599297
154	0x3cb02492	0.021501813
155	0x3ccb7e6e	0.02484056
156	0xbbb1125d	-0.0054038004
157	0x3df3cae2	0.11903931
158	0x3c91b218	0.017785117
159	0x3d1de436	0.038547717
160	0x3c516090	0.01277937
161	0x3dbb6335	0.091497816
162	0xbd4f0bdd	-0.050548423
163	0xbd46e050	-0.048553765
164	0xbd350373	-0.044192743
165	0xbc8dc35e	-0.017305072
166	0xbbd1d8f3	-0.006404036
167	0xbd1edff2	-0.03878779
168	0xbd04bb42	-0.032405145
169	0xbcde9acd	-0.027173424
170	0x3b612560	0.0034354553
171	0xbbbeabfc	-0.005818842
172	0xbcab2d01	-0.020895483
173	0xba0528a8	-0.00050796056
174	0x3d00a7d0	0.03141004
175	0x3d5e072d	0.054206062
176	0x3d970a50	0.07375014
177	0x3d0834a3	0.033253323
178	0x3d61561f	0.055013772
179	0x3d34a2a4	0.04410042
180	0x3d4f7865	0.050651927
181	0xbd87e95a	-0.06636305
182	0xbd3305d8	-0.043706745
183	0xbb5c4bde	-0.0033614556
184	0x3c27d1b8	0.010242872
185	0xbc03f3b0	-0.008053705
186	0x3c86685f	0.01640719
187	0xbc164219	-0.009171032
188	0x3cccfcd7	0.025022907
189	0xbd5d5d9e	-0.05404436
190	0xbd3c047b	-0.04590271
191	0xbd5e3602	-0.054250725
192	0x3b712c50	0.0036800094
193	0xbd9ba19c	-0.07599184
194	0x3d5c87bd	0.053840388
195	0xbd8d4f98	-0.06899947
196	0x3c8fef75	0.017570237
197	0x3ba74843	0.00510505
198	0x3d6526aa	0.055945076
199	0xbd26d683	-0.040731918
200	0x3cc41f93	0.023940837
201	0x3cd788fe	0.02631044
202	0x3c3152de	0.01082298
203	0xbc4a770d	-0.0123574855
204	0x3d0f36e2	0.03496445
205	0xbc1f0111	-0.009704844
206	0xbc5bdc30	-0.013419196
207	0xbca7fbb5	-0.020505765
208	0xbd221835	-0.039573867
209	0x3b3e9848	0.0029082466
210	0x3bff5b8a	0.0077928947
211	0xbbca1ae8	-0.0061677583
212	0xbd0452ae	-0.032305412
213	0xbd2d246c	-0.042271063
214	0xbb4708ef	-0.0030370315
215	0xbd569f73	-0.052398156
216	0x3b2cfa6e	0.0026394385
217	0x3d416104	0.047211662
218	0xbcdb35d9	-0.026759075
219	0x3d2e034e	0.04248362
220	0x3b31692d	0.0027070746
221	0x3d9b9b33	0.07597961
222	0x3ced15f0	0.028941125
223	0x3d44442d	0.04791658
224	0xbc115cbd	-0.008872208
225	0x3c506c3f	0.01272112
226	0xbc529a0b	-0.0128541095
227	0x3c450e4f	0.012027337
228	0x3c7c897c	0.015413638
229	0x3c793357	0.015209994
230	0x3aa9c8c4	0.001295351
231	0x3b355150	0.0027666874
232	0x3c18763c	0.009305533
233	0xbd47db5d	-0.048793186
234	0x38f8fefe	0.000118730575
235	0x3c67d407	0.014149672
236	0xbbaa84c9	-0.0052038175
237	0x3d48e8a5	0.049049992
238	0x3c973a11	0.018460305
239	0xbcb50ce7	-0.022100879
240	0xbc75f7b9	-0.015012675
241	0x3ccc1c3a	0.024915803
242	0xbd3c37ff	-0.04595184
243	0xbcf28efe	-0.0296092
244	0xbca81205	-0.020516405
245	0xbae9847d	-0.0017815974
246	0xbd14c34a	-0.036319055
247	0x3d3a225e	0.04544293
248	0x3cdd3b4f	0.02700582
249	0x3d42a5ed	0.04752152
250	0x3c33b29d	0.010967878
251	0x3d5f43fc	0.054508194
252	0xbcf14fa5	-0.029456923
253	0x3d9e6cfa	0.077356294
254	0xbc20f769	-0.009824612
255	0x3d58015b	0.052735668

conv.5.bias f4 [24]
0	0xbcbee66d	-0.023303235
1	0x3d4215b0	0.047383964
2	0x3da1beef	0.07897746
3	0xbc170d87	-0.009219534
4	0x3d5aa3a9	0.053378735
5	0x3d225347	0.0396302
6	0x3c262b32	0.0101421345
7	0x3ce406d3	0.027835285
8	0xbd31ccdb	-0.043408256
9	0x3d3f39d4	0.04668601
10	0xbbdc53e0	-0.006723866
11	0xbc48e4f9	-0.012261623
12	0x3d2f5694	0.042807177
13	0x3cd67df1	0.0261831
14	0xbcc4180a	-0.023937244
15	0xbd3489d1	-0.044076744
16	0x3b3909fb	0.0028234709
17	0x3daa97bd	0.08329723
18	0x3d61377c	0.054984555
19	0x3b9c2074	0.004764611
20	0xbdb72414	-0.08942428
21	0xbd1e0f4f	-0.03858882
22	0xbcdd8588	-0.027041212
23	0xbd0297c5	-0.03188302

BN.weight f4 [24]
0	0x3f1398e0	0.57655144
1	0x3f4053c4	0.75127816
2	0x3f294236	0.66116655
3	0x3f063b2d	0.52434045
4	0x3f201176	0.62526643
5	0x3f344d13	0.70430106
6	0x3f138f3c	0.57640433
7	0x3f3367a5	0.70080024
8	0x3f197ff0	0.5996084
9	0x3f1a3542	0.60237515
10	0x3f0abc54	0.54193616
11	0x3f410034	0.75390935
12	0x3f206dbb	0.62667435
13	0x3f320337	0.69536155
14	0x3f033497	0.5125212
15	0x3f348aae	0.7052411
16	0x3f139fca	0.57665694
17	0x3f4c8912	0.7989665
18	0x3f2e727c	0.6814344
19	0x3f3d2065	0.73877555
20	0x3f448e1d	0.7677935
21	0x3f1686e7	0.58799595
22	0x3f159094	0.58423734
23	0x3f1fdc35	0.62445384

BN.bias f4 [24]
0	0x3ec1788e	0.37787288
1	0x3e8f5c50	0.28000116
2	0x3eb278db	0.3485783
3	0x3e8b05fa	0.27152997
4	0x3e9d176a	0.30681926
5	0x3eadbd47	0.3393347
6	0x3e9b11fa	0.30287153
7	0x3eb2f83d	0.34955016
8	0x3ecc4784	0.39898312
9	0x3e9a8605	0.30180374
10	0x3e8e3679	0.27775934
11	0x3e9a135d	0.30092898
12	0x3eb526e6	0.3538124
13	0x3eaa63fa	0.332794
14	0x3e9873fb	0.29775986
15	0x3eb1d139	0.34729937
16	0x3eb010f9	0.3438795
17	0x3ea0b01a	0.31384355
18	0x3eb70097	0.35742638
19	0x3eb7d937	0.3590791
20	0x3ecfd044	0.40588582
21	0x3eca7069	0.39538887
22	0x3eccd0f4	0.4000317
23	0x3e448fb0	0.19195437

BN.running_mean f4 [24]
0	0x3da27b74	0.07933703
1	0xbd7b51eb	-0.06135742
2	0x3d0a18ff	0.033715244
3	0x3c9368de	0.01799434
4	0x3d545ad6	0.05184444
5	0x3d5a8f54	0.053359345
6	0x3d338442	0.043827303
7	0x3d660e43	0.056165945
8	0xbc349dfa	-0.011023993
9	0x3ce13844	0.02749265
10	0x3cf2dcfe	0.029646393
11	0xbcba0e5d	-0.022711927
12	0x3d7d98ba	0.06191323
13	0x3dc3b090	0.09555161
14	0x3cffda10	0.03123191
15	0x3ccb6926	0.024830412
16	0xbbd8a798	-0.0066117756
17	0x3b1d7c0f	0.0024030244
18	0xbd133aed	-0.035944868
19	0x3d12d387	0.03584626
20	0xbd079212	-0.033098288
21	0x3d349d8e	0.04409557
22	0x3d3c8df5	0.04603382
23	0x3d6a2c90	0.057171404

BN.running_var f4 [24]
0	0x3c10afc1	0.0088309655
1	0x3c27f89e	0.010252146
2	0x3c005e74	0.007835019
3	0x3b969331	0.0045951833
4	0x3ba6e767	0.0050935033
5	0x3be4ff50	0.0069884434
6	0x3c1090b1	0.00882356
7	0x3c1ce92f	0.00957708
8	0x3c10e184	0.00884283
9	0x3b8fb670	0.004385762
10	0x3bc91762	0.0061368207
11	0x3be90086	0.007110658
12	0x3c082444	0.008309428
13	0x3c774b19	0.015093588
14	0x3ba7eb77	0.005124505
15	0x3c5ef1db	0.0136074675
16	0x3be0df35	0.006862546
17	0x3ba5dead	0.0050619454
18	0x3c0726d7	0.008249006
19	0x3bb83c94	0.005622456
20	0x3bddcd8f	0.0067688893
21	0x3bfc2e51	0.007695951
22	0x3c022110	0.007942453
23	0x3b9319dd	0.004489167

dense.1.weight f4 [6, 24]
0	0x3e869dc1	0.26292232
1	0xbec48714	-0.38384306
2	0x3ed885d0	0.4228959
3	0x3ea5a0ec	0.32349336
4	0x3eb95695	0.3619887
5	0x3ed74cb6	0.42050713
6	0x3ed2f839	0.41205004
7	0x3edef064	0.43542778
8	0x3e98358c	0.29728353
9	0x3eb26575	0.3484303
10	0x3eb66d81	0.3563042
11	0xbe8e50bb	-0.27795967
12	0x3ec99238	0.3936937
13	0xbe6b60ad	-0.22986098
14	0x3eb92687	0.36162207
15	0xbe905c21	-0.2819529
16	0xbe9a4898	-0.3013351
17	0xbe9233e3	-0.2855521
18	0x3edb3a7a	0.42818052
19	0xbecff4ba	-0.406164
20	0xbea56f0e	-0.3231129
21	0x3e63d67d	0.2224979
22	0x3e902a74	0.2815739
23	0xbe8462d4	-0.2585665
24	0xbe61c883	-0.22049145
25	0x3e6e6845	0.23281963
26	0xbe636d42	-0.22209647
27	0x3ebe5700	0.3717575
28	0xbe5b0901	-0.21390153
29	0xbe8a0cc0	-0.26962852
30	0x3eb22c5c	0.3479947
31	0xbe70a19e	-0.23499152
32	0xbe6a355a	-0.22871915
33	0xbe5ed067	-0.21759187
34	0x3eb2a081	0.3488808
35	0x3eedb74a	0.464289
36	0xbe60404d	-0.21899529
37	0xbe5c65e3	-0.21523242
38	0x3eac7553	0.3368326
39	0xbe3b7232	-0.18305281
40	0x3e9b1319	0.30288008
41	0xbe791f08	-0.24328244
42	0xbe71955a	-0.2359213
43	0xbe9dc22d	-0.30812207
44	0x3ef5cc90	0.4800763
45	0xbe5b68cd	-0.21426697
46	0xbe58a4f0	-0.21156669
47	0x3ea912d7	0.33022186
48	0xbe442ee9	-0.1915852
49	0x3ec45662	0.38347155
50	0x3ee3c2e3	0.44484624
51	0xbe287a1c	-0.16452831
52	0xbe3e6869	-0.18594517
53	0xbe4124ba	-0.18861666
54	0xbe4557a2	-0.1927171
55	0xbe67c123	-0.2263227
56	0xbe4cc37f	-0.19996451
57	0xbe4539ce	-0.19260332
58	0xbe37f28a	-0.17963615
59	0xbe42585a	-0.18979016
60	0xbe45ffc6	-0.19335851
61	0x3ed61b95	0.41817918
62	0xbe3b9f88	-0.18322575
63	0xbe5dc83d	-0.21658416
64	0x3ebbea22	0.36702067
65	0x3efcd73b	0.49382958
66	0x3ee9f72c	0.4569639
67	0xbe92e071	-0.2868686
68	0xbe80d9f5	-0.25166288
69	0xbe4c45f2	-0.19948557
70	0xbe4beeb5	-0.19915278
71	0xbe42cfc6	-0.19024572
72	0x3f021807	0.5081791
73	0xbeae1baa	-0.3400548
74	0xbe79ce06	-0.24394998
75	0xbe358218	-0.17725408
76	0xbe85b15e	-0.26111883
77	0xbe4fd7aa	-0.20297113
78	0xbe5a368c	-0.2130987
79	0xbe5b7c4e	-0.21434137
80	0x3f047ac1	0.5174981
81	0xbe59bfd1	-0.21264578
82	0xbe32ced5	-0.17461713
83	0xbe7403d9	-0.23829593
84	0xbe6f0086	-0.23340043
85	0x3ef4b4cf	0.47794196
86	0xbe229e56	-0.15880713
87	0x3efa5e19	0.48899916
88	0x3e1c519f	0.15265511
89	0xbe64a7c9	-0.2232963
90	0xbe78a316	-0.24280962
91	0x3ea1fdfe	0.31639093
92	0x3f0531b3	0.5202896
93	0x3f0b9b39	0.54533726
94	0x3f02e1a7	0.5112557
95	0xbdab0f48	-0.08352524
96	0xbe6277d1	-0.22116019
97	0xbe7f7fad	-0.24951048
98	0xbe497631	-0.19673993
99	0xbe2b43f8	-0.16725147
100	0x3ed8a612	0.42314202
101	0xbe666e7a	-0.22503081
102	0xbe2aed97	-0.16692196
103	0xbe64b6a6	-0.223353
104	0xbe637b59	-0.22215022
105	0x3ed6fecf	0.4199128
106	0xbe31cd3d	-0.17363448
107	0x3ef309e3	0.4746848
108	0x3ee31cab	0.4435781
109	0xbe8061b8	-0.25074553
110	0xbe27b290	-0.1637671
111	0x3ed31a6b	0.41231093
112	0xbe7514a7	-0.2393366
113	0x3efbd7b3	0.49188003
114	0xbe7546be	-0.23952767
115	0x3ea78a9f	0.32722947
116	0xbe600b01	-0.21879198
117	0xbe520b56	-0.20512137
118	0xbe6e4ec0	-0.23272228
119	0xbe56d863	-0.20980982
120	0xbe2fe7ca	-0.17178264
121	0x3eb6ab1e	0.35677427
122	0xbe4f7e16	-0.20262942
123	0xbe2dee60	-0.16985464
124	0xbe1a012a	-0.15039507
125	0x3efa4cd3	0.48886737
126	0xbe39cdb6	-0.18144879
127	0x3ef185ac	0.47172296
128	0xbe3c5c9a	-0.183947
129	0xbe2636d3	-0.16231851
130	0xbe3d8c93	-0.18510656
131	0xbe6bd5cf	-0.2303078
132	0xbe416de8	-0.18889582
133	0xbe4ba438	-0.19886863
134	0xbe3ce4a3	-0.18446593
135	0xbe5d5a53	-0.21616487
136	0xbe87051b	-0.26371083
137	0xbe84da9d	-0.2594804
138	0xbe3a2a18	-0.1818012
139	0x3eb6d37a	0.3570822
140	0xbe683367	-0.22675858
141	0xbe3259cf	-0.17417072
142	0xbe36cff0	-0.1785276
143	0x3ed339d2	0.4125505

dense.1.bias f4 [6]
0	0x3c7d65b9	0.015466147
1	0xbd1c8d8a	-0.03822092
2	0xbb02d5af	-0.001996379
3	0x3d7da3de	0.061923854
4	0xbbd2d805	-0.006434443
5	0xbd1cff6b	-0.038329523
