model/2023_1_7_hj_num_2.onnx (onnx, 9460 bytes, 10 tensors)

conv.0.weight f4 [3, 1, 5, 5]
0	0x3d873c13	0.06603255
1	0x3c8c89f9	0.017155634
2	0xbd27f65c	-0.04100643
3	0x3cb3c151	0.021942766
4	0xbc5cdf90	-0.013481036
5	0xbe38f648	-0.18062699
6	0xbdc71775	-0.09721271
7	0x3d3d660e	0.046239905
8	0x3d617607	0.0550442
9	0x3d8d9d53	0.06914773
10	0x3ce72cc3	0.028219586
11	0xbc85c351	-0.016328486
12	0xbb704b29	-0.0036665893
13	0xbd9d9a79	-0.07695479
14	0xb8f2e60c	-0.00011582309
15	0xbcd72fdc	-0.026267938
16	0x3d4046ac	0.046942398
17	0x3e0f6ee2	0.14007142
18	0x3e2c537e	0.16828725
19	0x3dfaea5a	0.1225173
20	0xbcda69f0	-0.026661843
21	0xbd48a3b4	-0.048984244
22	0x3c442b62	0.011973234
23	0xbe0d9fb4	-0.13830453
24	0xbd4114bb	-0.04713891
25	0xbe22bdac	-0.15892667
26	0xbd009ebb	-0.031401377
27	0x3c784939	0.015154176
28	0x3d68defe	0.056853287
29	0x3d217fc2	0.03942848
30	0xbdaa57ca	-0.08317526
31	0xbda9eae0	-0.08296752
32	0xbd9a825b	-0.075443946
33	0x3944224c	0.00018704793
34	0xbd6e7626	-0.058218144
35	0xbdb13d46	-0.08654265
36	0xbd67454c	-0.05646257
37	0x3d070936	0.03296777
38	0x3d2c001e	0.0419923
39	0x3cd795a2	0.026316468
40	0xbbf962cb	-0.007610654
41	0xbc46d892	-0.012136595
42	0xbc9d4903	-0.019199854
43	0xbd896865	-0.06709365
44	0xbe50ca2a	-0.2038962
45	0xbe274eba	-0.16338626
46	0x3cd8ae03	0.026450163
47	0xbdbf38c4	-0.09336999
48	0xbd9e6301	-0.07733727
49	0x3c88672b	0.016650757
50	0x3d9ae4a8	0.07563144
51	0x3dbbd5ac	0.09171614
52	0x3de2fcdf	0.110833876
53	0x3e0c663c	0.13710874
54	0x3dffaa4a	0.12483652
55	0x3c6f85cf	0.014619305
56	0xbcca537a	-0.024698008
57	0xbd1309fc	-0.035898194
58	0xbcf993cc	-0.030465983
59	0xbd526f14	-0.051375464
60	0xbca5c331	-0.020234676
61	0xbdd83462	-0.10556866
62	0xbc831db5	-0.016005376
63	0xbda6d0c3	-0.08145287
64	0xbd61ff28	-0.055174977
65	0x3dcad64a	0.09904154
66	0x3c75987c	0.014989968
67	0x3b873f75	0.0041274377
68	0x3ccd103f	0.02503216
69	0xbd9e159c	-0.077189654
70	0xbdaf9f7f	-0.08575343
71	0x3d1b054d	0.037846852
72	0xbdc2c1f4	-0.0950965
73	0xbd7571cb	-0.059922975
74	0xbd2fc5e2	-0.042913325

conv.0.bias f4 [3]
0	0xbe8e288f	-0.2776532
1	0x3e164f43	0.14678673
2	0xbe551e3a	-0.20812312

conv.5.weight f4 [24, 72]
0	0xbd0806be	-0.033209555
1	0xbcc2b6bb	-0.023768773
2	0xbc00ebf9	-0.00786876
3	0xbd107c78	-0.035274953
4	0xbca8cf75	-0.020606736
5	0x3b7bdecc	0.0038432358
6	0x3d0872c1	0.033312563
7	0xbbbc2c5e	-0.0057425937
8	0x3c72fe7f	0.014831184
9	0x3b781d1e	0.0037859152
10	0x3caa32b8	0.020776138
11	0x3c930170	0.017945021
12	0xbbbd70e0	-0.005781278
13	0xbd17095b	-0.036874156
14	0x3b7cfbb2	0.003860217
15	0xbd11b93e	-0.03557705
16	0xbbe9ae14	-0.0071313474
17	0xbd146f8a	-0.036239184
18	0xbccb0116	-0.024780791
19	0x3cb1f7d4	0.021724619
20	0xbc185931	-0.009298609
21	0x3d109600	0.0352993
22	0x3c2edad4	0.01067229
23	0x3d06c8b8	0.032906264
24	0x3cc34b19	0.02383952
25	0x3bba2478	0.005680617
26	0x3d2c9b28	0.042140156
27	0x3cef1b6f	0.029187886
28	0x3adf2e04	0.0017027264
29	0xbc4707e3	-0.012147876
30	0xbd315e21	-0.04330266
31	0xbcb96ee3	-0.022635883
32	0x3bbb8fc7	0.0057239267
33	0xbc8500f6	-0.01623581
34	0x3c0f8537	0.008759788
35	0xbca96082	-0.020675901
36	0x3d7f2042	0.062286623
37	0xbbbf9064	-0.00584607
38	0x3c996320	0.018724024
39	0x3d0e753c	0.034779772
40	0x3cafaddb	0.021445205
41	0xbc51c332	-0.012802886
42	0xbc3d052b	-0.011536877
43	0x3cd8b624	0.026454039
44	0x3c6e1c4e	0.014533116
45	0xbb99f0af	-0.004697881
46	0xbd3d3f2f	-0.046202835
47	0x3cf4edf5	0.029898623
48	0xbc171512	-0.009221332
49	0xbaeb39f9	-0.0017946354
50	0xbad3fc08	-0.0016173134
51	0x3bf7c670	0.0075614974
52	0xbcfac935	-0.030613521
53	0x3c32ab37	0.010905079
54	0xbccca131	-0.024979206
55	0xbbc7f7a3	-0.0061025186
56	0xbcdd8dc6	-0.027045142
57	0x3c7a5cd5	0.015280922
58	0xbc855d3a	-0.016279805
59	0xbc238e1d	-0.009982613
60	0x3b8a6e98	0.0042246096
61	0x3d868f18	0.06570262
62	0x3cbfe8f8	0.023426518
63	0x3d76fd6f	0.060300287
64	0xbb40185b	-0.0029311392
65	0x3ce30c2a	0.027715761
66	0x3c86f29b	0.016473105
67	0x3c7f3002	0.015575411
68	0x3cac4880	0.021030664
69	0xbc7dee30	-0.015498683
70	0x3cb4d266	0.022072982
71	0xbc25c989	-0.0101188505
72	0x3cd20f35	0.025642017
73	0x3d084844	0.033272043
74	0xbd02cdcc	-0.031934544
75	0x3d35bc15	0.044368822
76	0xbd603b41	-0.05474401
77	0x3c03f2cd	0.008053494
78	0xbd49a698	-0.04923114
79	0xbc90f815	-0.01769642
80	0x3c764f52	0.01503356
81	0xbd0c1c5b	-0.03420673
82	0xbc23f1de	-0.010006396
83	0xbd0f9d29	-0.03506199
84	0x3d46fdc6	0.04858186
85	0x3d3b05b5	0.04565974
86	0x3c5a329d	0.013317731
87	0x3d2ba326	0.041903637
88	0x3cc13aee	0.02358767
89	0x3d5ea61a	0.054357626
90	0x3d01e51d	0.03171264
91	0xbc612a5f	-0.013743012
92	0x3b877e75	0.004134948
93	0xbda5ab1e	-0.08089279
94	0xbd2442f1	-0.040102903
95	0xbbcb93c8	-0.0062126853
96	0xbc9a399d	-0.0188263
97	0x3cb02fed	0.021507228
98	0xbd0f560e	-0.034994178
99	0xbc9b8229	-0.018982964
100	0x3d25a353	0.04043896
101	0xbc3fe591	-0.011712448
102	0x3c7a3303	0.015270951
103	0xbcbc4766	-0.022983264
104	0xbc01fa5e	-0.007933227
105	0x3c83cef7	0.0160899
106	0xbcbae9a3	-0.022816485
107	0xbb5aab33	-0.0033366203
108	0xbd49ba1b	-0.04924975
109	0x3d2317a3	0.039817464
110	0xbd15f925	-0.036614556
111	0xbd1687ab	-0.036750477
112	0xbcec2175	-0.028824547
113	0x3d4c1105	0.04982092
114	0x3d150bbd	0.036388148
115	0xbcfa92d5	-0.030587593
116	0xbcdb223e	-0.026749726
117	0x3d7bb6b7	0.061453547
118	0x3d0c6f60	0.034285903
119	0xbd6ff152	-0.05857975
120	0xbd1f8bd4	-0.03895171
121	0x3d0c651e	0.03427612
122	0xbd0678b8	-0.03282997
123	0x3bc3b46b	0.005972435
124	0x3d3e3098	0.04643306
125	0x3ceed415	0.029153863
126	0xbaacb816	-0.001317742
127	0x3d41ac12	0.04728324
128	0x3c52a6fb	0.012857194
129	0x3d0d9a8c	0.034571216
130	0x3a5d69a6	0.0008446224
131	0x3d0969f8	0.033548325
132	0x3cc0d545	0.023539195
133	0xbd741dcd	-0.059598733
134	0x3c8af787	0.016963733
135	0xbcddddbf	-0.027083276
136	0x3c6e87b4	0.014558721
137	0x3af7c36b	0.0018902844
138	0xbd062af3	-0.032755803
139	0xbda1f5ac	-0.07908186
140	0xbd38bf5a	-0.045104362
141	0x3a2b145d	0.00065261667
142	0xbcb08efc	-0.021552555
143	0xb787e73a	-1.6200927e-05
144	0xbc977db1	-0.018492552
145	0xbd3241a9	-0.04351965
146	0xbc8dc4c7	-0.017305745
147	0xbd89d816	-0.06730668
148	0xbc9a28f3	-0.018818354
149	0xbcdeba3c	-0.027188413
150	0x3ce9e246	0.028550278
151	0xbcbd737b	-0.023126354
152	0x3ce037e6	0.027370404
153	0xbcde3cc6	-0.027128588
154	0xbc25da75	-0.010122885
155	0x3a13c000	0.0005636215
156	0xbcf9f060	-0.030510128
157	0x3d662d72	0.056195684
158	0x3c341e73	0.010993588
159	0x3cfdb42e	0.030969705
160	0x3bae3c3c	0.005317239
161	0x3d7f50b2	0.062332816
162	0xbd3248fc	-0.043526635
163	0xbcb58b46	-0.022161137
164	0xbd52f362	-0.05150164
165	0xbc9b053c	-0.018923394
166	0x3c7f748f	0.015591755
167	0x3c6aa258	0.014320932
168	0x3cadb3d8	0.02120392
169	0xbd6e7495	-0.05821665
170	0x3cca7635	0.024714569
171	0xb9ea2643	-0.00044660465
172	0xbcb62a4f	-0.022236971
173	0xbcfce01b	-0.03086858
174	0xbd45c88c	-0.04828696
175	0x3cc66551	0.024218233
176	0x3d28ab63	0.041179072
177	0x3a55b901	0.0008152873
178	0x3cb555d0	0.022135645
179	0x3d55b649	0.052175794
180	0x3d0bf034	0.034164622
181	0xbd876bac	-0.06612334
182	0xbcf189d4	-0.029484667
183	0xbc4b501d	-0.012409237
184	0xbc098679	-0.008393877
185	0xbd8afa02	-0.067859665
186	0xbcc67ca0	-0.024229348
187	0x3bb2d4cf	0.0054574977
188	0x3c8c725c	0.017144375
189	0xbd73097e	-0.059335224
190	0xbd589514	-0.052876547
191	0xbd12b20b	-0.035814326
192	0x3d94e6c0	0.072705746
193	0xbd758aa5	-0.059946675
194	0x3d9a6080	0.07537937
195	0xbd3ab737	-0.045584884
196	0x3c93ddb5	0.018050054
197	0xbc92d877	-0.017925484
198	0x3cd58617	0.026064916
199	0xbd06e3cf	-0.0329321
200	0x3c65abae	0.014017982
201	0x3cbde966	0.023182582
202	0xbb2b3844	-0.0026126066
203	0xbd28006f	-0.04101604
204	0x3ce60b7c	0.028081648
205	0xbc410bce	-0.0117826
206	0x3a96d156	0.0011506479
207	0xbca6618b	-0.020310184
208	0x3b1f5fd9	0.0024318604
209	0xbcf4d8bc	-0.029888503
210	0x3d2281b2	0.03967447
211	0x3c5fb959	0.01365503
212	0xbc8bb280	-0.017052889
213	0xbcf2b85d	-0.029628927
214	0x3c878d22	0.01654679
215	0xbcbcdc90	-0.023054391
216	0x3b1fc317	0.0024377757
217	0x3d2ab3d9	0.041675422
218	0xbc21bee1	-0.009872169
219	0x3ccc3e45	0.024932036
220	0xbd15e660	-0.036596656
221	0x3d97d01e	0.07412742
222	0x3d174b3a	0.036936976
223	0x3c84b80c	0.016201042
224	0xbca15fe7	-0.01969905
225	0xbc44ae9c	-0.012004521
226	0xbc410ffd	-0.011783597
227	0xbbda65e0	-0.0066649765
228	0x3b72b886	0.0037036254
229	0x3c95880b	0.018253347
230	0x3c6fbc16	0.0146322455
231	0x3ba753cb	0.0051064244
232	0x3a83f7b4	0.0010068328
233	0xbcd33e46	-0.02578653
234	0xbc873316	-0.016503852
235	0x3c91f40f	0.017816572
236	0xbad6b94e	-0.0016382129
237	0x3d23e9e6	0.040017985
238	0x3c59d9e3	0.013296577
239	0xbceb317d	-0.028710121
240	0xbb055c02	-0.002034903
241	0xbcd3d568	-0.025858596
242	0xbc72e018	-0.014823936
243	0xbc9b692c	-0.018971048
244	0xbd06a003	-0.032867443
245	0xbba74947	-0.005105171
246	0xbd8cb12f	-0.068697326
247	0x3cf0cd33	0.029394722
248	0x3b99c9cb	0.004693245
249	0x3cfba720	0.03071934
250	0xbbfecd6e	-0.007775954
251	0x3d178224	0.036989346
252	0xbcdb5a46	-0.026776444
253	0x3b9819ff	0.004641771
254	0x3bdb1dbf	0.0066868956
255	0x3c88ddf5	0.0167074

conv.5.bias f4 [24]
0	0x3c0b0ed7	0.008487425
1	0xbc36f069	-0.011165717
2	0x3d95673d	0.07295082
3	0x3cebeb39	0.028798686
4	0x3d9adfe9	0.07562239
5	0x3d8fb241	0.07016421
6	0x3cd681c9	0.026184933
7	0x3d904340	0.07044077
8	0x3bf65ac8	0.007518146
9	0x3d761b09	0.060084376
10	0x3cd297c2	0.02570713
11	0xbcead030	-0.028663725
12	0x3d8e872d	0.069593765
13	0xbd5aaf1f	-0.053389665
14	0x3d093ad8	0.033503383
15	0xbd7f5781	-0.06233931
16	0xbd2e7e41	-0.042600874
17	0xbbf01050	-0.0073261634
18	0x3d9984ee	0.074960575
19	0xbce91355	-0.028451601
20	0xbd751456	-0.059833847
21	0xbd2561c8	-0.040376455
22	0xb98e73f8	-0.00027170754
23	0xbd59e92e	-0.053200893

BN.weight f4 [24]
0	0x3f27f98e	0.65615165
1	0x3f589b27	0.84611744
2	0x3f3c2a8b	0.73502415
3	0x3f283e8d	0.65720445
4	0x3f37ae5b	0.7175042
5	0x3f52286e	0.8209294
6	0x3f259f3b	0.6469609
7	0x3f4fe57f	0.8120956
8	0x3f304bdc	0.6886575
9	0x3f2c46d4	0.67295575
10	0x3f22d744	0.6360972
11	0x3f397a7d	0.7245253
12	0x3f33ff05	0.70311004
13	0x3f4b6e71	0.79465395
14	0x3f317441	0.69318014
15	0x3f41d8d5	0.75721484
16	0x3f391fee	0.72314346
17	0x3f4ef885	0.8084796
18	0x3f418d88	0.75606585
19	0x3f46458a	0.7744986
20	0x3f36d01a	0.7141129
21	0x3f30f4a2	0.6912328
22	0x3f2e241a	0.68023837
23	0x3f493455	0.7859548

BN.bias f4 [24]
0	0x3edb06c9	0.42778614
1	0x3ed3d1db	0.41371045
2	0x3ecc884d	0.3994774
3	0x3eb0aa44	0.34504902
4	0x3ea753db	0.32681164
5	0x3efa1118	0.48841166
6	0x3eb48f98	0.35265803
7	0x3efdc854	0.495669
8	0x3edd55d1	0.43229535
9	0x3eb27388	0.34853768
10	0x3eaa5037	0.33264324
11	0x3eac6527	0.33670923
12	0x3ea9cade	0.33162588
13	0x3ed5081a	0.41607744
14	0x3eb1ea6f	0.3474917
15	0x3ebf9993	0.37421855
16	0x3ec5845a	0.3857754
17	0x3e9ea43c	0.30984676
18	0x3eb8da3f	0.3610401
19	0x3edc42f2	0.43019825
20	0x3ed24fdf	0.41076562
21	0x3ee03807	0.43792745
22	0x3eda8927	0.42682764
23	0x3ee601eb	0.44923338

BN.running_mean f4 [24]
0	0x3d36353e	0.04448437
1	0xbcfcbae7	-0.03085084
2	0xbc2c3f67	-0.010513163
3	0x3c0d4bb8	0.00862401
4	0xbc9336f9	-0.017970549
5	0x3cabbae5	0.020963142
6	0x3c4b0c26	0.012393033
7	0x3c7be9d6	0.015375575
8	0x3c683e93	0.014175075
9	0xbbe59299	-0.007006001
10	0x3c678909	0.014131793
11	0x3c2c7ea6	0.010528242
12	0xbcada66b	-0.021197518
13	0xbc875195	-0.016518394
14	0x3c1bf354	0.009518463
15	0x3c2d3b1c	0.010573175
16	0x3aba79c7	0.0014226966
17	0xbc577924	-0.013151441
18	0x3c953e83	0.018218284
19	0xbc4c4e72	-0.012469875
20	0x3cde887d	0.027164692
21	0x3ba59c61	0.005054042
22	0x35884bcd	1.015485e-06
23	0x3ba71550	0.005098976

BN.running_var f4 [24]
0	0x3b6ade3a	0.0035838024
1	0x3b40a01e	0.0029392312
2	0x3b33b3ad	0.0027420328
3	0x3b162675	0.0022911106
4	0x3b639e4b	0.00347318
5	0x3b792fb7	0.0038022825
6	0x3b15a302	0.0022832756
7	0x3b89acaf	0.0042014937
8	0x3b24f492	0.002517019
9	0x3b2c5d17	0.0026300603
10	0x3b182c55	0.0023219783
11	0x3b37d45a	0.0028050155
12	0x3b69573a	0.003560497
13	0x3b8d1ea8	0.004306633
14	0x3b1ac1bc	0.002361401
15	0x3b6975fa	0.0035623298
16	0x3b2a15d3	0.002595295
17	0x3b2f912a	0.0026789405
18	0x3b22a8e9	0.0024819917
19	0x3af32801	0.0018551351
20	0x3b5ed442	0.0034001027
21	0x3b27b441	0.0025589617
22	0x3b23ff26	0.0025023906
23	0x3b08a531	0.0020850415

dense.1.weight f4 [6, 24]
0	0x3eb12740	0.34600258
1	0xbecf6204	-0.40504467
2	0x3edbc12e	0.42920822
3	0x3ebce53c	0.36893642
4	0x3ed87004	0.4227296
5	0x3eea20eb	0.4572824
6	0x3eb913f9	0.3614805
7	0x3ee37c69	0.44430855
8	0x3ec3797c	0.38178623
9	0x3ecdd096	0.401982
10	0x3eb5e58b	0.3552669
11	0xbe3201d6	-0.17383513
12	0x3ecb60cd	0.3972229
13	0xbe852bdb	-0.26010022
14	0x3ec36c6a	0.3816865
15	0xbe8391a8	-0.25697064
16	0xbebca540	-0.36844826
17	0xbe7f6a42	-0.24942878
18	0x3ed81cf0	0.42209578
19	0xbed05b2b	-0.40694556
20	0xbec3186a	-0.38104564
21	0x3eba3e4f	0.36375663
22	0x3ea61b16	0.3244254
23	0xbee2f623	-0.44328412
24	0xbe6a8f8d	-0.22906323
25	0x3e85d4fe	0.26139063
26	0xbe7a8a62	-0.24466851
27	0x3ef502f4	0.47853816
28	0xbe64b2b0	-0.22333789
29	0xbe9b03ee	-0.30276436
30	0x3ef5fb70	0.48043394
31	0xbe947d33	-0.2900177
32	0xbe6ec272	-0.23316363
33	0xbe62479c	-0.2209763
34	0x3eeee8ba	0.4666193
35	0x3eefb888	0.46820474
36	0xbe70a294	-0.23499519
37	0xbe8dcbd7	-0.2769458
38	0x3efe8f93	0.49718913
39	0xbe808efb	-0.25109085
40	0x3e949462	0.29019457
41	0xbe8204a8	-0.25394177
42	0xbe832dd3	-0.256209
43	0xbeaff39d	-0.3436555
44	0x3eb91cfd	0.3615493
45	0xbe7c8b55	-0.24662526
46	0xbe69e326	-0.22840557
47	0x3e917b9c	0.2841462
48	0xbe5af8cf	-0.21383975
49	0x3ed19589	0.409344
50	0x3f0b740d	0.54473954
51	0xbe48830f	-0.19581245
52	0xbe4c786c	-0.19967812
53	0xbe8836a6	-0.26604193
54	0xbe5031b9	-0.20331468
55	0xbe8586aa	-0.26079303
56	0xbe666343	-0.22498803
57	0xbe44ad80	-0.1920681
58	0xbe4763c2	-0.19471648
59	0xbe7430fb	-0.2384681
60	0xbe449e25	-0.19200952
61	0x3f072bb7	0.5280108
62	0xbe57a566	-0.21059188
63	0xbe670621	-0.22560932
64	0x3eb45d16	0.3522727
65	0x3f09fcdb	0.5390145
66	0x3f08fd94	0.5351193
67	0xbe8d8e39	-0.2764757
68	0xbe9de88a	-0.30841476
69	0xbe615ca1	-0.22007991
70	0xbe608f60	-0.21929693
71	0xbea27096	-0.3172652
72	0x3f0b66cc	0.5445373
73	0xbec88034	-0.3916031
74	0xbe8f485f	-0.27984902
75	0xbe7af9f3	-0.2450941
76	0xbe8b51d3	-0.27210864
77	0xbe8cd6df	-0.27507684
78	0xbe7c9222	-0.2466512
79	0xbe8db10c	-0.2767414
80	0x3f0d44ad	0.55182916
81	0xbe85444d	-0.26028672
82	0xbe6bcf43	-0.23028283
83	0xbe852cd4	-0.26010764
84	0xbe846bcc	-0.25863492
85	0x3f01b679	0.50669056
86	0xbe813e3e	-0.252428
87	0x3f030329	0.51176697
88	0x3eb51845	0.3537008
89	0xbe767fac	-0.2407214
90	0xbe87e2c2	-0.2654019
91	0x3e1bf402	0.152298
92	0x3eb57fee	0.35449165
93	0x3f11b992	0.5692378
94	0x3f13a815	0.5767835
95	0x3eb4ad2c	0.3528837
96	0xbe6f28a3	-0.23355345
97	0xbeade2d3	-0.33962116
98	0xbe5c5b4f	-0.21519206
99	0xbe4925ef	-0.19643377
100	0x3ef7dac4	0.48409092
101	0xbe84cfae	-0.25939697
102	0xbe473955	-0.19455464
103	0xbe8419ce	-0.25800937
104	0xbe7a0c8c	-0.24418849
105	0x3eee7e1b	0.46580586
106	0xbe4a0a26	-0.19730434
107	0x3ee85150	0.45374537
108	0x3efb9f34	0.491449
109	0xbe89ab67	-0.26888582
110	0xbe4f00c6	-0.20215139
111	0x3ee994db	0.4562138
112	0xbe9d322b	-0.30702338
113	0x3ee9213f	0.45533177
114	0xbe6a210b	-0.22864167
115	0x3eb3eb43	0.35140428
116	0x3e991a47	0.2990286
117	0xbe752e33	-0.23943405
118	0xbe734ca7	-0.2375971
119	0xbead7f63	-0.3388625
120	0xbe66199b	-0.22470705
121	0x3eec8423	0.46194562
122	0xbe604723	-0.21902137
123	0xbe623726	-0.2209135
124	0xbe5d57c9	-0.21615519
125	0x3f237c4a	0.63861525
126	0xbe5a958e	-0.21346113
127	0x3f267cd2	0.6503421
128	0xbe7048cf	-0.23465274
129	0xbe5756d6	-0.21029219
130	0xbe4e5f37	-0.20153509
131	0xbe80ec35	-0.25180212
132	0xbe587fdd	-0.21142526
133	0xbe6cf73b	-0.23141186
134	0xbe7081a0	-0.23486948
135	0xbe7e7d2f	-0.24852441
136	0xbea72cc3	-0.32651338
137	0xbe858a39	-0.26082018
138	0xbe5e98e0	-0.21738005
139	0x3f070984	0.52748895
140	0xbea7359c	-0.32658088
141	0xbe76217f	-0.24036215
142	0xbe64835e	-0.22315738
143	0x3ee72ddf	0.45152184

dense.1.bias f4 [6]
0	0x3d2cef86	0.042220615
1	0xbd78aea6	-0.060713433
2	0xbc37eeda	-0.01122638
3	0x3cab2e56	0.020896118
4	0xbd0bc017	-0.034118738
5	0x3d0f7e5d	0.03503262
