model/2023_4_20_hj_num_1.onnx (onnx, 133782 bytes, 29 tensors)

block_neck1.block_neck.0.weight f4 [3, 1, 1, 1]
0.57773864 0.2056157 -0.58026516
00000000: aee6 133f ec8c 523e 428c 14bf

block_neck1.block_neck.1.weight f4 [3, 1, 3, 3]
-0.27671954 -0.07034682 -0.25571758 -0.3767666 -0.07867434 0.058090027 -0.45991787 0.028406532
0.15785939 0.10781768 0.004463042 -0.16947357 -0.2495103 0.13919549 -0.40268305 0.365449
0.25704625 -0.16871262 0.052098755 -0.09534103 -0.18705216 0.2816016 0.091451235 0.3172941
-0.087574184 0.15554425 0.3862183
00000000: 2fae 8dbe fe11 90bd 6aed 82be 8de7 c0be
00000010: 0320 a1bd cfef 6d3d 5b7a ebbe d1b4 e83c
00000020: e4a5 213e 84cf dc3d b63e 923b 7b8a 2dbe
00000030: a17f 7fbe 4389 0e3e 792c cebe 221c bb3e
00000040: 919b 833e 00c3 2cbe 8165 553d 2842 c3bd
00000050: 9a8a 3fbe 162e 903e c94a bb3d 5f74 a23e
00000060: 185a b3bd fe46 1f3e 68be c53e

block_neck2.block_neck.0.weight f4 [16, 1, 1, 1]
-0.25922427 -0.63589644 -0.33665514 0.32723987 -0.4835025 0.35924006 0.6162011 0.5909772
-0.26970077 -0.23801027 -0.530542 0.20878622 0.45411032 0.3780994 0.46612838 -0.57234585
00000000: 0bb9 84be 1cca 22bf 105e acbe fc8b a73e
00000010: a48d f7be 50ee b73e 5bbf 1d3f 484a 173f
00000020: 3816 8abe f7b8 73be 9ad1 07bf 0ecc 553e
00000030: 2681 e83e 3f96 c13e 61a8 ee3e 4285 12bf

block_neck2.block_neck.1.weight f4 [16, 1, 3, 3]
-0.14225933 -0.3808385 -0.25756648 -0.23991291 -0.25196186 -0.026672212 0.01558231 -0.42315692
0.10529588 0.006332255 -0.21603778 0.037671052 -0.012695037 0.21256976 0.31558448 0.4797983
0.24975379 -0.18659976 0.14970641 0.23379862 0.16299863 -0.20874417 0.013862508 -0.5320688
0.36383754 -0.034106985 -0.30001816 -0.2682893 0.39230075 0.23821768 -0.24947867 0.011761931
-0.0013179319 -0.24440342 0.284833 -0.14974032 -0.31593296 -0.145768 0.047326066 -0.19474296
-0.007665242 0.043848135 -0.32612228 -0.2386884 -0.11771011 0.3457971 0.057757534 -0.3663909
-0.09070278 -0.11417149 -0.09262874 0.06638652 -0.13594213 -0.41490898 -0.20871489 -0.3248565
-0.46024066 -0.04785204 0.08411019 -0.088751346 0.04152859 0.32071257 0.388564 -0.10057934
-0.0005404686 0.075727075 -0.71186006 -0.15267642 0.10638737 -0.13726935 -0.20186561 0.20057231
0.089828946 0.34352952 0.24286069 0.2520596 0.049026433 0.39494073 -0.43994573 0.17430638
0.013824125 0.38159865 0.33673796 0.13091531 0.047633205 -0.046592634 0.378609 -0.12152013
-0.2741922 -0.2059967 0.08088816 0.0022663013 0.11951784 0.00699551 -0.1522877 0.15437776
-0.44472572 -0.27152842 -0.48282352 0.13688341 0.19973539 -0.17946585 0.24968185 0.16765782
-0.03813451 0.07506671 0.4253719 0.36304247 0.2545733 -0.07309346 0.040915977 0.32742363
0.16264044 0.26507425 0.5782354 0.05925936 0.21604162 -0.1000553 0.33806548 0.24893972
-0.10038508 -0.029059064 0.2738161 -0.35513887 -0.06471259 -0.13326919 0.06480674 0.10926756
0.06741662 0.05153482 -0.021958092 0.37576497 -0.0648659 -0.44880635 -0.35240033 0.120541126
0.20573157 0.39446357 -0.18910886 0.16068842 0.25373384 0.016979482 0.17394875 0.28683543
00000000: 6eac 11be 44fd c2be c1df 83be bbab 75be
00000010: 2501 81be af7f dabc f24c 7f3c 06a8 d8be
00000020: 5ea5 d73d ce7e cf3b 0239 5dbe f64c 1a3d
00000030: d8fe 4fbc e3ab 593e 4a94 a13e 1fa8 f53e
00000040: 75bf 7f3e 0214 3fbe a34c 193e e868 6f3e
00000050: 1de9 263e 08c1 55be 931f 633c a935 08bf
00000060: ea48 ba3e c4b3 0bbd fb9b 99be 375d 89be
00000070: a5db c83e 56ef 733e 5677 7fbe 1db5 403c
00000080: 75be acba e444 7abe a2d5 913e 8755 19be
00000090: f7c1 a1be 3544 15be fad8 413d b36a 47be
000000a0: b62c fbbb 1a9a 333d 80f9 a6be bb6a 74be
000000b0: 0012 f1bd 510c b13e 2a93 6c3d 9797 bbbe
000000c0: 61c2 b9bd bed2 e9bd 23b4 bdbd a8f5 873d
000000d0: 6a34 0bbe f36e d4be 5bb9 55be 9753 a6be
000000e0: aaa4 ebbe 8000 44bd f741 ac3d 44c3 b5bd
000000f0: e219 2a3d 7034 a43e dcf1 c63e 8afc cdbd
00000100: 3cae 0dba cc16 9b3d 763c 36bf 3557 1cbe
00000110: 9fe1 d93d 5690 0cbe dcb5 4ebe d462 4d3e
00000120: 3df8 b73d 1ae3 af3e 79b0 783e f50d 813e
00000130: f1cf 483d ac35 ca3e 9140 e1be 5f7d 323e
00000140: 957e 623c e660 c33e eb68 ac3e aa0e 063e
00000150: 091b 433d ebd7 3ebd 0ad9 c13e 8cdf f8bd
00000160: ec62 8cbe cdf0 52be b1a8 a53d 3a86 143b
00000170: c5c5 f43d 973a e53b 4ff1 1bbe 3415 1e3e
00000180: 17b3 e3be c605 8bbe a534 f7be 2a2b 0c3e
00000190: 6f87 4c3e e5c5 37be 99ac 7f3e 7eae 2b3e
000001a0: ef32 1cbd 93bc 993d 58ca d93e b4e0 b93e
000001b0: 6e57 823e 06b2 95bd 8397 273d 12a4 a73e
000001c0: 378b 263e d0b7 873e 3c07 143f f1b9 723d
000001d0: 043a 5d3e cbe9 ccbd eb16 ad3e 0eea 7e3e
000001e0: b196 cdbd 460d eebc a031 8c3e c3d4 b5be
000001f0: 0988 84bd b877 08be 65b9 843d acc7 df3d
00000200: ba11 8a3d 2d16 533d 75e1 b3bc 4464 c03e
00000210: 6ad8 84bd f2c9 e5be d16d b4be 44de f63d
00000220: 4cab 523e 21f7 c93e c1a5 41be 818b 243e
00000230: 67e9 813e 8e18 8b3c 9f1f 323e 18dc 923e

block_neck3.block_neck.0.weight f4 [32, 1, 1, 1]
-0.49435595 0.344664 -0.21250522 -0.6592231 0.43860742 -0.57362264 0.34281746 0.23218767
-0.49628288 -0.3742256 -0.25003642 -0.5131176 -0.50163597 -0.47166872 -0.26155704 -0.70884573
-0.4341014 -0.45975718 0.7169656 0.6063306 -0.20705728 -0.3594343 -0.301754 0.39885977
0.32114428 0.3406212 0.34745225 -0.2783733 0.32284397 0.30241784 0.48069152 0.42189986
00000000: 391c fdbe cd77 b03e f89a 59be d8c2 28bf
00000010: 2791 e03e efd8 12bf c585 af3e 9bc2 6d3e
00000020: ca18 febe 7f9a bfbe c604 80be ad5b 03bf
00000030: 376b 00bf 907e f1be ceea 85be ea76 35bf
00000040: 8a42 debe 4b65 ebbe 0f8b 373f 7b38 1b3f
00000050: d306 54be c607 b8be 807f 9abe 5937 cc3e
00000060: 066d a43e e765 ae3e 43e5 b13e f286 8ebe
00000070: ce4b a53e 83d6 9a3e 331d f63e 4203 d83e

block_neck3.block_neck.1.weight f4 [32, 1, 3, 3]
-0.100380614 -0.29679957 0.21110539 -0.0054569477 -0.17152718 -0.3664558 0.057810858 -0.2026624
-0.25956845 0.14800271 0.1553004 -0.091727905 -0.09982916 -0.15195183 -0.28645444 -0.2112058
-0.022323003 0.18475547 0.09578144 -0.0528737 -0.06272573 -0.022967426 0.14034994 0.013552056
-0.34924638 0.3336681 0.35170832 0.2797903 -0.036682263 -0.45098215 0.06698697 -0.09580834
-0.16874781 0.18963563 -0.29000336 -0.2616558 -0.1467122 -0.5696305 -0.19214115 0.013527591
-0.27226496 0.48842084 -0.11405637 -0.034656793 -0.2293922 -0.3413728 -0.47201398 0.10246843
0.1298758 -0.21848956 -0.022266869 -0.096705444 -0.26820704 0.069296144 -0.42213258 0.30584607
0.32035634 -0.061144568 0.13382193 -0.19866529 0.40457386 -0.08242827 -0.11233673 0.12975183
-0.062192343 0.6103351 -0.029269896 0.042363115 0.30058286 0.11073092 -0.40967432 -0.035809416
-0.09522253 -0.047330886 0.45222697 -0.008656328 -0.10186231 0.11670092 0.5172946 -0.04221389
-0.4021869 -0.10175351 -0.07527428 -0.05159713 0.07050015 -0.053729374 0.12831998 0.37356877
0.52643615 0.18572277 0.22603095 -0.023074998 0.11109308 0.07503477 0.053138502 -0.40403345
0.41440043 0.12654454 -0.41206515 0.0059133233 0.08230185 0.121147975 -0.49757805 -0.11884073
0.06652275 -0.24462925 0.21995664 -0.09994917 0.3014095 0.07285608 -0.16810095 -0.3218135
-0.22071072 -0.13683255 0.07950729 -0.24647178 -0.26167965 -0.23870407 0.08097521 0.48857096
-0.4372125 -0.20652185 0.37713823 -0.16112556 0.058068827 0.19807248 -0.21402559 -0.23199469
-0.3306443 -0.58069587 -0.45055166 0.13606857 0.048771817 -0.16870579 -0.061492365 0.22778699
0.14253038 -0.21133031 0.34692875 0.06682665 -0.505015 0.18177108 -0.05334352 -0.27338934
-0.059099685 -0.028320976 -0.2838 -0.22784063 -0.024640827 0.049397558 0.20543393 0.00535726
0.31907973 -0.23279452 0.0109487 0.26723748 0.02759502 -0.0907889 0.25230184 -0.09321546
-0.44992957 0.006794574 -0.028573593 0.21981089 -0.24444011 0.23066719 0.30457556 0.28125674
-0.35997385 0.13477127 0.3592759 -0.20271236 -0.0794031 -0.23064002 0.0022821836 -0.1578923
-0.27716556 -0.074129134 0.47402683 0.13678688 -0.33364907 -0.3295295 0.049484257 -0.12171099
-0.27401096 -0.12163474 0.21128643 -0.10567652 -0.34501743 0.009514042 -0.09447189 -0.15913871
-0.34169748 -0.16088125 -0.110777 -0.24258135 -0.1126914 0.38739318 -0.40859282 -0.20529349
-0.34226224 0.014890406 0.22464465 -0.030628912 0.28574747 0.1912589 0.22979039 -0.109082215
-0.15100427 0.5204508 -0.002157665 -0.3234683 0.18630894 0.019798547 0.27305758 0.39719045
0.2646348 -0.1175839 -0.09724939 0.13329796 0.1874395 0.7002401 -0.16329597 -0.37418598
-0.038434815 -0.15210511 -0.29953822 -0.2639274 0.3735222 0.057815477 -0.14753273 0.16715914
-0.051845357 0.35207984 -0.22296563 -0.3064177 -0.28860563 -0.2851696 0.19429581 0.4889339
-0.06259559 -0.05737965 -0.04001306 0.5180324 -0.064486206 -0.09914192 -0.0042741816 -0.2861813
0.38914388 0.26335898 0.06642647 0.16187109 -0.10279227 -0.051371906 0.28617957 -0.3061271
00000000: 5a94 cdbd 1df6 97be 032c 583e 32d0 b2bb
00000010: d2a4 2fbe 18a0 bbbe 14cb 6c3d bb86 4fbe
00000020: 28e6 84be 068e 173e 1107 1f3e d7db bbbd
00000030: 3b73 ccbd 4399 1bbe 28aa 92be 5546 58be
00000040: bbde b6bc 8a30 3d3e 0f29 c43d 1892 58bd
00000050: 5976 80bd 2f26 bcbc e5b7 0f3e 7109 5e3c
00000060: 6cd0 b2be 8cd6 aa3e 1d13 b43e ad40 8f3e
00000070: 2440 16bd 22e7 e6be 7730 893d 2a37 c4bd
00000080: 3acc 2cbe d82f 423e 527b 94be c0f7 85be
00000090: b93b 16be 4ed3 11bf a6c0 44be d4a2 5d3c
000000a0: 5066 8bbe 4c12 fa3e 6396 e9bd 48f4 0dbd
000000b0: cae5 6abe 6ac8 aebe d1ab f1be f8da d13d
000000c0: 29fe 043e babb 5fbe 0269 b6bc 810d c6bd
000000d0: 6f52 89be 23eb 8d3d c321 d8be db97 9c3e
000000e0: bf05 a43e ba72 7abd 9e08 093e ea6e 4bbe
000000f0: 4e24 cf3e 27d0 a8bd cd10 e6bd aadd 043e
00000100: 66bd 7ebd ec3e 1c3f 6cc7 efbc f284 2d3d
00000110: ffe5 993e e5c6 e23d d5c0 d1be e5ac 12bd
00000120: 0804 c3bd 08de 41bd 4b8a e73e 45d3 0dbc
00000130: 309d d0bd e400 ef3d 6b6d 043f 79e8 2cbd
00000140: 71eb cdbe 2564 d0bd 6729 9abd 8357 53bd
00000150: 6262 903d 5513 5cbd 5066 033e 6844 bf3e
00000160: 85c4 063f 1c2e 3e3e a874 673e c707 bdbc
00000170: c584 e33d d4ab 993d c2a7 593d 79dd cebe
00000180: 4b2c d43e e494 013e 34fa d2be 8dc4 c13b
00000190: df8d a83d 6e1c f83d 8dc2 febe c562 f3bd
000001a0: 143d 883d 1780 7abe 503c 613e 27b2 ccbd
000001b0: 5952 9a3e 9235 953d a822 2cbe bdc4 a4be
000001c0: fe01 62be d51d 0cbe b8d4 a23d 1963 7cbe
000001d0: e0fa 85be d76e 74be 55d6 a53d f925 fa3e
000001e0: 51da dfbe 777a 53be 4318 c13e 19fe 24be
000001f0: 94d9 6d3d 83d3 4a3e 8629 5bbe 0490 6dbe
00000200: 364a a9be 7ca8 14bf b5ae e6be 8f55 0b3e
00000210: f5c4 473d 36c1 2cbe 6bdf 7bbd fe40 693e
00000220: 7cf3 113e f966 58be a5a0 b13e 69dc 883d
00000230: aa48 01bf 3322 3a3e bc7e 5abd b0f9 8bbe
00000240: 8312 72bd 6401 e8bc 3c4e 91be 0e4f 69be
00000250: 8fdb c9bc 1855 4a3d 465d 523e f48b af3b
00000260: 6b5e a33e b061 6ebe 2d62 333c 5ad3 883e
00000270: f40e e23c 88ef b9bd b52d 813e bfe7 bebd
00000280: 2b5d e6be 05a5 de3b 2b13 eabc 1b16 613e
00000290: 824e 7abe 0534 6c3e 54f1 9b3e e200 903e
000002a0: 7e4e b8be 7b01 0a3e 03f3 b73e d493 4fbe
000002b0: 189e a2bd e62c 6cbe b090 153b 85ae 21be
000002c0: a5e8 8dbe 04d1 97bd a5b3 f23e dc11 0c3e
000002d0: 0dd4 aabe 17b8 a8be 01b0 4a3d 9d43 f9bd
000002e0: 2a4b 8cbe a21b f9bd 785b 583e ee6c d8bd
000002f0: 20a6 b0be c9e0 1b3c 7a7a c1bd 42f5 22be
00000300: f9f2 aebe 0ebe 24be 0ddf e2bd 3f67 78be
00000310: c0ca e6bd 6658 c63e 1433 d1be 7538 52be
00000320: ff3c afbe e4f6 733c 3f09 663e 7ce9 fabc
00000330: 7e4d 923e 60d9 433e 2c4e 6b3e 7f66 dfbd
00000340: dda0 1abe 433c 053f 9d67 0dbb a39d a5be
00000350: c5c7 3e3e 9030 a23c 34ce 8b3e 8c5c cb3e
00000360: 367e 873e d4cf f0bd b02a c7bd 437f 083e
00000370: 24f0 3f3e ef42 333f 0f37 27be 4e95 bfbe
00000380: d36d 1dbd 71c1 1bbe 135d 99be 7e21 87be
00000390: 4d3e bf3e eccf 6c3d d212 17be c42b 2b3e
000003a0: cc5b 54bd cf43 b43e 1a51 64be c8e2 9cbe
000003b0: 1ec4 93be c001 92be 7bf5 463e 8b55 fa3e
000003c0: 1e32 80bd ed06 6bbd bce4 23bd c59d 043f
000003d0: 5811 84bd eb0a cbbd 6f0e 8cbb 5b86 92be
000003e0: de3d c73e fdd6 863e 9a0a 883d 89c1 253e
000003f0: c184 d2bd 596b 52bd 2186 923e b1bc 9cbe

onnx::Conv_126 f4 [3, 1, 3, 3]
-0.3490851 0.4605176 0.22046839 0.12218281 0.6882676 -0.24594349 0.32598397 0.6446818
-0.44118923 0.79195005 0.36637822 0.7363813 0.20888208 0.048483856 0.1355876 -0.14671922
-0.027184077 0.2380437 -0.2569309 0.11548506 0.11478008 0.057580758 0.1107233 0.400264
0.19008344 0.24164748 0.3687242
00000000: 48bb b2be f6c8 eb3e 77c2 613e fb3a fa3d
00000010: 4e32 303f 9cd8 7bbe 5fe7 a63e de09 253f
00000020: 8ee3 e1be 3dbd 4a3f ed95 bb3e 7c83 3c3f
00000030: 2fe5 553e 0297 463d 7ad7 0a3e 903d 16be
00000040: 24b1 debc bac1 733e 728c 83be 6e83 ec3d
00000050: d211 eb3d cdd9 6b3d e6c2 e23d 67ef cc3e
00000060: 3ca5 423e 7072 773e 6bc9 bc3e

onnx::Conv_127 f4 [3]
-0.6236595 -0.80300325 -0.23900051
00000000: 26a8 1fbf 9f91 4dbf 8dbc 74be

onnx::Conv_129 f4 [16, 3, 1, 1]
2.4324899 -2.4950614 -2.7151859 -2.56046 1.5104079 0.832868 1.2538632 -1.7025818
2.174892 -2.8849535 -2.1400313 1.2184432 -0.07922944 -12.818001 1.9233909 -2.7518167
1.1477278 1.7029182 -2.8875642 0.15831494 2.3890576 -2.9370253 2.233042 -1.2161785
-3.7613125 -1.3277193 -0.080920994 0.075952746 1.8957707 -3.877079 0.11076529 3.4970894
-3.4221773 -1.1471033 -0.057573684 1.6061012 0.7960329 -0.5698548 3.3445837 3.5876608
1.4986724 0.25954598 2.7083063 0.67902577 2.9515028 1.6751671 -3.7297473 1.8372805
00000000: eaad 1b40 16af 1fc0 9bc5 2dc0 94de 23c0
00000010: 0c55 c13f d636 553f 977e a03f 33ee d9bf
00000020: 6e31 0b40 14a3 38c0 46f6 08c0 f2f5 9b3f
00000030: 0b43 a2bd 8816 4dc1 ac31 f63f c41d 30c0
00000040: bfe8 923f 39f9 d93f dacd 38c0 501d 223e
00000050: 52e6 1840 39f8 3bc0 29ea 0e40 bdab 9bbf
00000060: 58b9 70c0 b5f2 a9bf e8b9 a5bd 1d8d 9b3d
00000070: 9da8 f23f 1022 78c0 ead8 e23d 50d0 5f40
00000080: f404 5bc0 48d4 92bf 62d2 6bbd b994 cd3f
00000090: d0c8 4b3f 01e2 11bf a90d 5640 3c9c 6540
000000a0: 7fd4 bf3f 36e3 843e e454 2d40 a2d4 2d3f
000000b0: 6ce5 3c40 e06b d63f 2eb4 6ec0 022c eb3f

onnx::Conv_130 f4 [16]
-0.22149755 -0.6593488 0.46544984 -0.6211298 0.2717775 -0.53218085 -0.025751708 -0.4665141
-0.9453193 -0.5164854 -0.23580647 0.13318045 0.89945996 0.750508 1.0976483 0.60361624
00000000: 41d0 62be 15cb 28bf 714f ee3e 5d02 1fbf
00000010: 6c26 8b3e 013d 08bf 3ff5 d2bc f0da eebe
00000020: 7200 72bf 6338 04bf 4077 71be 7560 083e
00000030: 0243 663f 4b21 403f bd7f 8c3f 9886 1a3f

onnx::Conv_132 f4 [16, 3, 1, 1]
1.4177384 0.1342332 0.4439176 0.6651289 -0.33683679 1.329043 0.05043222 0.87036395
1.1181808 -1.5274026 0.16922012 -0.34165794 -0.017480627 0.9814245 0.21994045 1.2570931
0.47325704 0.11865859 0.424606 -0.14399932 -1.7877847 -0.7273575 0.06396266 -0.76170224
-1.2248065 0.73230326 0.733071 0.21252787 1.1120859 0.6133709 -0.3583385 -1.0197098
0.51941854 -0.08514854 -1.8233662 0.8462827 -2.10761 0.3375235 0.43937945 -0.444137
-1.0286613 0.47690332 0.16383347 1.5330818 -2.3765905 -0.017939096 1.5708078 -1.5181483
00000000: 7478 b53f 6e74 093e 2b49 e33e e345 2a3f
00000010: df75 acbe 151e aa3f 0492 4e3d 2cd0 5e3f
00000020: 8c20 8f3f ee81 c3bf 0a48 2d3e caed aebe
00000030: 8833 8fbc a33e 7b3f 1238 613e 6de8 a03f
00000040: bf4e f23e 4603 f33d f565 d93e 8f74 13be
00000050: 21d6 e4bf 1a34 3abf dbfe 823d ebfe 42bf
00000060: 76c6 9cbf 3a78 3b3f 8baa 3b3f e8a0 593e
00000070: d558 8e3f e005 1d3f 2578 b7be da85 82bf
00000080: 9df8 043f 5c62 aebd 1064 e9bf fca5 583f
00000090: 15e3 06c0 e1cf ac3e 58f6 e03e ed65 e3be
000000a0: 2cab 83bf ac2c f43e f6c3 273e 063c c43f
000000b0: 0f1a 18c0 03f5 92bc 3b10 c93f af52 c2bf

onnx::Conv_133 f4 [16]
-0.7071157 -0.32786608 -0.56192356 0.5385103 -0.5379675 -0.53424704 0.65574867 0.28237072
-0.2547675 -0.8033894 0.17567003 0.46786183 0.2803263 0.6315789 -0.010117486 -0.13528213
00000000: 8905 35bf 10de a7be 39da 0fbf d0db 093f
00000010: 3db8 09bf 6ac4 08bf 25df 273f e592 903e
00000020: e370 82be edaa 4dbf d8e2 333e 968b ef3e
00000030: ee86 8f3e 28af 213f d0c3 25bc 6687 0abe

onnx::Conv_135 f4 [32, 16, 1, 1]
0.3592204 0.21947086 -0.23163307 0.40394285 0.71313053 -0.56095785 -0.8630852 0.5877653
-0.58993334 -0.141465 0.4342166 -0.5978025 0.6497452 -0.36375275 -0.10172474 -0.45801798
0.5609903 -0.40168718 -0.22897142 0.5276247 0.24500157 -0.48419216 0.14846715 -0.631914
0.15637276 -0.054870773 0.2433125 0.09630351 -0.03950299 0.18223843 0.18235599 -0.3194524
0.38314384 -0.044887718 -1.3548803 0.49884212 -0.048141677 0.3343754 0.3899906 -1.1264141
0.82998216 0.66392195 0.22950779 1.447916 0.19119762 0.4642186 1.0803825 0.6624532
0.14168116 0.3439437 -0.05236293 0.03937656 0.18479091 0.41232228 -0.2952587 0.27808225
0.7185564 1.3036579 0.7694538 0.37461185 0.4750038 -0.006241884 1.2374418 -0.8234719
-0.7348945 0.04879533 -0.8407407 0.07896665 -0.6422281 0.3000202 0.62879 -0.31114143
1.1004753 0.76117665 0.0029060955 -0.1590143 -0.5375113 0.0047174837 0.021926975 0.41745555
-0.032376852 0.32772532 0.7830013 -0.028596353 -0.033990424 0.8378099 -0.023818748 -0.2872239
-0.9312806 -0.7575092 -1.2852333 0.13271998 0.85275435 -0.46778634 0.4845478 -0.004628287
1.0303464 -0.19562857 -0.3397423 0.08796271 -1.1881136 -0.068942085 -0.13566269 -0.81708425
-0.5469947 0.1143088 -0.38467488 0.24745867 -0.2080594 -0.7305425 0.34238833 -0.4072329
0.13293304 0.50996286 0.46368128 -0.85481936 0.78940076 0.3551272 -0.03851934 0.93237555
-1.1681321 -1.7420067 -0.08898001 -0.047104962 -0.5364009 -0.30096996 0.1278452 0.19596691
-0.522083 0.5949261 -0.41293642 0.23117031 0.3479809 0.49734253 0.22502504 0.60163116
0.2777925 0.008330864 0.059291303 0.3869518 0.6485984 -0.77357256 0.020848468 -0.9930382
0.33362052 0.040995657 -0.15311004 -0.036044113 0.19068827 -0.28360343 0.42117217 0.3604235
-0.26534212 -0.28060955 -0.13179053 -0.8134737 1.0398122 -1.0082173 0.67909163 0.3788425
0.71086705 -0.027931608 -0.34338307 0.112874076 0.08641285 -0.18784985 -0.4987285 -0.63131195
-0.0053474163 -0.42255965 0.833792 -0.46181184 -0.01659292 0.24678685 0.17827626 -0.114851706
0.10014328 -0.20340107 0.053114794 0.29635167 -0.24428639 0.7530576 -0.7860854 -0.6926655
-0.37117592 -0.438802 0.40892807 -0.004660941 -0.17551544 0.45294312 0.33073252 -0.11173363
-0.6382454 -0.08859116 1.0841262 -1.8945878 -0.362212 0.055334643 -0.2447256 0.2410301
0.044045836 0.13094823 -0.25927112 -0.46865013 -0.031803418 -0.18604988 -0.6109529 0.22677013
0.2559408 1.5853102 -0.3465404 0.8222149 0.16127816 -0.95072275 -0.84871936 0.3181915
0.33942682 0.36971432 0.008622277 0.9438771 0.6164604 0.3227169 -0.5768198 0.48527762
-0.39608562 0.5774902 -0.05503697 0.2508928 -0.06566843 0.26136783 -0.3291358 0.2879928
0.29754496 0.3313265 -0.35512128 -0.15422435 -0.37402844 0.23354632 0.13012627 -0.1869721
-0.122144364 -0.17728637 0.4189276 -0.20012552 -0.38434905 0.7418513 -0.052689843 0.045268312
0.04796084 0.18873324 1.2408166 -0.33465546 -0.52546 -0.33121487 0.332294 -0.012582245
00000000: bceb b73e f8bc 603e 3831 6dbe 99d1 ce3e
00000010: b98f 363f ef9a 0fbf 27f3 5cbf c977 163f
00000020: df05 17bf 33dc 10be a351 de3e 9609 19bf
00000030: b455 263f cd3d babe 0f55 d0bd 5581 eabe
00000040: 0f9d 0f3f f1a9 cdbe 7c77 6abe 6a12 073f
00000050: b1e1 7a3e 09e8 f7be c607 183e 1ec5 21bf
00000060: 2e20 203e 2dc0 60bd e926 793e c63a c53d
00000070: e3cd 21bd b69c 3a3e 87bb 3a3e 448f a3be
00000080: 6e2b c43e 2fdc 37bd b86c adbf 3c68 ff3e
00000090: 3530 45bd 4133 ab3e d9ac c73e 562e 90bf
000000a0: b679 543f caf6 293f 1704 6b3e 5055 b93f
000000b0: 4fc9 433e 0fae ed3e f949 8a3f 8896 293f
000000c0: de14 113e 6319 b03e 837a 56bd 5149 213d
000000d0: d439 3d3e e81b d33e 262c 97be cc60 8e3e
000000e0: 50f3 373f 43de a63f edfa 443f 20cd bf3e
000000f0: b333 f33e b888 ccbb 7e64 9e3f 0ecf 52bf
00000100: 0c22 3cbf 9ddd 473d c83a 57bf 44b9 a13d
00000110: 1069 24bf 3f9c 993e 62f8 203f ee4d 9fbe
00000120: 60dc 8c3f 79dc 423f 3174 3e3b a5d4 22be
00000130: 579a 09bf 1f95 9a3b 33a0 b33c bcbc d53e
00000140: 979d 04bd 9dcb a73e c672 483f e642 eabc
00000150: 8b39 0bbd b67a 563f 891f c3bc 030f 93be
00000160: 6868 6ebf 1fec 41bf 8682 a4bf bfe7 073e
00000170: 1c4e 5a3f b181 efbe a616 f83e e3a8 97bb
00000180: 64e2 833f db52 48be b4f2 adbe cb25 b43d
00000190: 1b14 98bf 8231 8dbd 29eb 0abe 6f2c 51bf
000001a0: d807 0cbf bb1a ea3d 1bf4 c4be ce65 7d3e
000001b0: 860d 55be d504 3bbf 864d af3e d580 d0be
000001c0: 991f 083e ed8c 023f a267 ed3e 71d5 5abf
000001d0: 2b16 4a3f 3bd3 b53e 75c6 1dbd 2ab0 6e3f
000001e0: 5a85 95bf 13fa debf 273b b6bd 22f1 40bd
000001f0: 9251 09bf bc18 9abe dae9 023e 8dab 483e
00000200: 3ba7 05bf 144d 183f 676c d3be e9b7 6c3e
00000210: 8d2a b23e aea3 fe3e f76c 663e 8004 1a3f
00000220: d23a 8e3e 2d7e 083c 70db 723d 8c1e c63e
00000230: 8b0a 263f da08 46bf 68ca aa3c c037 7ebf
00000240: 4fd0 aa3e 10eb 273d e1c8 1cbe fea2 13bd
00000250: c943 433e 7834 91be e1a3 d73e 6e89 b83e
00000260: ecda 87be 0eac 8fbe 19f4 06be d03f 50bf
00000270: 9118 853f 440d 81bf f3d8 2d3f a5f7 c13e
00000280: 62fb 353f d4d0 e4bc e8cf afbe 862a e73d
00000290: 38f9 b03d b65b 40be 5859 ffbe a99d 21bf
000002a0: 6139 afbb bd59 d8be 6473 553f 9a72 ecbe
000002b0: e0ed 87bc b1b5 7c3e 0d8e 363e 5f37 ebbd
000002c0: ec17 cd3d 5f48 50be e68e 593d 68bb 973e
000002d0: 3626 7abe 62c8 403f e53c 49bf 8752 31bf
000002e0: c50a bebe a8aa e0be 055f d13e cfba 98bb
000002f0: 52ba 33be 29e8 e73e c655 a93e 9ad4 e4bd
00000300: 0d64 23bf 486f b5bd a6c4 8a3f da81 f2bf
00000310: da73 b9be 94a6 623d 5999 7abe 98d0 763e
00000320: 6869 343d 4b17 063e 2fbf 84be e9f2 efbe
00000330: 4d44 02bd dc83 3ebe 6967 1cbf 6e36 683e
00000340: ac0a 833e 72eb ca3f be6d b1be ad7c 523f
00000350: 1a26 253e 9162 73bf ac45 59bf ffe9 a23e
00000360: 5ac9 ad3e 324b bd3e 7344 0d3c eea1 713f
00000370: 59d0 1d3f 263b a53e 76aa 13bf 4f76 f83e
00000380: bccb cabe 66d6 133f 726e 61bd 0575 803e
00000390: 2b7d 86bd 01d2 853e 7d84 a8be cb73 933e
000003a0: d057 983e a1a3 a93e 75d2 b5be fdec 1dbe
000003b0: a880 bfbe c426 6f3e d23f 053e 9d75 3fbe
000003c0: d326 fabd 8f8a 35be ae7d d63e b4ed 4cbe
000003d0: 66c9 c4be f7e9 3d3f 4ed1 57bd 446b 393d
000003e0: 9672 443d 4943 413e 14d3 9e3f f657 abbe
000003f0: 8c84 06bf ff94 a9be 7022 aa3e c325 4ebc

onnx::Conv_136 f4 [32]
-1.2553345 -1.0802938 -0.06872221 -0.5918414 1.914106 -0.18032935 0.073060974 0.19798845
-0.05779031 -0.3373595 -1.3543228 -0.3954573 0.43265364 -0.040416062 0.7034393 -0.16348672
-0.34387407 -0.44014683 -1.7660577 -0.6262414 -1.3325121 -1.292487 -0.8767056 0.22904056
0.86524934 0.565946 -0.9730257 0.52430093 -0.63263774 0.5920361 -1.0625341 -0.71345496
00000000: cdae a0bf 1147 8abf 3bbe 8cbd eb82 17bf
00000010: 6d01 f53f 42a8 38be fea0 953d 7cbd 4a3e
00000020: 88b5 6cbd 62ba acbe 735a adbf 6179 cabe
00000030: c784 dd3e 508b 25bd 9914 343f 1069 27be
00000040: 4310 b0be ed5a e1be 2e0e e2bf 5b51 20bf
00000050: c28f aabf 3770 a5bf c76f 60bf 9c89 6a3e
00000060: fb80 5d3f d6e1 103f 3618 79bf 9638 063f
00000070: 8cf4 21bf ae8f 173f 1e01 88bf fca4 36bf

onnx::Conv_138 f4 [32, 16, 1, 1]
0.108321734 0.0149252685 -0.08381049 -0.077314556 -0.07479296 -0.12248337 -0.16720644 -0.039180838
0.13749325 0.050506875 -0.036685947 -0.09674947 0.072869726 -0.06158111 -0.44101906 -0.28920022
-0.2090831 0.0008933879 -0.068003215 -0.015843358 -0.01668057 -0.08806839 -0.115868405 -0.02655107
0.0012877368 -0.0654075 -0.2632908 -0.3778841 0.021791235 0.021330351 -0.1731363 0.005370966
-0.04153799 -0.031182675 -0.13002999 0.019160403 -0.122543395 -0.0017910264 0.17601317 0.040550034
0.07040466 -0.053151328 0.091416515 0.33159414 -0.1490286 -0.20089467 -0.12639774 -0.22816372
-0.00047123025 -0.0728638 0.023380777 -0.051915765 0.086393744 -0.059593923 -0.050566208 -0.15988313
-0.05997172 -0.080392204 0.02331841 0.0067665707 0.048436172 0.025151 0.09815489 0.0799994
-0.13968496 -0.06471615 0.0015161395 0.036281712 -0.0058878465 -0.03695926 0.074737735 0.0055566155
-0.13455191 -0.2319961 -0.10290985 0.023029946 0.0045438195 -0.017156057 -0.033850864 -0.11053487
-0.05822946 -0.03994011 0.07222452 0.11546262 0.22427492 0.09789467 0.117864884 -0.034218606
-0.013845569 -0.014560402 0.040944435 0.050434507 0.10099585 -0.039397072 0.31015453 0.2969147
0.01709243 0.26040995 0.05348274 0.23784389 -0.013458993 0.5799595 0.041365463 0.04602556
0.17615123 -0.11285999 0.010929397 -0.05810594 -0.036523502 -0.009042729 -0.012732033 0.083572574
0.055395782 -0.16114277 0.21084812 -0.13465244 0.16848266 -0.03532207 -0.057066526 0.029952751
0.053760838 0.29572266 0.12918474 -0.27794564 0.14235136 0.11422505 -0.048977673 0.015751986
-0.012350815 -0.07557213 -0.19589232 -0.092003785 -0.21602714 -0.17313051 -0.042974353 -0.042077255
-0.103308894 -0.08229067 0.031661466 0.036156967 0.075892605 0.16599342 0.04686747 -0.03074111
0.009508313 -0.06388465 0.09950239 0.041153293 -0.11208239 -0.018605437 -0.04852615 0.18795888
0.050880358 0.25643867 0.046281777 -0.14912722 -0.29234174 -0.271359 -0.28031114 -0.19311807
0.017499158 0.018051552 0.09807642 0.036453266 0.019005753 -0.042320114 -0.011740734 0.18982968
0.12943856 0.09280418 0.11017021 0.06599133 -0.10425206 -0.0386623 -0.072083965 -0.050076928
0.10354593 -0.017777244 -0.12827593 0.5660171 -0.3089601 -0.03670012 0.5181329 0.18876678
0.078152664 -0.14443305 0.008804215 -0.2195149 -0.060296398 0.059867434 -0.073566765 -0.117512845
0.081387796 -0.013460035 0.18980767 0.07183352 0.08096014 -0.07147571 -0.17156424 0.027731977
0.07849047 0.35567558 0.00018244804 -0.1894588 0.04074095 -0.18115109 -0.1476413 0.007220036
-0.023850964 0.04371873 -0.18041804 0.0151851475 -0.059277076 -0.023133377 0.15755159 -0.024755055
-0.23568161 -0.24435444 -0.11548672 0.10738924 -0.10034241 0.12120653 0.124336325 -0.025462586
0.04214354 -0.09492288 0.24903253 -0.14592877 0.069345295 0.04927073 -0.012470725 0.19890888
-0.045907512 0.34610718 0.11663445 -0.14538978 -0.1072125 -0.027298 -0.15963243 -0.006127049
-0.07607082 -0.058023434 0.11210902 -0.04509494 0.38962847 -0.030540239 -0.03221082 -0.0060571455
0.03269242 0.016651955 -0.0300635 0.07135897 0.119965 -0.19175361 0.2380297 0.29046136
00000000: c9d7 dd3d 1d89 743c d6a4 abbd 1857 9ebd
00000010: 0d2d 99bd 90d8 fabd 2a38 2bbe 167c 20bd
00000020: 08cb 0c3e 4ce0 4e3d 0144 16bd 9624 c6bd
00000030: b93c 953d 793c 7cbd 40cd e1be 0d12 94be
00000040: e119 56be 3f32 6a3a 4545 8bbd eec9 81bc
00000050: b1a5 88bc 335d b4bd 6a4c edbd a181 d9bc
00000060: 47c9 a83a 5ef4 85bd 0dce 86be 067a c1be
00000070: 8883 b23c fdbc ae3c a44a 31be eefe af3b
00000080: bd23 2abd cf72 ffbc 9526 05be 47f6 9c3c
00000090: 08f8 fabd e0c0 eaba cc3c 343e cb17 263d
000000a0: 5230 903d 35b5 59bd 9538 bb3d b5c6 a93e
000000b0: f49a 18be 55b7 4dbe 696e 01be c0a3 69be
000000c0: 740f f7b9 9e39 95bd 0b89 bf3c a0a5 54bd
000000d0: 34ef b03d c218 74bd 831e 4fbd 67b8 23be
000000e0: e8a4 75bd aba4 a4bd 4006 bf3c 1cba dd3b
000000f0: 0265 463d 7809 ce3c 6e05 c93d bad6 a33d
00000100: 9309 0fbe e789 84bd 33b9 c63a 229c 143d
00000110: d6ee c0bb 9862 17bd 1910 993d 4514 b63b
00000120: fac7 09be 6390 6dbe 66c2 d2bd 4ca9 bc3c
00000130: 52e4 943b dc8a 8cbc 34a7 0abd 1b60 e2bd
00000140: 0482 6ebd 3e98 23bd 73ea 933d ab77 ec3d
00000150: 53a8 653e 007d c83d 2563 f13d cf28 0cbd
00000160: 87d8 62bc c18e 6ebc 5ab5 273d 6a94 4e3d
00000170: ead6 ce3d d35e 21bd 93cc 9e3e 3405 983e
00000180: 6c05 8c3c 7454 853e b810 5b3d 598d 733e
00000190: 1c83 5cbc 3a78 143f d56e 293d 4c85 3c3d
000001a0: fd60 343e 2323 e7bd 3711 333c 7f00 6ebd
000001b0: ab99 15bd f427 14bc 049a 50bc 1928 ab3d
000001c0: b0e6 623d 9c02 25be 92e8 573e 54e2 09be
000001d0: b886 2c3e e0ad 10bd 97be 69bd 795f f53c
000001e0: 5334 5c3d f668 973e 0149 043e e44e 8ebe
000001f0: 8ec4 113e d3ee e93d d09c 48bd 4f0a 813c
00000200: 135b 4abc 90c5 9abd ff97 48be 7b6c bcbd
00000210: 3836 5dbe 2049 31be e005 30bd 3359 2cbd
00000220: 9d93 d3bd 0388 a8bd 74af 013d 5419 143d
00000230: 956d 9b3d 2efa 293e 1bf8 3f3d c8d4 fbbc
00000240: c1c8 1b3c f5d5 82bd e9c7 cb3d 5b90 283d
00000250: 748b e5bd 6e6a 98bc 5bc3 46bd 4b78 403e
00000260: ec67 503d ee4b 833e f691 3d3d ceb4 18be
00000270: d1ad 95be 91ef 8abe f184 8fbe bec0 45be
00000280: 655a 8f3c d9e0 933c 4adc c83d 0550 153d
00000290: f4b1 9b3c db57 2dbd 355c 40bc b662 423e
000002a0: 8b8b 043e 1e10 be3d eba0 e13d 7626 873d
000002b0: 1b82 d5bd 5c5c 1ebd c2a0 93bd 771d 4dbd
000002c0: e30f d43d 95a1 91bc c45a 03be 7fe6 103f
000002d0: 0530 9ebe dd52 16bd 5ca4 043f 144c 413e
000002e0: 810e a03d 42e6 13be 8e3f 103c 84c8 60be
000002f0: 5bf9 76bd 8e37 753d 2caa 96bd 93aa f0bd
00000300: a5ae a63d 7b87 5cbc f15c 423e 741d 933d
00000310: 6ece a53d db61 92bd 89ae 2fbe 2c2e e33c
00000320: 9dbf a03d 1c1b b63e 864f 3f39 7d01 42be
00000330: fbdf 263d ac7f 39be 482f 17be 0d96 ec3b
00000340: 1963 c3bc 6912 333d 82bf 38be 20cb 783c
00000350: 85cc 72bd 3582 bdbc 3455 213e 1dcb cabc
00000360: 8556 71be 0d38 7abe 4d84 ecbd e4ee db3d
00000370: 5280 cdbd 213b f83d 0ba4 fe3d ea96 d0bc
00000380: b49e 2c3d ed66 c2bd 6202 7f3e 5a6e 15be
00000390: e804 8e3d 1bd0 493d 0352 4cbc c5ae 4b3e
000003a0: 8409 3cbd f634 b13e 0bde ee3d 0fe1 14be
000003b0: 3a92 dbbd 0ea0 dfbc af76 23be 6ac5 c8bb
000003c0: 05cb 9bbd fba9 6dbd 6a99 e53d 79b5 38bd
000003d0: 627d c73e 862f fabc 7eef 03bd 057b c6bb
000003e0: 7de8 053d ae69 883c bb47 f6bc a724 923d
000003f0: 36b0 f53d 0f5b 44be 0fbe 733e 5ab7 943e

onnx::Conv_139 f4 [32]
1.3934022 0.8603153 0.49709463 0.269653 0.79528403 -1.0278797 -0.44945785 -0.57249814
0.7333413 0.80193216 -0.55776393 -0.63317084 0.0936937 0.80401707 -0.49321666 -0.90117645
-0.54074734 0.044468846 0.6897285 0.11775991 -0.45361844 -0.011249222 -1.0221002 -0.4404439
0.0791142 -0.4012072 -0.7470521 0.56499135 0.34719262 0.6455543 0.5907334 -0.24448046
00000000: 015b b23f a03d 5c3f 3083 fe3e f50f 8a3e
00000010: bc97 4b3f 9091 83bf 571f e6be 3d8f 12bf
00000020: 41bc 3b3f 6d4b 4d3f 9ec9 0ebf 7c17 22bf
00000030: 7ce2 bf3d 10d4 4d3f e586 fcbe 80b3 66bf
00000040: 6b6e 0abf f724 363d 0c92 303f 1c2c f13d
00000050: ad40 e8be a84e 38bc 2ed4 82bf dd81 e1be
00000060: a006 a23d 086b cdbe ce3e 3fbf 46a3 103f
00000070: 3bc3 b13e 0c43 253f 4e3a 173f 1659 7abe

onnx::Conv_141 f4 [64, 32, 1, 1]
0.08347502 0.12581423 0.2626542 0.077488296 0.22243139 0.43019256 -0.050658327 0.23510846
0.08422346 0.3651848 0.23104134 0.007582651 -0.2182095 0.16435617 -0.16424458 -0.10423093
0.0178846 -0.121606626 0.14327602 -0.14571184 -0.052109174 0.28211835 0.34546044 -0.061054785
-0.090470776 -0.3274079 -0.18900973 -0.05777239 0.26183042 -0.047377795 0.30685127 0.27603135
0.55884796 0.32439756 -0.30991423 -0.02668175 0.041369285 -0.23048894 -0.2799169 -0.36921465
-0.51873106 0.1412242 0.87789786 -0.37838537 -0.13998859 0.13480102 -0.3122123 0.03935615
0.037063185 0.14367047 0.047736812 0.8074318 0.06874269 -0.34169656 0.008598665 0.10861669
0.6078049 0.14412156 0.028290967 -0.09009206 0.21315256 0.0085392315 -0.39268407 0.19558842
0.16485412 -0.096284926 0.3241925 -0.13523191 0.02810313 -0.6256917 0.024540275 -0.49558622
-0.32722914 -0.31109995 0.43436223 0.20724325 -0.06026026 -0.1644687 -0.20880114 -0.015811149
-0.2773194 -0.08569519 0.10958198 -0.030822951 0.0686322 -0.49122968 -0.2825123 -0.16850998
-0.07709775 0.084927544 0.21396078 0.13308007 0.42496383 -0.20151138 0.07843304 -0.34364033
-0.13122052 0.020917963 -0.10996558 -0.107875586 0.03200863 0.090082556 -0.36119643 -0.9234382
-0.43613312 -0.39840856 0.31260574 0.20433798 0.22838843 0.12726226 0.04242966 -0.028397739
-0.18183866 0.28552392 0.31365162 0.5187787 -0.14676975 -0.15692574 -0.7090808 0.06054406
-0.07062471 0.023636576 0.23238392 -0.51474744 -0.19125932 -0.17979155 -0.015532275 -0.031283993
-0.06627918 -0.08690907 -0.006490382 0.0018628167 0.064907044 -0.1548155 -0.056512788 -0.15562037
-0.063228436 -0.14828938 0.23417518 0.22309074 0.25744066 -0.14799555 0.31778702 0.16841657
0.45866197 0.28958994 0.0477528 0.13450332 -0.09698491 0.082262546 0.41173437 -0.12637763
0.06502414 -0.33793217 -0.62994605 0.12586342 0.3667803 0.68655586 -0.44836164 0.2456897
0.14110692 0.4515755 -0.6259128 -0.08849917 -0.15768386 -0.060098924 -0.46226138 -0.13720238
-0.7662706 -0.18129261 -0.29558095 -0.120801665 0.19174583 -0.31943357 -0.100981966 -0.7239956
-0.13216045 0.479836 -0.83204734 0.6774766 -0.5115379 0.4153032 -0.33255368 -0.30915675
0.67620194 0.23312715 -0.15818557 -0.15411252 -0.25502214 -0.3624084 0.4732396 0.7772264
0.12245371 -0.036558736 -0.35039026 0.1374604 0.0069959117 0.056169294 -0.091487765 0.007341414
0.012575996 -0.74111056 -0.07974306 -0.08788059 0.24426067 -0.05132488 0.3130659 -0.18772358
-0.11715821 0.43543756 -0.032109734 0.080363095 0.33427715 0.28460228 -0.15111388 0.008421206
-0.11372923 -0.06438797 -0.0773464 0.15079711 0.16020618 0.25300908 -0.09141365 0.10294921
0.08919137 -0.019990472 -0.5512644 -0.16542558 -0.49256372 -0.050318968 0.014700293 0.23280735
-0.08697461 -0.74214417 0.2433086 -0.2900755 0.44860747 0.26301846 0.40213534 0.38970658
0.084082186 -0.13559215 0.23541354 0.10087973 0.33702523 -0.0917195 -0.06590058 -0.038585555
-0.33111328 0.09880611 0.028912101 -0.2978614 0.3367991 0.57847357 -0.08444462 -0.18163267
00000000: f4f4 aa3d 72d5 003e 9c7a 863e 2fb2 9e3d
00000010: 0ec5 633e 3342 dc3e 1b7f 4fbd 46c0 703e
00000020: 597d ac3d 81f9 ba3e 1a96 6c3e e377 f83b
00000030: 5072 5fbe fc4c 283e bb2f 28be 0777 d5bd
00000040: ba82 923c e50c f9bd f3b6 123e 7c35 15be
00000050: 6e70 55bd d171 903e 31e0 b03e 9514 7abd
00000060: be48 b9bd 02a2 a7be c48b 41be bea2 6cbd
00000070: a30e 863e 380f 42bd 9c1b 9d3e fb53 8d3e
00000080: a910 0f3f 7017 a63e 14ad 9ebe af93 dabc
00000090: d772 293d 4b05 6cbe 4551 8fbe b409 bdbe
000000a0: 8fcb 04bf 149d 103e eabd 603f babb c1be
000000b0: 2b59 0fbe 4709 0a3e 4ada 9fbe ea33 213d
000000c0: 91cf 173d 5a1e 133e ad87 433d dab3 4e3f
000000d0: f8c8 8c3d daf2 aebe 6ae1 0c3c 6d72 de3d
000000e0: 1a99 1b3f 9a94 133e 75c2 e73c 3082 b8bd
000000f0: aa44 5a3e 22e8 0b3c e30d c9be 5548 483e
00000100: 85cf 283e 0831 c5bd 8ffc a53e 3c7a 0abe
00000110: 8938 e63c 552d 20bf b008 c93c 7abd fdbe
00000120: 948a a7be 7e48 9fbe ba64 de3e 9337 543e
00000130: 76d3 76bd 7c6a 28be f7cf 55be 6286 81bc
00000140: cffc 8dbe f680 afbd 846c e03d 6a80 fcbc
00000150: 0a8f 8c3d 7582 fbbe 74a5 90be e18d 2cbe
00000160: 6de5 9dbd 7eee ad3d 8918 5b3e 2446 083e
00000170: dc94 d93e 0059 4ebe 80a1 a03d a0f1 afbe
00000180: ac5e 06be 265c ab3c a235 e1bd e0ed dcbd
00000190: 7b1b 033d 347d b83d bdee b8be 7266 6cbf
000001a0: d74c dfbe 35fc cbbe dc0d a03e fa3d 513e
000001b0: a8de 693e 0a51 023e b9ca 2d3d 60a2 e8bc
000001c0: ea33 3abe 3130 923e f296 a03e aece 043f
000001d0: cf4a 16be 24b1 20be 5286 35bf 0cfd 773d
000001e0: b0a3 90bd 7ea1 c13c 0df6 6d3e 7dc6 03bf
000001f0: 7cd9 43be 471b 38be 157b 7ebc a523 00bd
00000200: 61bd 87bd 62fd b1bd 45ad d4bb c229 f43a
00000210: fced 843d f487 1ebe f479 67bd f25a 1fbe
00000220: e97d 81bd 2cd9 17be 9ecb 6f3e e671 643e
00000230: 43cf 833e 258c 17be fbb4 a23e 6575 2c3e
00000240: bed5 ea3e 2245 943e 7198 433d 3dbb 093e
00000250: 06a0 c6bd 4479 a83d d9ce d23e 2369 01be
00000260: 602b 853d 7205 adbe 2544 21bf 57e2 003e
00000270: a1ca bb3e 20c2 2f3f a88f e5be 1596 7b3e
00000280: 557e 103e e734 e73e d23b 20bf 0e3f b5bd
00000290: e177 21be 4a2a 76bd 86ad ecbe c87e 0cbe
000002a0: 4f2a 44bf c5a4 39be 6356 97be dd66 f7bd
000002b0: 0559 443e cc8c a3be a2cf cebd c757 39bf
000002c0: 1255 07be 10ad f53e 0e01 55bf 1b6f 2d3f
000002d0: 26f4 02bf 9fa2 d43e 7a44 aabe cb49 9ebe
000002e0: 921b 2d3f e2b8 6e3e 66fb 21be accf 1dbe
000002f0: 4392 82be 988d b9be 764c f23e 4ff8 463f
00000300: 03c9 fa3d 9dbe 15bd 5a66 b3be 6bc2 0c3e
00000310: f63d e53b c611 663d f05d bbbd 3f90 f03b
00000320: 8d0b 4e3c 6cb9 3dbf 5450 a3bd bdfa b3bd
00000330: 781f 7a3e 0a3a 52bd 2c4a a03e 9c3a 40be
00000340: a5f0 efbd acf1 de3e 7f85 03bd 6895 a43d
00000350: 6026 ab3e 64b7 913e 99bd 1abe 19f9 093c
00000360: dfea e8bd d7dd 83bd ca67 9ebd 8f6a 1a3e
00000370: 170d 243e 688a 813e 1437 bbbd 09d7 d23d
00000380: f7a9 b63d 0fc3 a3bc aa1f 0dbf 5365 29be
00000390: 5031 fcbe 431b 4ebd 7fd9 703c 0d65 6e3e
000003a0: bf1f b2bd 29fd 3dbf e425 793e c784 94be
000003b0: e1af e53e 5baa 863e afe4 cd3e 9f87 c73e
000003c0: 4833 ac3d abd8 0abe 3f10 713e 089a ce3d
000003d0: 928e ac3e 6fd7 bbbd e2f6 86bd e30b 1ebd
000003e0: ae87 a9be dc5a ca3d 12d9 ec3c 4a81 98be
000003f0: ee70 ac3e d816 143f 4df1 acbd eafd 39be

onnx::Conv_142 f4 [64]
0.4366085 0.20969635 1.2044176 -0.048534274 -0.45413524 0.256295 -0.54418576 -0.7963068
0.10987966 0.20102534 0.8682222 0.013886914 -0.00617601 -1.408241 -0.19250883 -0.1554489
0.9322424 -0.0045534633 1.1666539 -0.77422637 0.84036773 1.1314416 0.308372 0.07357488
-0.6628804 -0.44196907 -0.47044626 0.73902154 1.1556644 0.06934683 -0.40279028 0.8294759
0.34679806 0.6582906 0.19269459 -1.0060722 -0.059063837 -0.15939826 0.152652 -0.569211
-0.4441835 0.8412706 -0.8836132 0.32133228 0.7740948 0.32225615 0.73200464 -0.15026905
1.5566232 -1.0210308 0.97209007 -0.63365734 0.046297163 -0.039496362 -0.01132901 0.29777285
-0.34192398 -0.3988499 -0.17442961 0.49098682 -0.6167859 0.047621906 0.35468102 -0.941308
00000000: 268b df3e a4ba 563e 5b2a 9a3f e0cb 46bd
00000010: 6a84 e8be 1939 833e c24f 0bbf c3da 4bbf
00000020: 9608 e13d 96d9 4d3e cf43 5e3f f085 633c
00000030: 2060 cabb 3e41 b4bf 0921 45be ff2d 1fbe
00000040: 70a7 6e3f 3835 95bb ea54 953f b333 46bf
00000050: 5722 573f 14d3 903f efe2 9d3e 6dae 963d
00000060: 88b2 29bf c549 e2be 55de f0be 8430 3d3f
00000070: d0ec 933f b605 8e3d 873a cebe 8858 543f
00000080: 848f b13e bc85 283f bb51 453e f9c6 80bf
00000090: ecec 71bd 4c39 23be ce50 1c3e d0b7 11bf
000000a0: 056c e3be 835d 573f 7a34 62bf aa85 a43e
000000b0: 142b 463f c2fe a43e a864 3b3f 21e0 19be
000000c0: 6e3f c73f 23b1 82bf e5da 783f 5e37 22bf
000000d0: 18a2 3d3d f0c6 21bd 509d 39bc af75 983e
000000e0: a910 afbe 0e36 ccbe ad9d 32be a062 fb3e
000000f0: aee5 1dbf 300f 433d c098 b53e 90f9 70bf

onnx::Conv_144 f4 [64, 1, 1, 1]
-0.9244942 0.8733414 -1.3085334 1.2515831 -0.70011085 -0.3559415 0.6367504 0.60127896
-0.37305868 0.8299072 0.18458535 0.60882825 0.45333356 0.3088587 -0.6450405 0.680699
0.17409694 -0.8979955 0.6595043 -0.6700243 -1.0544857 -0.6141769 0.6551033 -0.73773074
0.22943625 0.71010923 1.0897262 0.70310193 1.0416234 1.0677936 -0.7162073 0.40146044
-0.8390003 0.80997396 0.5349215 -0.5012729 -1.3057804 -0.2875958 -1.0442741 -0.5139513
0.4877212 0.4264129 -0.27113977 0.4724704 0.49610052 -0.72363657 -0.0020445392 0.5172591
-0.5600362 -0.7407322 0.7863298 -1.1519302 -0.6950757 -0.5227149 0.9779183 -0.5393
-0.118176244 0.53676 0.12910123 0.4114915 -0.48066112 0.6044812 -0.0046571773 -0.38061392
00000000: a7ab 6cbf 4d93 5f3f 067e a7bf e033 a03f
00000010: 773a 33bf f73d b6be 1302 233f 6bed 193f
00000020: 8c01 bfbe cc74 543f f103 3d3e 2bdc 1b3f
00000030: 561b e83e ba22 9e3e 6021 25bf 4a42 2e3f
00000040: 7846 323e 08e3 65bf 46d5 283f b686 2bbf
00000050: 63f9 86bf b33a 1dbf dab4 273f ecdb 3cbf
00000060: 56f1 6a3e b8c9 353f 267c 8b3f 7dfe 333f
00000070: ea53 853f 76ad 883f 5d59 37bf 398c cd3e
00000080: b9c8 56bf 745a 4f3f 9ef0 083f 6c53 00bf
00000090: d023 a7bf c23f 93be c6aa 85bf 5092 03bf
000000a0: 98b6 f93e cb52 da3e d5d2 8abe a4e7 f13e
000000b0: e300 fe3e 3f40 39bf adfd 05bb 186b 043f
000000c0: 885e 0fbf a0a0 3dbf e94c 493f 7372 93bf
000000d0: 7bf0 31bf a5d0 05bf db58 7a3f 910f 0abf
000000e0: 6306 f2bd 1a69 093f 1d33 043e 04af d23e
000000f0: 3719 f6be 48bf 1a3f 3c9b 98bb d4df c2be

onnx::Conv_145 f4 [64]
1.0388266 -0.87114924 0.71920604 -0.54291207 0.9056012 0.20214501 -0.4594226 -0.48262784
0.9198146 -0.9593284 0.025828436 -0.8266684 -0.28664246 -0.2678715 0.6581035 -0.77363825
-0.032163918 1.5580395 -0.573295 0.6135367 0.76495236 0.3655563 -0.66930664 0.61997306
-0.30541512 -0.24910924 -1.177088 -0.33996636 -0.80963755 -1.0008507 0.7657064 -0.47641242
0.32788453 -0.3782894 -0.58534455 0.32663238 0.99178326 -0.0610701 1.0304174 0.42447758
-0.58747566 -1.0075475 -0.04457131 -0.1350216 -0.6760688 1.0360938 -0.017160282 -0.42679217
0.54873043 0.9505595 -0.5672236 1.1237054 0.6112688 0.8367566 -0.7560411 0.3335515
-0.063008055 -0.714676 0.049169183 -0.6657932 0.46921343 -0.1217581 -0.24783297 0.38812274
00000000: 45f8 843f a303 5fbf e31d 383f 49fc 0abf
00000010: 7bd5 673f 1aff 4e3e 7039 ebbe ff1a f7be
00000020: f878 6b3f 8c96 75bf 2896 d33c 8aa0 53bf
00000030: cdc2 92be 7426 89be 7979 283f 280d 46bf
00000040: 50be 03bd d76d c73f 76c3 12bf be10 1d3f
00000050: ebd3 433f 322a bb3e ae57 2bbf 8eb6 1e3f
00000060: 5f5f 9cbe 7e16 7fbe d2aa 96bf 1210 aebe
00000070: 6844 4fbf e01b 80bf 5605 443f 54ec f3be
00000080: 7be0 a73e 26af c1be 24d9 15bf 5c3c a73e
00000090: 82e5 7d3f a424 7abd b8e4 833f 2055 d93e
000000a0: ce64 16bf 51f7 80bf 6890 36bd 1a43 0abe
000000b0: d812 2dbf b99e 843f b893 8cbc 8184 dabe
000000c0: 9979 0c3f de57 733f 9135 11bf 94d5 8f3f
000000d0: 1d7c 1c3f ae35 563f e98b 41bf 43c7 aa3e
000000e0: 5e0a 81bd 02f5 36bf a065 493d 6c71 2abf
000000f0: be3c f03e 505c f9bd edc7 7dbe 06b8 c63e

onnx::Conv_147 f4 [64, 1, 1, 1]
-1.5978937 -0.015265641 -0.62614167 -1.8811809 -1.7524443 0.85789084 -1.5842254 -0.0113590425
0.65993595 0.7250895 -1.2655307 -1.4228454 0.82632256 0.77569157 -0.68495995 -1.5726304
0.44554257 -1.4457707 -2.269225 -2.5549653 -0.7079314 0.6162272 -0.42656675 -2.1382635
-0.9371717 0.27625337 -1.826393 -2.0827544 -0.25994256 -1.3878393 -2.0317142 -0.36044186
-1.1922592 -1.9069095 0.2941021 -1.6764512 -1.9947388 -1.0836906 0.4193563 -1.1898339
-1.1417223 0.3858275 -1.7929738 -1.1454445 -1.2913212 -1.1559658 -2.2159324 0.48792404
-1.6365806 0.91758645 -1.5610472 -0.92141134 0.48513922 -1.9943216 0.34579295 -0.5678101
-1.0312382 0.37788647 -1.0453073 0.64660734 -1.1723202 0.58778495 0.048333142 -1.7630304
00000000: c887 ccbf bd1c 7abc d24a 20bf 89ca f0bf
00000010: 1850 e0bf bc9e 5b3f e6c7 cabf 471b 3abc
00000020: 90f1 283f 779f 393f e9fc a1bf cc1f b6bf
00000030: e089 533f b993 463f 8959 2fbf f44b c9bf
00000040: 281e e43e 040f b9bf fb3a 11c0 8d84 23c0
00000050: fe3a 35bf 11c1 1d3f f566 dabe 4fd9 08c0
00000060: 7cea 6fbf 1571 8d3e 3fc7 e9bf d94b 05c0
00000070: 3117 85be b8a4 b1bf 9b07 02c0 d68b b8be
00000080: f39b 98bf 9c15 f4bf 8d94 963e f495 d6bf
00000090: 9a53 ffbf 60b6 8abf deb5 d63e 7a4c 98bf
000000a0: f523 92bf 2f8b c53e 2a80 e5bf ed9d 92bf
000000b0: 034a a5bf b0f6 93bf d6d1 0dc0 2ed1 f93e
000000c0: 797b d1bf f2e6 6a3f 65d0 c7bf 9de1 6bbf
000000d0: 2b64 f83e ee45 ffbf c60b b13e 015c 11bf
000000e0: 9dff 83bf 567a c13e a1cc 85bf 0f88 253f
000000f0: 970e 96bf 1379 163f f9f8 453d fbaa e1bf

onnx::Conv_148 f4 [64]
1.045876 -0.017910052 0.5072986 1.1645428 1.0312655 -0.7055754 0.9689075 0.16344953
-0.96990055 -0.31335232 0.69024926 0.7657583 -0.63528675 -0.87424874 0.27753025 0.5906023
-0.4380669 0.9500383 1.7854754 1.0297734 0.26815373 -0.30051637 0.20949914 1.2925142
0.4680141 -0.44759256 0.7862844 1.6268854 -0.14416975 0.75854194 1.125489 0.2504543
0.40575665 1.4828197 -0.19974416 0.56070054 1.3978324 0.45834297 -0.26962543 0.71912825
0.53189164 -0.06314173 0.8476238 0.8000133 0.69177806 0.73185956 1.1547698 -0.21357709
0.90269095 -0.48754016 0.9880326 0.46038377 -0.3131486 1.9657613 -0.14305103 0.27724615
0.46155545 -0.36193204 0.6437915 -0.40992817 0.5589337 -0.5830592 -0.22545783 1.2562858
00000000: 44df 853f 1ab8 92bc 52de 013f bd0f 953f
00000010: 8200 843f 97a0 34bf 520a 783f 505f 273e
00000020: 674b 78bf b76f a0be 2db4 303f bc08 443f
00000030: 27a2 22bf c4ce 5fbf 7218 8e3e b631 173f
00000040: 4e4a e0be b635 733f 758a e43f 9dcf 833f
00000050: 724b 893e 48dd 99be f186 563e 1b71 a53f
00000060: 8b9f ef3e da2a e5be ef49 493f c83d d03f
00000070: 3ca1 13be ce2f 423f 0610 903f 8c3b 803e
00000080: 56bf cf3e 09cd bd3f bc89 4cbe 128a 0f3f
00000090: 2cec b23f eeab ea3e 580c 8abe ca18 383f
000000a0: 0d2a 083f 7450 81bd e0fd 583f accd 4c3f
000000b0: 5e18 313f 265b 3b3f 7fcf 933f f4b3 5abe
000000c0: c116 673f dd9e f9be b4ef 7c3f 6cb7 eb3e
000000d0: 0355 a0be 119e fb3f f87b 12be 35f3 8d3e
000000e0: ff50 ec3e 284f b9be 85cf 243f 1be2 d1be
000000f0: 4716 0f3f 5e43 15bf 6bde 66be f9cd a03f

onnx::Conv_150 f4 [64, 1, 3, 3]
-0.15460974 -0.41207242 0.48975244 0.9212799 -0.3484546 0.021286543 -0.29415473 0.9569483
0.10280404 0.22953989 0.03720605 -0.1312769 0.45478153 0.13386822 0.38289547 0.2544598
-0.053561542 0.012166732 0.12766324 -0.3511362 -0.17115907 -0.69979215 -0.11639569 0.9246329
-0.869891 0.8046313 0.17551427 0.25035658 0.019222531 0.1263022 0.19900692 0.32148758
0.13297442 0.3931565 0.2939348 -0.16425155 -0.029440692 -0.7222131 0.55794495 -0.35650504
-1.2386378 0.16189884 0.3081892 0.0028401576 0.7325114 0.5019579 -0.4435625 -0.41956687
-0.13398588 0.15447591 -0.2625575 -0.073258854 0.49776894 0.46111298 0.17032647 0.05654815
-0.5887574 -0.27689382 0.19989835 0.038773473 0.30338097 0.5641475 0.16929111 -0.42119315
-0.12978701 -0.14203319 -0.72347635 -0.05733361 -0.30840716 -0.10878822 0.8873036 0.16704307
-0.53765655 -0.13419321 -0.6550805 -0.15079114 -0.07509155 -0.23816274 0.4614744 0.6691296
0.2826863 -0.4859193 0.58292866 0.43821558 -0.6877545 -0.35726538 1.2610728 0.48701784
-0.31123254 -0.079335056 -0.19418184 -0.22119084 0.27204087 -0.23159766 -0.10858729 -0.13288665
0.046726175 0.11317315 -0.2323464 0.2242839 -0.40615037 -0.40357935 -0.008331892 -0.19096921
-0.1786165 0.565283 0.23294586 0.5327602 0.6915365 -0.1097763 0.020195818 0.23014532
-0.21270962 -0.3165458 -0.0025486115 -0.133679 0.19068825 0.73048836 -0.15305606 -0.6180958
-0.035478663 -0.13581532 -0.24868698 0.021913463 -0.18024129 0.2846744 0.03979801 -0.21173845
-0.32169127 -0.074379966 -0.38409474 -0.20741619 -0.26636565 -0.50078064 -0.37183562 -0.30060628
-0.26411775 -0.0063211876 -0.06082824 -0.057667304 -0.100399464 0.24682719 0.21261372 0.1315241
0.28530636 0.4468592 0.50952446 -0.17633174 0.32722467 0.5017352 -0.67097807 -0.30418405
-0.6103309 0.43387425 -0.515632 -0.37880063 0.17199397 -0.1466787 -0.3940942 -0.39432293
-0.04130107 0.3335905 0.3807146 0.0027081103 -0.16434203 0.13258056 0.37838954 0.016801223
0.49045104 0.36597097 -0.24315864 0.4199076 0.48335722 0.47045794 0.91032624 0.52535206
0.081289716 -0.15170677 -0.91904086 -0.26031342 0.8031743 -0.3255909 -1.1828727 -0.3737088
0.9549467 0.65228176 -0.26244915 0.26234058 0.16232581 0.09537962 0.07496231 0.31188333
-0.27584085 -0.1846542 -0.8375357 -0.88659835 0.13465191 0.110043176 -0.61530036 -0.87381107
0.24266212 0.16204281 -0.0029778976 -1.090194 -0.23432317 0.34156212 -0.50353193 -0.3466809
-0.8559793 0.74229157 0.028569156 -0.3715924 0.115496896 0.6623321 -0.7189659 0.094503656
-0.10625854 -0.5849222 -0.5946774 -0.12829049 0.031504218 0.30113348 0.21461537 0.98656046
0.1404333 -0.95615584 -0.79600734 -0.07501145 -0.3408587 0.009575564 0.24631229 0.6584626
0.44473058 -0.22586472 0.22518936 0.47613135 0.054596584 0.31370074 -0.12850697 0.4421882
0.05498196 -0.3426527 -0.3365682 0.16252449 0.34196427 0.18018171 0.078847766 0.06305653
0.16903774 -0.090973996 -0.07903093 0.23047821 0.15495192 -0.050799437 0.68657637 0.3113382
00000000: 0452 1ebe 28fb d2be d5c0 fa3e 00d9 6b3f
00000010: a468 b2be 1e61 ae3c 739b 96be 90fa 743f
00000020: ed8a d23d 810c 6b3e 5f65 183d 746d 06be
00000030: 20d9 e83e c014 093e e00a c43e 8e48 823e
00000040: 5963 5bbd f956 473c 27ba 023e 20c8 b3be
00000050: 5344 2fbe 9425 33bf dd60 eebd beb4 6c3f
00000060: 2db1 5ebf 51fc 4d3f 03ba 333e bd2e 803e
00000070: 9278 9d3c 5d55 013e 78c8 4b3e 059a a43e
00000080: 722a 083e cf4b c93e 9f7e 963e 8f31 28be
00000090: 9b2d f1bc f5e2 38bf 7bd5 0e3f d487 b6be
000000a0: af8b 9ebf cfc8 253e faca 9d3e f021 3a3b
000000b0: de85 3b3f 5080 003f a01a e3be 78d1 d6be
000000c0: 9833 09be ef2e 1e3e f06d 86be bd08 96bd
000000d0: 92db fe3e 0017 ec3e 106a 2e3e 089f 673d
000000e0: ceb8 16bf 07c5 8dbe 27b2 4c3e efd0 1e3d
000000f0: c054 9b3e f86b 103f a65a 2d3e a1a6 d7be
00000100: e3e6 04be 2671 11be bf35 39bf a6d6 6abd
00000110: 8be7 9dbe 5ccc debd 5426 633f 570d 2b3e
00000120: dca3 09bf f269 09be 5bb3 27bf fe68 1abe
00000130: 99c9 99bd efe0 73be 5f46 ec3e 144c 2b3f
00000140: 42bc 903e 6aca f8be d03a 153f cb5d e03e
00000150: ae10 30bf 7deb b6be d56a a13f 675a f93e
00000160: df59 9fbe 6b7a a2bd 9bd7 46be da7f 62be
00000170: f148 8b3e f027 6dbe 0363 debd 7013 08be
00000180: f263 3f3d 53c7 e73d 37ec 6dbe aeaa 653e
00000190: f1f2 cfbe f4a1 cebe 7d82 08bc 6f8d 43be
000001a0: 3ee7 36be 63b6 103f 5c89 6e3e f962 083f
000001b0: 8908 313f 66d2 e0bd b371 a53c 37ab 6b3e
000001c0: 8dd0 59be 4b12 a2be 9b06 27bb 26e3 08be
000001d0: c843 433e 4901 3b3f baba 1cbe 873b 1ebf
000001e0: 1352 11bd 2c13 0bbe cda7 7ebe dd83 b33c
000001f0: 2c91 38be d8c0 913e 3d03 233d f7d1 58be
00000200: b8b4 a4be 8654 98bd 11a8 c4be e964 54be
00000210: 1461 88be 2933 00bf 3d61 bebe 11e9 99be
00000220: 713a 87be f721 cfbb 0827 79bd 8d34 6cbd
00000230: 3c9e cdbd 44c0 7c3e 69b7 593e 41ae 063e
00000240: ad13 923e bbca e43e 3270 023f 4f90 34be
00000250: fe89 a73e b871 003f 38c5 2bbf 03be 9bbe
00000260: a53e 1cbf c424 de3e 7500 04bf 28f2 c1be
00000270: 301f 303e f132 16be b7c6 c9be b2e4 c9be
00000280: 502b 29bd 60cc aa3e 06ed c23e 8d7a 313b
00000290: 4749 28be 33c3 073e 46bc c13e b8a2 893c
000002a0: 661c fb3e 8c60 bb3e 94fe 78be 21fe d63e
000002b0: 997a f73e dddf f03e 240b 693f 797d 063f
000002c0: 397b a63d 0559 1bbe 4346 6bbf cd47 85be
000002d0: d59c 4d3f dab3 a6be 5f68 97bf c356 bfbe
000002e0: 6377 743f f0fb 263f bc5f 86be 8151 863e
000002f0: bd38 263e 6456 c33d d785 993d 2caf 9f3e
00000300: 033b 8dbe fe15 3dbe bd68 56bf 1cf8 62bf
00000310: 31e2 093e 515e e13d 5384 1dbf 15b2 5fbf
00000320: 6b7c 783e 8dee 253e d528 43bb 7a8b 8bbf
00000330: 6af2 6fbe 3be1 ae3e 78e7 00bf 2980 b1be
00000340: 7621 5bbf d206 3e3f dd09 ea3c 5c41 bebe
00000350: a389 ec3d 998e 293f 260e 38bf 228b c13d
00000360: 149e d9bd 76bd 15bf c73c 18bf 955e 03be
00000370: 910a 013d 2b2e 9a3e 22c4 5b3e 3a8f 7c3f
00000380: bfcd 0f3e a1c6 74bf 23c7 4bbf 9a9f 99bd
00000390: 0885 aebe d4e2 1c3c 4a39 7c3e 0191 283f
000003a0: bab3 e33e 1549 67be 0a98 663e 7dc7 f33e
000003b0: aba0 5f3d 629d a03e 5597 03be 7e66 e23e
000003c0: c434 613d 2d70 afbe ab52 acbe d26c 263e
000003d0: f115 af3e 8e81 383e f07a a13d c823 813d
000003e0: 3b18 2d3e 9350 babd f8da a1bd 7b02 6c3e
000003f0: b7ab 1e3e 1213 50bd 78c3 2f3f b867 9f3e
