model/2023_1_3_hj_num_3.onnx (onnx, 9460 bytes, 10 tensors)

conv.0.weight f4 [3, 1, 5, 5]
00000000: c489 9abc 994f a03d d88d aebc df30 d4bd
00000010: c2b7 023e 31c8 7e3e ac58 61bd 4950 50be
00000020: 03ba 14be 8743 48be b084 4a3e 70a4 06be
00000030: cb7e 3a3d f849 dcbd 4bc0 76bd 5b1b aabe
00000040: f656 e8bd f30a 123e ffb1 053e c984 9b3d
00000050: e7e8 0fbe 6856 dabd 7c45 e93d 8031 72bd
00000060: 04c0 15be ba32 2fbe 7a50 dcbd b5f6 063e
00000070: 2c0a 223e c095 893d 5da2 03bd 42c6 1cbe
00000080: 32cc efbc 00da 0bbe 4c9e 37be 9c3a 4cbe
00000090: 3121 2bbd dd75 563e c02b c43d e5c8 bf3c
000000a0: 8feb 473c 8849 23be b19d 98bd 9ec5 c9bd
000000b0: be90 13be 9fdf 82be 4944 e8bd 4e2d 94bc
000000c0: 570d bfbd e8cb 6cbd 78ed 893d 3188 2b3e
000000d0: ab5d 0c3e 96dc a93d c955 6b3d a84a e43c
000000e0: c76d cbbd 923d 1dbe c1d0 9cbd 4110 1bbd
000000f0: f6e2 e0bd 5035 79bd 42a3 5ebd 8554 573b
00000100: a072 a33b a156 703e 49cc a43d 9fbd e13d
00000110: d746 09be 29bb 28be a039 0ebe fb59 59be
00000120: 8ee0 f7bd 0d3b ac3d a7ff ec3d
-0.01886452 0.07827682 -0.02130787 -0.10360884 0.1276541 0.24881054 -0.055016205 -0.20343126
-0.14524083 -0.1955701 0.19777179 -0.13148665 0.045531075 -0.10756296 -0.06024198 -0.33223996
-0.113447115 0.1426199 0.13056181 0.07593686 -0.14053689 -0.10661012 0.11390206 -0.059129238
-0.1462403 -0.17109194 -0.10757537 0.13180049 0.15824193 0.06718016 -0.032137264 -0.15310004
-0.029272173 -0.13657379 -0.17931479 -0.19944233 -0.0417797 0.20943399 0.09578657 0.023411224
0.012202158 -0.15946019 -0.07451952 -0.098521456 -0.14410684 -0.25561234 -0.11341149 -0.01808801
-0.09328716 -0.057811648 0.06734747 0.16751172 0.13707606 0.082940266 0.057454858 0.02786763
-0.09933048 -0.15355518 -0.07657004 -0.037857298 -0.10980789 -0.06084186 -0.054354914 0.0032856774
0.0049880296 0.23470546 0.08046777 0.110224955 -0.1340593 -0.16477646 -0.1388917 -0.21225731
-0.12103377 0.084097005 0.11572199

conv.0.bias f4 [3]
00000000: ef4a dfbd 3fe7 57be b0de 90be
-0.10902964 -0.21084307 -0.28294897

conv.5.weight f4 [24, 72]
00000000: 6e6c 01be 6839 1bbd eabb 8bbd 03ab 283b
00000010: 9d08 35bd d4f1 823c 1439 2b3d d213 043c
00000020: 4c21 fe3c 7ef6 bbbc 2242 1b3d 49b9 dc3b
00000030: d09f 3fbb 9048 0b3b 5786 913c bb50 5bbc
00000040: cd61 573c 8d35 1c3a 781c 07bd 250d a13c
00000050: 1c9b 283d 8646 9dbb 64d5 e93c 0c3f b9bc
00000060: df52 91bd 5a77 f03a 2084 973d 1321 b53b
00000070: a0c3 4f3d 6d6e a3bd 0c97 8abd eced abbc
00000080: 5407 923d f97a 25bd ee10 ec3c 0b46 b33c
00000090: f6d2 0cbd 35a4 5a3c 6f0d 503d 54ad 1c3d
000000a0: d4fe 8b3d 7adb 5ebc b784 bebd 0b01 afbc
000000b0: 0fee 22bd 1e5a 64bd 3330 1ebd bf6b 03bd
000000c0: f259 8e3b 97f2 0cbe 51f4 0ebd 0f86 8ebd
000000d0: b528 73bd 9921 9fbd ff21 b5bd 84a7 8cbd
000000e0: 500f 9abd 8406 f1bd 4bf9 e0bd e703 3bbd
000000f0: c28c bfba f971 e93c 3c5e 42bd 97e2 db3b
00000100: c9b7 25bc a406 61bd 3135 40bd 6880 06bd
00000110: efd1 dbbc abfb dbbd baa0 5cbc ab6a 1fbd
00000120: b2bf 363e c234 793d 9dfb 0d3d 3e9a 01bb
00000130: 70a5 2c3d 1c8d 973b 41bb 43bc bd1a 85bd
00000140: 7182 023d 8c7d 93bd ef05 903d 65d3 69bc
00000150: e92e 823d aadd 1f3d 8e70 ee3c 0412 a83c
00000160: 8222 93b9 5c22 02bb 7ca4 51bc e38e 6fbd
00000170: d631 e1bd 4b48 0bbd 201f c1bd f5d9 f73a
00000180: 9d89 933c f837 383d 14ac c7bc d8dd 90bb
00000190: 2356 6aba f23f b53d 60a1 c5bd a8ed ef3c
000001a0: d290 f8bc 9ef8 5c3d 9813 ecbc 8630 963b
000001b0: 9db3 26bc f0a5 ac3c 6dc4 cebc 3540 343d
000001c0: de4b 13bc 281d d7bc 1cf1 0b3a 5d00 223d
000001d0: 43bf 8fbd 25f8 613d 7f5e 0d3c 5268 c2bd
000001e0: 60d4 083b 5460 bd3d 77de 363d c2df 673d
000001f0: 0d73 d23d 7f72 5d3c e454 c4bd 8e15 d93d
00000200: 1474 d53b bc47 213e 0d9c 053d 36cb bb3d
00000210: 4870 053d f902 55be fead cd3b 2d0b 99bd
00000220: 20bf 283d 266f 25bd 680d cfbd 72fd 33bd
00000230: 89db 95bd e4e7 23bd 8f33 45bd 7cc2 a6bc
00000240: adb1 d4bd d6bc 25bd 129b edbd 2c2d 59bd
00000250: 0fd1 d0bd c787 22bc d715 0e3d 4ab9 cdbc
00000260: efa6 4a3d e7de c3bc e756 f63c 3b9e 803d
00000270: 0df4 e53d aa3d f53d 2fa8 ad3d a974 e93d
00000280: 2b1f d83d 11ea 003e 6c62 3e3d 80ca eb3b
00000290: 6e6e 663c e208 113d 71c1 053d c0b0 20b8
000002a0: c41e 053d 4e8b d93b 983d d23b 0bed 0ebd
000002b0: d8d8 3bbc fe0a c5bd 7be4 45bd 6f1e a2bc
000002c0: 3fb7 083d d6e9 f7bc 0b62 c5bc ef3c 283d
000002d0: 5fc5 20bc 62df 01bd 548e 10bd f27d c6bc
000002e0: 8c45 a7bc fd63 86bd 302d ccbd 55d5 42bd
000002f0: 0dce 53bd 508d 8abd 22d9 c1bd ef9a 2dbd
00000300: fec5 f23d 959d 0fbd f10e c63d a2a8 773a
00000310: b0a1 a03d 3afc c83d 3f03 fd3c bb0f 54bc
00000320: 7008 ed3c dd35 563d 99ba 183d 6e99 aebd
00000330: cc35 acbc 837a 16bd c919 91bd bda3 debd
00000340: 5d4d bfbd f17b aebd 1f43 183b 991c 543d
00000350: 79eb 313d 0d1e 81bc b506 263d e259 d0bc
00000360: 4132 e8bd 03a9 313d 8603 7d3a f316 bb3d
00000370: ad02 b5bc 9f51 a23c 1f63 7d3c ab97 d13c
00000380: ba7a 90bc b269 e03c 38bf d33b 1501 5cbd
00000390: 587e 79bd e273 a1bc 574b 91bc d890 55bc
000003a0: 0fe4 463d 02d9 a13c 745f a73c 7cbb 953d
000003b0: 68b1 8b3d 03ee c6ba 66b4 5b3d ce2e 933c
000003c0: 8286 003d ca7a a73d de76 06bc 6f2c bf3d
000003d0: 614a fb3c 1fca e33d 62b4 9b3c fcba 9d3d
000003e0: 33c0 d23d 88ee c33d 5c4c cc3d bd8c df3c
000003f0: 754a 7c3c eef2 813d 9bb3 953d 60d1 9e3d
-0.12639019 -0.037896544 -0.06822951 0.0025736697 -0.044197667 0.015984453 0.04180248 0.008061366
0.031021737 -0.022944685 0.037904866 0.006735955 -0.0029239543 0.0021252967 0.017764254 -0.013385947
0.013145876 0.00059589074 -0.032986134 0.019659588 0.04116355 -0.004799667 0.028544135 -0.02261307
-0.070958845 0.0018346116 0.07398248 0.0055276244 0.050723672 -0.079800464 -0.06767091 -0.020987473
0.07130304 -0.04040048 0.028816666 0.021883985 -0.034380876 0.013344814 0.05079406 0.038251236
0.06835714 -0.013602132 -0.09302657 -0.021362802 -0.03977781 -0.055750005 -0.038620185 -0.032085177
0.0043442184 -0.13764416 -0.034900967 -0.069591634 -0.059364993 -0.0777008 -0.08844375 -0.068678886
-0.07522452 -0.11768821 -0.10985049 -0.04565802 -0.0014614093 0.02849673 -0.04745315 0.006710361
-0.010114619 -0.054937974 -0.046925727 -0.0328373 -0.026833503 -0.10741361 -0.013466055 -0.038920086
0.17846563 0.06084133 0.034663785 -0.0019775773 0.04214996 0.004624976 -0.0119465 -0.064992405
0.03186268 -0.072016805 0.07032382 -0.014271592 0.06356604 0.039029755 0.029106405 0.020516403
-0.00028063735 -0.0019856906 -0.012795564 -0.058485877 -0.109958336 -0.03400449 -0.09429765 0.0018909561
0.018009955 0.04497525 -0.024374045 -0.004420977 -0.0008939227 0.08850087 -0.096499205 0.029288128
-0.030342493 0.053948037 -0.028817937 0.004583421 -0.010174659 0.021075219 -0.025240147 0.044006545
-0.008990256 -0.02625902 0.00053383573 0.039551128 -0.07018902 0.05516829 0.008628487 -0.09492554
0.0020878538 0.09246889 0.044645753 0.056609876 0.102758504 0.0135160675 -0.09586504 0.10599814
0.0065140817 0.1575002 0.032619525 0.09169619 0.032577783 -0.20801915 0.006276845 -0.07472835
0.041197896 -0.040389203 -0.10109979 -0.043942876 -0.07317264 -0.04001607 -0.048144873 -0.02035641
-0.103854515 -0.04046329 -0.11601843 -0.053021595 -0.10196125 -0.009920067 0.034688797 -0.025112767
0.049475607 -0.023909999 0.030070735 0.0628018 0.112281896 0.11974652 0.08479344 0.11399204
0.1055282 0.12589289 0.04648058 0.0071957707 0.014064414 0.035408862 0.032655183 -3.8311584e-05
0.032500044 0.006638921 0.006416034 -0.03489403 -0.011465274 -0.09621237 -0.0483136 -0.019789902
0.033377882 -0.030262869 -0.024094602 0.041073736 -0.009812682 -0.031707175 -0.035291985 -0.024229977
-0.020418905 -0.0656204 -0.09969556 -0.04756673 -0.051710177 -0.067652345 -0.09465243 -0.042384084
0.1185417 -0.03506239 0.096708186 0.00094474305 0.078433394 0.098137334 0.030885337 -0.012943204
0.028934687 0.05229746 0.03728733 -0.08525358 -0.021021746 -0.03673793 -0.07084996 -0.10871074
-0.09340928 -0.08519734 0.0023233367 0.051785085 0.043437455 -0.0157614 0.04053374 -0.025433484
-0.1133771 0.043374073 0.0009651709 0.091352366 -0.022096002 0.01981431 0.015465527 0.025585016
-0.017636646 0.02739415 0.006462004 -0.05371197 -0.060911506 -0.019708578 -0.01773612 -0.013035022
0.048557337 0.019756798 0.020431258 0.073111504 0.06820947 -0.0015177134 0.05363884 0.017966654
0.031378277 0.08177717 -0.008207051 0.09334647 0.030675115 0.11122536 0.019006912 0.0770168
0.10290565 0.095669806 0.09975502 0.027288789 0.015398611 0.06345163 0.07309648 0.07754779

conv.5.bias f4 [24]
00000000: f901 0a3d 2108 2fbd 1996 ef3d 74bb 8a3d
00000010: 453a b43d b768 433d 2642 a33d ff36 b03d
00000020: 5e64 543b cea0 193d 04d2 2e3d b82d 09bc
00000030: c2bd c03d 2b4a f13b 248b af3c a132 bebc
00000040: e632 0ebc 2dd6 893d 6e8b d23d dfd1 99bb
00000050: cc60 cabc 588d cf3d dd65 003d 998d 37bd
0.033693288 -0.04273236 0.11698551 0.06774035 0.088001765 0.047707286 0.07971601 0.0860424
0.0032408456 0.03750687 0.042680755 -0.008372717 0.094111934 0.007363578 0.021428652 -0.023217501
-0.008679127 0.06730304 0.102805 -0.004694208 -0.02470436 0.10134381 0.031347144 -0.044812772

BN.weight f4 [24]
00000000: a0df 163f 2a1e 533f 1d81 4c3f a2eb 223f
00000010: 0f84 ff3e c649 5e3f fdd3 de3e 4fa2 0e3f
00000020: 4d12 3f3f c8e0 043f 47ca 2e3f f1dd 443f
00000030: 7529 213f bdef 3b3f fd55 0a3f c411 393f
00000040: 9387 323f 3af3 513f c353 143f 2a61 653f
00000050: 56d3 453f db13 ed3e c3e5 f83e 4f82 313f
0.58934975 0.824679 0.7988451 0.636408 0.4990544 0.8683132 0.4352111 0.55716413
0.746373 0.5190549 0.682774 0.76901156 0.62953883 0.73412687 0.5403746 0.72292733
0.6973812 0.8201176 0.5794031 0.89601386 0.772756 0.4630421 0.48612794 0.6933946

BN.bias f4 [24]
00000000: 13c7 b83e f1c1 a93e 7330 e33e ca29 da3e
00000010: c1f2 aa3e 3941 1b3f 2cfc 993e 3eeb ac3e
00000020: 4c43 0a3f b377 ae3e c694 c83e 9a83 bf3e
00000030: 6402 cf3e 92ee b03e fdbb c13e 795e ae3e
00000040: 4c83 6a3e a7fd b13e 9459 b53e 9a9c e03e
00000050: 3240 9d3e d2b9 8e3e c3e2 9e3e e5c0 933e
0.36089382 0.33155778 0.443729 0.42610008 0.33388332 0.60646397 0.30075204 0.33773226
0.54008937 0.34075698 0.39176005 0.37405092 0.4043151 0.34557015 0.37838736 0.34056452
0.22901648 0.34763834 0.35419905 0.43869478 0.3071304 0.27876145 0.3103238 0.28858104

BN.running_mean f4 [24]
00000000: 1c85 13be 1039 17bd 4f5c db3d b1a3 f43d
00000010: cf17 b43d d2af eabb ae24 e53d b53c 023d
00000020: afee bf3d d980 41be 4346 adbb 17ab b5bd
00000030: e0d2 bf3c 6a25 093e e249 0abd 0884 b8bc
00000040: 31ec b43d ad68 423e 1ddf a83d 0687 403d
00000050: 8217 f83d a2fc 0b3d b840 973d debe ddbc
-0.14406246 -0.036919653 0.10710966 0.11945284 0.08793604 -0.0071620727 0.11188637 0.031796176
0.09371697 -0.18896808 -0.005287917 -0.088705234 0.023415983 0.13393179 -0.033761866 -0.022523895
0.088341124 0.18985243 0.082456805 0.04700377 0.12113859 0.034176476 0.07385391 -0.027068552

BN.running_var f4 [24]
00000000: 320c 293d 7186 a03c 4f85 cb3c 7306 9c3c
00000010: 9e37 963c e070 9a3c caf2 8d3c ef92 9d3c
00000020: 396a 2b3d 61e3 d13c 88ea 763c bece 533d
00000030: b7a6 843c af8c ec3c b9aa d13c 5db4 793c
00000040: 9728 bb3c 6182 ef3c 38fe f03c 1943 e63c
00000050: e806 e53c 7112 a43c 732c 813c 275a 523c
0.041271396 0.019595357 0.02484384 0.019046044 0.018337067 0.018852651 0.017327685 0.019235102
0.04184935 0.025621118 0.015070565 0.051710837 0.016192777 0.028875677 0.025594102 0.015240756
0.022846503 0.029236974 0.029418096 0.028108167 0.027957395 0.020028325 0.015768265 0.012838877

dense.1.weight f4 [6, 24]
00000000: c0e2 1f3f 9f85 bfbe 0282 c43e 9352 9b3e
00000010: 007c 0b3f b9b0 d23e d4e6 f93e 3e77 193f
00000020: edc5 c03e 3ae3 8a3e 3c73 993e dfe3 01be
00000030: a9c6 963e 41c0 7abd 2ab0 1c3f 0b2b 16be
00000040: 6ca6 cdbe f9ab e1bd 0851 1e3f 6824 cabe
00000050: 2a38 debd 1a3f fc3e 7859 a13e 36be 1abe
00000060: 142b f4bd 7fff 5e3e 5c8f 82be 37ee 0d3f
00000070: bfcc fcbd 0f58 acbe 0c05 0dbe a1e6 23be
00000080: 1e21 8fbe 4064 17be 9720 153f cc0a f03e
00000090: 7d59 44be 8c06 89be 7262 44be 4700 51be
000000a0: bc32 213e eaae 7ebe 515c 06be 6cf9 eebe
000000b0: a9ac 093f 7a3c 19be 0f7a 3abe 6a15 ba3e
000000c0: e38f f4bd b476 d93e 2395 253f 669d 36be
000000d0: 55af 01be 0a4b 95be 3638 e7bd e237 dfbd
000000e0: 14b2 72be 6288 4fbe 73aa 26be 6b98 99be
000000f0: 864d 4ebe eec0 ed3e a1fb d3bd 810b 83be
00000100: e496 ac3e c00f 063f 1820 04be c8ad bfbe
00000110: b74c 83be e23c e4bd aab9 febd 9c32 63be
00000120: 4953 d1bd d724 b8be ab89 8dbe 85e5 61be
00000130: 124d 96bd 0f01 93be daf8 d3bd cfa8 1bbe
00000140: c601 293f 601b 3bbe 6212 74be 9551 8bbe
00000150: 8664 76be d629 ee3e b463 d4bd 33be 083f
00000160: 6a47 a33e 868d b6be f704 0cbe d196 b03e
00000170: 21da d63e 788a bfbd 7a88 c13e 4b57 5ebe
00000180: 97b2 19be 595a aebe e67c 82be 9d80 68be
00000190: e64e e7bd 44d8 8dbe 4c53 bbbd 325e dfbd
000001a0: 2622 9ebe 0dc0 ed3e f7ec 6cbe 9c88 043f
000001b0: de1f 0b3f 5e87 a9be d7a2 01be b7ae ba3e
000001c0: 7f8b b9be fdd7 fd3e b4b2 fcbd 9ddb 9a3e
000001d0: bb36 8ebe 0be7 fdbd 3236 64be 6494 5fbe
000001e0: b6e3 09be 42be dd3e 8a2d 70be d9da 78be
000001f0: ae46 c0bd 8076 463f d495 56bd ceb6 cabd
00000200: d388 84be c18f 19be 5bbf 81be f8a2 87be
00000210: 66ba 5cbe 4718 91be 189f aebd ac48 8ebe
00000220: 4165 84bd 7e9a a1be 21d2 bebd 9166 0f3f
00000230: f4fc 9cbe f085 00bd c9d6 46be 2c38 003f
0.6245537 -0.37406632 0.38380438 0.30336437 0.54486084 0.41150454 0.4880892 0.59947574
0.37651005 0.27126485 0.2997073 -0.12684582 0.2944844 -0.061218504 0.61206305 -0.14664857
-0.40166032 -0.11019129 0.61842394 -0.394809 -0.10850556 0.49266893 0.31513572 -0.15111622
-0.11922279 0.21777152 -0.255 0.5544161 -0.1234374 -0.33660933 -0.13771456 -0.16005947
-0.27954954 -0.14784336 0.58252853 0.46883237 -0.19174762 -0.26762807 -0.19178179 -0.20410262
0.1574201 -0.24871412 -0.13121153 -0.4667467 0.53779083 -0.14964476 -0.18210624 0.36344463
-0.11941507 0.42473376 0.6468069 -0.1783348 -0.1266454 -0.29158813 -0.11290018 -0.10899331
-0.23700744 -0.2026687 -0.16275959 -0.29999098 -0.2014676 0.46436256 -0.10350729 -0.25594714
0.3370887 0.5236778 -0.12902868 -0.37437272 -0.25644466 -0.11144425 -0.12437756 -0.22187275
-0.102209635 -0.35965607 -0.27644095 -0.22060211 -0.07338919 -0.28711745 -0.10350199 -0.15201114
0.6601833 -0.18272161 -0.23835137 -0.2721068 -0.24061784 0.46516293 -0.10370579 0.5341522
0.31890422 -0.3565485 -0.13673769 0.34490064 0.41963294 -0.09352583 0.37799436 -0.21712987
-0.15009533 -0.34053305 -0.25485915 -0.22705312 -0.112943456 -0.2770406 -0.09146747 -0.10906638
-0.30885428 0.46435586 -0.2313727 0.5177095 0.543455 -0.3311109 -0.12659775 0.36461422
-0.3623924 0.49578848 -0.123387724 0.30245677 -0.2777613 -0.123975836 -0.22286299 -0.2183395
-0.13465771 0.43309218 -0.23454872 -0.24302234 -0.09388481 0.77524567 -0.05238898 -0.098981485
-0.2588564 -0.14996244 -0.25341305 -0.26491523 -0.2155548 -0.28338835 -0.085264385 -0.2778982
-0.06464625 -0.3156318 -0.09317423 0.5601588 -0.30661738 -0.031377733 -0.19417872 0.5008571

dense.1.bias f4 [6]
00000000: cdba 013e 7e8e 84bd ff20 bfbc e257 d9bc
00000010: bc9e 36bd 7018 af3c
0.12668915 -0.06472491 -0.023331163 -0.026531164 -0.044584975 0.021373957
