model/2023_2_16_hj_num_1_fp16.onnx (onnx, 76601 bytes, 14 tensors)

conv.0.weight f2 [16, 1, 3, 3]
0.2192 -0.0755 -0.1813 -0.0576 -0.1137 -0.2966 -0.07416 -0.2238
-0.1729 -0.1819 0.014984 -0.1355 0.02408 -0.1853 0.0485 0.2766
0.04425 -0.07745 0.2773 -0.1567 0.05783 0.2166 -0.02618 -0.01033
-0.01692 -0.1965 -0.09674 -0.1829 0.02162 -0.08093 -0.10345 0.0018835
-0.2932 0.3176 0.10004 0.1925 0.0908 0.2471 0.0624 0.1957
0.011955 0.0775 0.00981 0.1558 -0.2002 0.03864 -0.2312 -0.04614
-0.2487 0.3047 0.06042 0.1142 -0.1192 -0.2125 -0.1462 0.1306
0.0877 0.03394 0.02917 -0.05945 -0.2373 -0.04388 0.12 0.2632
0.04254 0.1063 -0.0849 0.0636 -0.1644 -0.010895 0.0458 -0.1936
0.17 0.018 -0.1593 -0.0287 -0.2517 -0.02556 0.04178 0.2505
-0.0619 0.09845 -0.04758 -0.1945 0.176 0.1892 -0.2228 -0.2554
-0.231 -0.2244 0.2233 -0.2365 -0.2327 0.1316 -0.261 -0.1552
0.2915 0.1964 -0.01878 0.0369 -0.01797 0.1976 0.1628 0.1252
0.0834 -0.01371 0.2416 -0.178 0.0926 0.279 0.0317 0.1497
-0.0349 -0.2742 -0.1045 0.10516 0.2405 -0.2295 0.1768 0.1523
0.1755 0.1498 0.2139 -0.2253 -0.0524 0.0992 0.033 -0.248
0.2135 -0.2842 0.2507 0.03084 -0.144 0.288 0.01455 -0.1481
-0.078 0.2266 0.0513 -0.0567 0.1434 0.3184 0.2878 -0.07184
00000000: 0433 d5ac cdb1 5fab 47af bfb4 bfac 29b3
00000010: 88b1 d2b1 ac23 56b0 2a26 eeb1 352a 6d34
00000020: aa29 f5ac 7034 04b1 672b ee32 b4a6 4aa1
00000030: 55a4 4ab2 31ae dab1 8925 2ead 9fae b717
00000040: b1b4 1535 672e 2932 d02d e833 fd2b 4332
00000050: 1f22 f62c 0621 fc30 68b2 f228 66b3 e8a9
00000060: f5b3 e034 bc2b 4f2f a1af cdb2 aeb0 2e30
00000070: 9d2d 5828 7827 9cab 98b3 9ea9 ae2f 3634
00000080: 7229 ce2e 6fad 122c 43b1 94a1 dd29 32b2
00000090: 7131 9c24 19b1 59a7 07b4 8ba6 5929 0234
000000a0: ecab 4d2e 17aa 39b2 a231 0e32 21b3 16b4
000000b0: 64b3 2eb3 2533 91b3 72b3 3630 2db4 f7b0
000000c0: aa34 4932 cfa4 b928 9aa4 5332 3631 0230
000000d0: 562d 05a3 bb33 b2b1 ed2d 7734 0f28 ca30
000000e0: 78a8 63b4 b0ae bb2e b233 58b3 a831 e030
000000f0: 9e31 cb30 d832 36b3 b5aa 592e 3928 f0b3
00000100: d532 8cb4 0334 e527 9cb0 9c34 7323 bdb0
00000110: feac 4033 912a 42ab 9730 1835 9b34 99ac

conv.0.bias f2 [16]
-0.2786 0.012314 -0.01095 0.1573 -0.1658 -0.06854 -0.1735 -0.1583
0.05685 0.0854 0.2659 0.005505 0.0377 -0.02098 0.0595 0.1893
00000000: 75b4 4e22 9ba1 0931 4eb1 63ac 8db1 11b1
00000010: 472b 772d 4134 a31d d328 5fa5 9e2b 0f32

conv.2.weight f2 [16, 16, 3, 3]
0.0007796 0.05362 0.0737 0.044 0.02306 -0.02466 -0.02861 -0.0106
0.03958 -0.04123 -0.01924 0.11774 0.001922 -0.004963 0.0688 0.042
0.03613 0.04852 -0.08154 -0.083 0.03876 -0.0384 -0.04688 -0.04236
-0.0389 0.00715 0.00137 -0.05237 0.001066 0.03552 0.0623 -0.0532
0.00758 -0.04138 -0.01242 0.0607 -0.03598 -0.0995 0.03873 -0.009186
-0.02258 -0.03934 -0.05234 -0.118 -0.0864 0.05 -0.08124 0.0264
-0.02675 -0.01639 -0.08704 -0.08374 -0.008644 0.02588 -0.0756 -0.05145
-0.007706 -0.02504 0.05557 -0.05484 -0.005116 0.04333 0.002367 0.01976
0.006847 0.0262 0.0352 -0.0491 -0.05328 0.006046 -0.01214 0.052
0.0013485 0.06085 0.04144 -0.01894 0.03888 0.02567 0.02908 0.05765
0.04993 0.05246 -0.04507 0.04736 0.03964 0.0604 -0.006268 0.09424
-0.01222 0.013824 -0.002636 -0.028 0.05588 0.01319 0.057 -0.0258
0.0398 0.0448 -0.012505 -0.07025 0.04764 0.01845 -0.01412 0.02736
-0.01758 -0.0854 0.0435 -0.02512 -0.02765 0.03604 -0.02553 -0.06244
-0.0538 0.0152 -0.08344 -0.07416 -0.07294 -0.05817 0.0594 0.0457
-0.0171 0.0757 -0.04446 -0.01475 0.03903 -0.0813 0.08276 -0.03818
0.06052 0.0577 0.0012455 0.05832 0.01633 -0.02313 -0.0727 0.03345
0.04388 0.07074 -0.04932 0.0741 0.0196 -0.04382 -0.06995 -0.0753
0.04202 0.04047 0.02461 -0.06396 -0.002031 0.03452 -0.01645 0.071
-0.05682 0.0322 0.08435 -0.0495 0.03488 0.06903 0.0808 -0.0697
0.0753 0.06635 -0.04703 -0.03293 -0.03958 0.02711 0.05988 0.05527
-0.0492 0.0667 0.01796 0.0686 0.02916 0.03485 0.0659 -0.03955
-0.05045 -0.0594 -0.07367 0.03546 -0.04453 -0.03894 0.0232 -0.08484
-0.02968 0.05615 -0.0776 0.01892 -0.0285 -0.0292 0.01915 -0.06464
0.04367 0.0422 -0.07825 0.0627 0.00877 -0.0079 -0.01009 -0.04727
-0.008194 -0.0315 0.00985 0.0366 -0.0963 0.0349 -0.02257 -0.012276
0.01712 -0.08575 0.01613 0.0505 0.01572 0.04596 -0.0541 0.0347
-0.01254 -0.04794 0.0812 -0.05573 0.03296 0.03775 -0.06152 0.04874
-0.01023 0.03108 0.05475 0.1135 0.0434 -0.0572 0.02371 0.0934
0.07275 -0.0336 -0.01561 0.02565 -0.03537 0.03912 0.0325 0.0509
-0.001808 -0.05994 -0.06073 -0.00821 0.0523 -0.0468 0.06757 0.00883
0.00919 -0.0798 -0.03625 0.05832 -0.04807 -0.04803 0.04727 -0.01195
00000000: 6312 dd2a b82c a229 e725 50a6 53a7 6da1
00000010: 1129 47a9 eda4 892f df17 159d 672c 6029
00000020: a028 362a 38ad 50ad f628 eaa8 00aa 6ca9
00000030: fba8 521f 9d15 b4aa 5e14 8c28 f92b cfaa
00000040: c31f 4ca9 5ca2 c52b 9ba8 5eae f528 b4a0
00000050: c8a5 09a9 b3aa 8daf 88ad 662a 33ad c226
00000060: d9a6 32a4 92ad 5cad 6da0 a026 d7ac 96aa
00000070: e49f 69a6 1d2b 05ab 3d9d 8c29 d918 0f25
00000080: 031f b526 8128 49aa d2aa 311e 37a2 a82a
00000090: 8615 ca2b 4e29 d9a4 fa28 9226 7227 612b
000000a0: 642a b72a c5a9 102a 1329 bb2b 6b9e 082e
000000b0: 42a2 1423 6699 2ba7 272b c122 4c2b 9ba6
000000c0: 1829 bc29 67a2 7fac 192a b924 3ba3 0127
000000d0: 80a4 77ad 9129 6ea6 14a7 9d28 89a6 feab
000000e0: e3aa c823 57ad bfac abac 72ab 9a2b d929
000000f0: 61a4 d82c b1a9 8da3 ff28 34ad 4c2d e3a8
00000100: bf2b 632b 1a15 772b 2e24 eca5 a7ac 4828
00000110: 9e29 872c 50aa be2c 0525 9ca9 7aac d2ac
00000120: 6129 2e29 4d26 18ac 2998 6b28 36a4 8b2c
00000130: 46ab 1f28 662d 56aa 7728 6b2c 2c2d 76ac
00000140: d22c 3f2c 05aa 37a8 11a9 f126 aa2b 132b
00000150: 4caa 452c 9924 642c 7727 7628 382c 10a9
00000160: 75aa 9aab b7ac 8a28 b3a9 fca8 f025 6ead
00000170: 99a7 302b f7ac d824 4ca7 7aa7 e724 23ac
00000180: 9729 6729 02ad 032c 7e20 0ba0 2ba1 0daa
00000190: 32a0 08a8 0b21 af28 2aae 7828 c7a5 49a2
000001a0: 6224 7dad 2124 772a 0624 e229 edaa 7128
000001b0: 6ca2 23aa 322d 22ab 3828 d528 e0ab 3d2a
000001c0: 3da1 f527 022b 442f 8e29 52ab 1226 fa2d
000001d0: a82c 4da8 fea3 9126 87a8 0229 2928 842a
000001e0: 6897 acab c6ab 34a0 b22a fea9 532c 8520
000001f0: b520 1bad a4a8 772b 27aa 26aa 0d2a 1ea2

conv.2.bias f2 [16]
0.0413 0.03836 0.01286 0.04626 0.03093 -0.0299 -0.05862 0.071
0.01315 0.0157 0.03857 -0.05576 -0.02007 0.00616 -0.0618 -0.005505
00000000: 4929 e928 9622 ec29 eb27 a8a7 81ab 8b2c
00000010: bc22 0524 f028 23ab 23a5 4f1e e9ab a39d

conv.4.weight f2 [32, 16, 3, 3]
0.07983 0.0305 0.07275 0.03644 0.05426 -0.02602 -0.01115 -0.014946
0.0246 0.0315 0.00939 0.05963 -0.000558 0.02829 0.06152 -0.04364
0.0177 0.02394 -0.00199 0.0521 -0.05222 -0.01935 -0.0789 0.0537
-0.06287 -0.07745 0.01115 -0.01675 0.0172 -0.02704 0.015114 0.05798
0.02985 -0.0562 0.0367 -0.0178 -0.01506 0.05753 0.014404 -0.07666
-0.05765 0.07086 0.03394 -0.02495 -0.01918 -0.001105 -0.0174 0.0824
0.003796 -0.01607 0.0369 0.0621 -0.0326 0.03099 -0.073 0.03177
-0.001124 0.010284 0.02362 -0.0746 0.05362 0.02635 0.05542 -0.0507
0.05127 -0.007137 0.0378 -0.01015 0.001115 -0.01262 0.03903 0.007366
0.04105 0.0243 -0.04623 -0.01135 -0.0242 -0.0599 -0.02794 0.0609
0.02867 -0.07385 0.03748 0.03723 0.03076 0.0512 0.0401 -0.0339
-0.04028 0.0675 -0.01604 -0.02484 -0.012054 0.05115 0.06464 -0.02505
0.0066 -0.0536 -0.013535 0.03488 -0.04385 -0.00218 -0.07825 -0.0563
0.02783 0.01768 -0.04617 -0.01923 0.02655 -0.06964 0.03183 0.03394
0.0443 0.0381 -0.01098 0.04047 -0.00674 -0.00711 -0.0681 -0.04187
0.00903 0.01662 -0.04715 -0.05487 -0.002497 0.02931 -0.0377 0.06946
0.02145 -0.02742 0.0307 -0.02867 -0.07355 0.05844 0.08624 -0.0368
-0.07086 0.00961 -0.0424 -0.02213 -0.05673 -0.05667 -0.0485 -0.03436
-0.0867 0.02512 0.06256 -0.02516 -0.0579 -0.03674 -0.05923 -0.01958
-0.0249 -0.0571 0.04465 -0.04694 -0.02835 -0.00233 -0.0687 -0.08716
0.02118 0.03195 0.003742 0.01216 -0.0814 0.04962 -0.02802 -0.05075
0.01376 -0.04614 0.0564 0.04974 -0.0319 0.02257 0.01098 0.02113
-0.01595 0.04352 -0.0691 0.006676 0.0513 -0.0642 -0.04245 -0.01498
-0.03778 0.001938 0.0674 0.0242 0.04056 -0.04813 -0.0412 0.00764
0.03305 -0.004883 -0.05496 0.0746 -0.00234 0.00771 0.00553 -0.04688
-0.0235 -0.07635 -0.04044 -0.03842 -0.00828 -0.08185 -0.007027 0.01461
-0.00286 -0.06793 0.0279 0.05878 0.005108 0.0321 0.03427 0.0393
-0.02127 0.0565 -0.0637 0.0766 0.006187 -0.05392 0.04974 -0.0775
-0.0944 -0.00955 -0.05255 -0.0177 -0.00445 -0.0367 -0.05243 -0.02734
-0.04886 0.0435 0.03333 0.0326 0.02962 -0.0743 0.0743 -0.02705
-0.00695 -0.03802 0.02243 -0.01884 0.005337 -0.032 0.01464 0.0004008
-0.00923 0.01038 0.015076 -0.0379 -0.0408 0.034 0.05664 0.03705
00000000: 1c2d cf27 a82c aa28 f22a a9a6 b5a1 a7a3
00000010: 4c26 0828 cf20 a22b 9290 3e27 e02b 96a9
00000020: 8824 2126 1398 ab2a afaa f4a4 0dad e02a
00000030: 06ac f5ac b521 4aa4 6724 eca6 bd23 6c2b
00000040: a427 32ab b328 8fa4 b6a3 5d2b 6023 e8ac
00000050: 61ab 892c 5828 63a6 e9a4 8794 74a4 462d
00000060: c61b 1da4 b928 f32b 2ca8 ef27 acac 1128
00000070: 9b94 4421 0c26 c6ac dd2a bf26 182b 7daa
00000080: 902a 4f9f d728 32a1 9114 76a2 ff28 8b1f
00000090: 4129 3926 eba9 d0a1 32a6 abab 27a7 cc2b
000000a0: 5727 baac cc28 c428 e027 8e2a 2229 57a8
000000b0: 28a9 522c 1ba4 5ca6 2ca2 8c2a 232c 6aa6
000000c0: c21e dcaa eea2 7728 9da9 7798 02ad 35ab
000000d0: 2027 8724 e9a9 eca4 cc26 75ac 1328 5828
000000e0: ac29 e028 9fa1 2e29 e79e 489f 5cac 5ca9
000000f0: a020 4124 09aa 06ab 1d99 8127 d3a8 722c
00000100: 7e25 05a7 dc27 57a7 b5ac 7b2b 852d b6a8
00000110: 89ac ec20 6da9 aaa5 43ab 41ab 35aa 66a8
00000120: 8cad 6e26 012c 71a6 69ab b4a8 95ab 03a5
00000130: 60a6 4fab b729 02aa 42a7 c698 66ac 94ad
00000140: 6c25 1728 aa1b 3a22 36ad 5a2a 2ca7 7faa
00000150: 0c23 e8a9 382b 5e2a 15a8 c725 9f21 6925
00000160: 15a4 9229 6cac d61e 912a 1cac 6fa9 aba3
00000170: d6a8 f017 502c 3226 3129 29aa 46a9 d31f
00000180: 3b28 009d 09ab c62c cb98 e51f aa1d 00aa
00000190: 04a6 e3ac 2da9 eba8 3da0 3dad 329f 7b23
000001a0: db99 59ac 2427 862b 3b1d 1c28 6328 0829
000001b0: 72a5 3b2b 14ac e72c 561e e7aa 5e2a f6ac
000001c0: 0bae e4a0 baaa 88a4 8f9c b3a8 b6aa 00a7
000001d0: 41aa 9129 4428 2c28 9527 c1ac c12c eda6
000001e0: 1e9f dea8 be25 d3a4 771d 19a8 7f23 910e
000001f0: baa0 5121 b823 daa8 39a9 5a28 402b be28

conv.4.bias f2 [32]
-0.01126 0.05383 0.0452 0.06464 -0.06586 0.03113 0.04547 0.0636
0.03296 -0.04822 0.03134 -0.0458 0.05826 -0.02159 -0.04504 -0.02759
0.001828 -0.0473 -0.06757 0.02286 0.01493 0.0546 0.06195 0.01743
0.005985 -0.05624 0.07904 0.02437 -0.02298 -0.001375 0.0645 0.0545
00000000: c4a1 e42a c929 232c 37ac f827 d229 122c
00000010: 3828 2caa 0328 dda9 752b 87a5 c4a9 10a7
00000020: 7d17 0eaa 53ac da25 a523 fd2a ee2b 7624
00000030: 211e 33ab 0f2d 3d26 e2a5 a295 212c fa2a

conv.7.weight f2 [64, 32, 3, 3]
0.03876 -0.0743 0.003193 0.06476 0.0283 0.02884 0.03915 -0.03134
-0.02151 -0.001746 0.0339 -0.0715 -0.010345 -0.0435 0.00943 -0.02902
0.02882 -0.01245 0.03247 0.06107 -0.02208 -0.0434 0.0158 -0.02551
-0.01343 0.00634 0.01755 -0.03305 0.0647 -0.02599 -0.06107 -0.007786
-0.04233 -0.06012 0.0287 -0.003725 -0.05157 -0.03632 -0.03577 -0.05923
-0.0004935 0.02136 -0.012825 -0.01718 0.05173 -0.01936 -0.01764 0.03772
-0.0368 -0.0316 0.0374 0.04745 0.0309 0.02574 -0.03775 0.04352
-0.0503 0.02853 0.0569 -0.0278 0.011444 -0.01087 -0.01689 0.00684
-0.01631 0.04953 0.01611 -0.04 -0.0207 -0.003471 -0.014046 0.0399
0.0314 0.009 -0.00468 -0.038 -0.04004 0.03204 0.01031 -0.01385
0.04617 0.013855 -0.04166 -0.02927 0.006306 0.01083 0.02574 0.00696
0.0431 0.01276 -0.03513 0.06946 -0.001595 -0.04297 0.0479 0.000453
0.00338 -0.03757 0.02888 0.02267 0.01155 -0.04565 -0.03506 -0.0744
0.02707 -0.03387 -0.0226 0.05835 -0.005646 -0.00933 0.0534 -0.02466
0.006947 -0.04037 0.04034 0.010445 -0.02843 -0.0386 0.004387 -0.0376
0.01898 0.003647 -0.035 0.02052 0.02898 0.014885 -0.03757 -0.00863
-0.03384 -0.03516 -0.04987 0.01129 0.002604 -0.03003 0.02303 -0.08356
0.010185 -0.03384 0.01072 0.00413 0.04398 0.02402 0.0338 0.02818
-0.02727 -0.01386 -0.01752 0.012276 -0.0303 -0.01749 0.02583 -0.07666
0.00751 -0.02629 -0.02527 0.02237 -0.0001699 0.03528 -0.012 -0.03247
-0.00875 0.01717 0.03253 0.02289 -0.0354 0.01163 -0.05374 0.05356
0.03687 0.01375 0.006855 -0.008896 0.02946 -0.02457 0.00479 0.04544
-0.0048 0.01851 -0.007168 0.007484 0.01459 -0.04605 -0.01317 -0.001106
0.0003896 -0.01723 0.00997 -0.007652 -0.0651 0.04205 0.00234 0.003523
-0.0144 -0.0602 -0.03177 -0.02464 -0.03412 -0.08 0.04324 -0.0355
0.01843 0.0361 0.004116 0.02415 -0.02475 -0.0439 0.04434 -0.0365
-0.0483 0.0259 -0.009445 -0.038 0.02359 -0.0495 -0.03903 -0.04138
0.05865 0.008965 -0.02544 -0.02206 -0.01755 -0.0347 -0.02536 -0.02953
0.01747 0.02068 0.02048 0.02347 -0.0573 0.02985 -0.04575 -0.04968
0.0001281 0.01345 0.0651 -0.01175 -0.0232 0.00756 -0.02858 -0.03192
0.0317 -0.03967 -0.0006986 -0.02292 -0.007214 -0.02184 -0.03464 -0.0526
-0.04395 0.02005 0.003706 0.02554 -0.02193 0.005184 -0.01531 0.0239
00000000: f628 c1ac 8a1a 252c 3f27 6227 0329 03a8
00000010: 82a5 2797 5728 93ac 4ca1 91a9 d420 6ea7
00000020: 6127 60a2 2828 d12b a7a5 8ea9 0b24 88a6
00000030: e0a2 7e1e 7e24 3ba8 242c a7a6 d1ab f99f
00000040: 6ba9 b2ab 5927 a19b 9aaa a6a8 94a8 95ab
00000050: 0b90 7825 91a2 66a4 9f2a f5a4 84a4 d428
00000060: b6a8 0ba8 ca28 132a e927 9726 d5a8 9229
00000070: 70aa 4e27 482b 1ea7 dc21 91a1 53a4 011f
00000080: 2da4 572a 2024 1fa9 4da5 1c9b 31a3 1b29
00000090: 0528 9c20 cb9c dda8 20a9 1a28 4721 17a3
000000a0: e929 1823 55a9 7ea7 751e 8c21 9726 211f
000000b0: 8429 8822 7fa8 722c 8896 80a9 222a 6c0f
000000c0: ec1a cfa8 6527 ce25 ea21 d8a9 7da8 c3ac
000000d0: ee26 56a8 c9a5 782b c89d c7a0 d62a 50a6
000000e0: 1d1f 2ba9 2a29 5921 47a7 f1a8 7e1c d0a8
000000f0: dc24 781b 7ba8 4125 6b27 9f23 cfa8 6ba0
00000100: 55a8 80a8 62aa c821 5519 b0a7 e525 59ad
00000110: 3721 55a8 7d21 3b1c a129 2626 5428 3727
00000120: fba6 19a3 7ca4 4922 c2a7 7aa4 9d26 e8ac
00000130: b11f bba6 78a6 ba25 9189 8428 25a2 28a8
00000140: 7ba0 6524 2a28 dc25 88a8 f421 e1aa db2a
00000150: b828 0a23 051f 8ea0 8b27 4aa6 e81c d129
00000160: ea9c bd24 579f aa1f 7823 e5a9 bea2 8894
00000170: 620e 69a4 1b21 d69f 2bac 6229 cb18 371b
00000180: 5fa3 b5ab 11a8 4fa6 5ea8 1fad 8929 8ba8
00000190: b824 9f28 371c 2f26 56a6 9fa9 ad29 aca8
000001a0: 2faa a126 d6a0 dda8 0a26 56aa ffa8 4ca9
000001b0: 822b 9720 83a6 a6a5 7ea4 71a8 7ea6 8fa7
000001c0: 7924 4b25 3e25 0226 56ab a427 dba9 5caa
000001d0: 3308 e322 2b2c 04a2 f0a5 be1f 51a7 16a8
000001e0: 0f28 14a9 b991 dea5 639f 97a5 6fa8 bcaa
000001f0: a0a9 2225 971b 8a26 9da5 4f1d d7a3 1e26

conv.7.bias f2 [64]
0.04852 -0.01057 -0.03308 -0.04965 -0.03815 0.06223 0.04187 -0.02206
0.03006 -0.02444 -0.002832 -0.02718 0.03296 -0.04218 0.04007 0.01231
0.04205 -0.02328 0.001257 0.04926 0.06903 -0.002367 -0.05246 -0.05777
-0.06476 -0.0493 -0.0727 -0.03053 0.0423 -0.0699 0.04095 0.02847
0.02478 0.00859 -0.07855 0.01089 0.0645 0.04416 0.01929 0.01665
-0.0696 0.002705 0.02849 0.05786 0.03156 -0.05225 -0.0505 -0.04214
0.03882 0.01237 0.02525 0.02632 0.05722 -0.08496 -0.03607 0.00816
0.0551 -0.0815 0.03143 0.05408 -0.03104 0.0856 0.05905 -0.04416
00000000: 362a 69a1 3ca8 5baa e2a8 f72b 5c29 a6a5
00000010: b227 42a6 cd99 f5a6 3828 66a9 2129 4d22
00000020: 6229 f6a5 2615 4e2a 6b2c d998 b7aa 65ab
00000030: 25ac 4faa a7ac d1a7 6a29 79ac 3e29 4a27
00000040: 5826 6620 07ad 9321 212c a729 f024 4324
00000050: 74ac 8a19 4b27 682b 0a28 b0aa 77aa 65a9
00000060: f828 5522 7726 bd26 532b 70ad 9ea8 2e20
00000070: 0e2b 37ad 0628 ec2a f2a7 7a2d 8f2b a7a9

bn.weight f2 [64]
1.142 1.118 1.099 1.081 1.08 1.149 1.188 1.104
1.155 1.107 1.109 1.181 1.074 1.128 1.098 1.094
1.113 1.185 1.172 1.089 1.076 1.09 1.154 1.084
1.177 1.197 1.111 1.134 1.102 1.174 1.14 1.057
1.117 1.06 1.129 1.112 1.135 1.118 1.081 1.192
1.13 1.117 1.103 1.077 1.206 1.202 1.115 1.112
1.151 1.091 1.182 1.166 1.113 1.176 1.111 1.123
1.169 1.148 1.135 1.137 1.074 1.04 1.057 1.118
00000000: 913c 793c 653c 533c 523c 993c c13c 6a3c
00000010: 9f3c 6e3c 703c b93c 4c3c 833c 643c 603c
00000020: 743c bd3c b03c 5b3c 4e3c 5c3c 9e3c 563c
00000030: b53c ca3c 723c 893c 683c b23c 8f3c 3a3c
00000040: 783c 3d3c 843c 733c 8a3c 793c 533c c53c
00000050: 853c 783c 693c 4f3c d33c cf3c 763c 733c
00000060: 9b3c 5d3c ba3c aa3c 743c b43c 723c 7e3c
00000070: ad3c 983c 8a3c 8c3c 4c3c 293c 3a3c 793c

bn.bias f2 [64]
-0.09766 0.0791 -0.1702 -0.02704 0.08746 0.03964 -0.0418 0.12494
-0.08105 -0.02003 0.11633 0.0278 -0.1426 0.1495 0.1731 0.06122
0.004402 -0.0915 -0.14 0.0984 -0.05762 0.15 0.0942 0.1707
0.04578 -0.10205 0.1569 0.01194 0.0945 -0.06384 -0.07837 0.1849
0.0944 0.1356 0.1725 -0.1681 0.1261 -0.11273 0.07574 -0.0854
-0.1085 -0.1033 -0.002743 0.1461 0.1009 -0.0737 0.08875 0.1411
-0.0976 0.1698 -0.1181 0.03818 0.0732 0.0164 0.11115 -0.1064
-0.10675 0.0969 -0.08044 -0.178 0.163 0.0891 0.08655 0.06073
00000000: 40ae 102d 72b1 eca6 992d 1329 5aa9 ff2f
00000010: 30ad 21a5 722f 1e27 90b0 c930 8a31 d62b
00000020: 821c dbad 7bb0 4c2e 60ab cd30 072e 7631
00000030: dc29 88ae 0531 1d22 0c2e 16ac 04ad eb31
00000040: 0b2e 5730 8531 61b1 0930 37af d92c 77ad
00000050: f2ae 9cae 9e99 ad30 752e b8ac ae2d 8430
00000060: 3fae 6f31 8faf e328 af2c 3324 1d2f cfae
00000070: d5ae 342e 26ad b2b1 3731 b42d 8a2d c62b

bn.running_mean f2 [64]
0.06223 -0.0163 -0.06116 -0.0414 -0.02951 0.05258 0.07385 -0.04257
0.01287 -0.02072 -0.00786 0.02264 0.02596 -0.01602 0.05997 0.02536
0.03632 0.01103 0.003847 0.05856 0.0771 0.02817 -0.03925 -0.03632
-0.0679 -0.0736 -0.0813 0.01643 0.02646 -0.0768 0.0725 0.01852
0.04648 0.00729 -0.06934 0.002987 0.05145 0.03882 0.01199 0.002216
-0.09033 0.000541 0.02937 0.04532 0.02327 -0.03903 -0.02582 -0.03412
0.0684 0.02574 0.01706 0.05853 0.05322 -0.09564 -0.03403 0.04852
0.07184 -0.0809 0.04053 0.05054 -0.02353 0.0856 0.0475 -0.02492
00000000: f72b 2ca4 d4ab 4da9 8ea7 bb2a ba2c 73a9
00000010: 9722 4ea5 06a0 cc25 a526 1aa4 ad2b 7e26
00000020: a628 a621 e11b 7f2b ef2c 3627 06a9 a6a8
00000030: 58ac b6ac 34ad 3524 c626 eaac a42c be24
00000040: f329 771f 70ac 1e1a 962a f828 2422 8a18
00000050: c8ad 6f10 8527 cd29 f525 ffa8 9ca6 5ea8
00000060: 612c 9726 5e24 7e2b d02a 1fae 5ba8 362a
00000070: 992c 2dad 3029 782a 06a6 7a2d 142a 61a6

bn.running_var f2 [64]
7.46e-05 8.43e-05 7.89e-05 0.0001131 5.83e-05 0.0001233 0.0001597 0.0001942
0.0001178 0.0001001 0.0002239 0.000422 0.0001951 0.00010884 0.0001177 0.0002371
6.95e-05 0.0004404 0.0001135 0.0002496 0.000138 0.0001098 0.0001487 0.0001058
0.0002207 0.0002148 0.0001327 0.0003755 0.000261 0.0002283 0.000289 0.000137
0.000134 7.35e-05 9.11e-05 0.00010103 0.000218 0.0001823 0.0001346 0.000138
0.0001073 0.000486 0.0001439 0.000183 9.876e-05 0.0003548 0.0001 0.0002073
0.000416 0.0003393 7.075e-05 0.0001862 0.0001353 0.0001384 0.0002171 0.0002947
0.0002944 6.217e-05 0.0001015 0.0001046 0.00011367 0.0001663 7.993e-05 0.000174
00000000: e404 8605 2c05 6a07 d203 0a08 3c09 5d0a
00000010: b807 8f06 560b ea0e 650a 2207 b707 c50b
00000020: 8e04 370f 7007 170c 8608 3207 df08 ef06
00000030: 3b0b 0a0b 5908 270e 470c 7b0b bc0c 7d08
00000040: 6408 d104 f805 9f06 250b f909 6908 8608
00000050: 0807 f60f b708 ff09 7906 d00d 8e06 cb0a
00000060: d10e 8f0d a304 1a0a 6f08 8908 1d0b d40c
00000070: d30c 1304 a706 db06 7307 7309 3d05 b409

dense.1.weight f2 [6, 64]
-0.1453 0.076 -0.2585 0.0951 0.0593 0.1332 -0.157 0.265
-0.1827 0.05618 0.277 -0.07294 -0.2422 0.1371 0.01408 -0.02386
-0.005436 -0.1587 0.01886 0.2485 0.0467 0.1061 0.2603 0.2101
0.0808 -0.06116 0.1445 -0.08154 0.2288 -0.01987 -0.1603 0.2058
-0.02342 0.1426 0.12177 -0.2297 0.2588 -0.2656 0.2025 -0.1229
-0.1715 -0.2432 0.06122 0.2163 0.11725 -0.1873 0.04242 0.1184
-0.242 0.1765 -0.2212 0.10754 0.177 -0.05264 0.2896 -0.2087
-0.2052 0.19 -0.05814 -0.1488 0.1926 0.1804 0.07166 0.1581
0.1794 -0.153 0.0393 0.2184 -0.2343 0.2191 0.1316 0.08496
-0.0489 -0.063 0.1 0.1603 0.2107 -0.2534 -0.2396 0.03125
0.1364 0.2219 0.2456 0.0778 0.1614 0.00672 0.0847 -0.119
-0.1202 -0.1342 -0.1345 0.001342 0.01233 -0.1664 0.1968 -0.0562
-0.121 0.1721 -0.1514 0.1666 0.05457 0.1317 0.1595 -0.2372
0.1415 0.2062 -0.001446 -0.1193 -0.2134 0.0704 -0.12244 -0.09467
0.01085 -0.1711 0.000633 0.2218 0.197 -0.1772 0.1438 0.215
0.1886 -0.1296 0.2114 -0.12067 -0.2006 -0.09534 0.11206 -0.1345
-0.1901 0.2351 0.05725 0.07776 -0.0664 0.08093 0.1482 -0.12036
0.1791 -0.1786 -0.1272 0.1849 0.1981 0.1729 -0.02058 0.1431
0.1583 0.2092 0.119 -0.0797 0.1799 -0.2401 -0.0916 0.1233
0.193 0.2336 -0.2311 -0.01912 0.049 0.2166 -0.04666 -0.0808
-0.06128 -0.06836 -0.12244 0.1655 -0.1343 0.001776 -0.1462 0.1396
-0.0567 0.0669 0.2397 -0.1534 0.266 -0.1642 -0.1561 -0.1339
0.14 -0.0834 0.2072 -0.2192 -0.08344 0.1636 -0.07336 -0.0726
0.005383 0.2004 -0.2184 -0.0274 0.1382 -0.0804 -0.1326 0.11035
0.05856 0.121 -0.03305 -0.2029 0.01755 -0.2228 0.1132 -0.0765
0.1445 -0.195 -0.11615 0.1906 -0.00506 0.116 0.02414 0.221
-0.1886 0.11945 -0.1136 -0.0676 -0.1896 0.2498 -0.1399 0.156
0.11066 -0.2418 0.1697 0.2666 -0.2286 -0.269 0.1431 0.1777
0.11053 0.1033 0.1555 -0.121 -0.1475 0.0957 -0.1364 -0.2332
0.11554 0.2164 -0.2188 0.04364 -0.05298 0.1892 0.2676 0.2485
0.09894 0.1516 -0.0957 -0.1937 -0.1816 0.153 -0.1394 0.001782
0.0388 -0.1772 -0.03702 -0.1927 0.11865 -0.1492 0.1721 -0.1665
00000000: a6b0 dd2c 23b4 162e 972b 4330 06b1 3d34
00000010: d9b1 312b 6f34 abac c0b3 6330 3523 1ca6
00000020: 919d 14b1 d424 f433 fa29 ca2e 2a34 b932
00000030: 2c2d d4ab a030 38ad 5233 16a5 21b1 9632
00000040: ffa5 9030 cb2f 5ab3 2434 40b4 7b32 deaf
00000050: 7db1 c8b3 d62b ec32 812f feb1 6e29 942f
00000060: beb3 a631 14b3 e22e aa31 bdaa a234 aeb2
00000070: 91b2 1432 71ab c3b0 2a32 c631 962c 0f31
00000080: be31 e5b0 0829 fd32 7fb3 0333 3630 702d
00000090: 42aa 08ac 662e 2131 be32 0eb4 abb3 0028
000000a0: 5d30 1a33 dc33 fb2c 2a31 e21e 6c2d 9eaf
000000b0: b1af 4bb0 4eb0 7f15 5022 53b1 4c32 32ab
000000c0: beaf 8231 d8b0 5531 fc2a 3730 1b31 97b3
000000d0: 8730 9932 ec95 a3af d4b2 812c d6af 0fae
000000e0: 8e21 7ab1 2f11 1933 4e32 acb1 9a30 e132
000000f0: 0932 26b0 c432 b9af 6bb2 1aae 2c2f 4eb0
00000100: 15b2 8633 542b fa2c 40ac 2e2d be30 b4af
00000110: bb31 b7b1 12b0 eb31 5732 8831 45a5 9430
00000120: 1131 b232 9e2f 1aad c231 afb3 ddad e42f
00000130: 2d32 7a33 65b3 e5a4 462a ee32 f9a9 2cad
00000140: d8ab 60ac d6af 4c31 4cb0 4617 aeb0 7830
00000150: 42ab 482c ac33 e9b0 4234 41b1 ffb0 49b0
00000160: 7b30 56ad a132 04b3 57ad 3c31 b2ac a5ac
00000170: 831d 6a32 fdb2 04a7 6c30 25ad 3eb0 102f
00000180: 7f2b be2f 3ba8 7eb2 7e24 21b3 3f2f e5ac
00000190: a030 3db2 6faf 1932 2e9d 6d2f 2e26 1233
000001a0: 09b2 a52f 45af 54ac 11b2 fe33 7ab0 fe30
000001b0: 152f bdb3 6e31 4434 51b3 4eb4 9430 b031
000001c0: 132f 9c2e fa30 beaf b8b0 202e 5db0 76b3
000001d0: 652f ed32 00b3 9629 c8aa 0e32 4834 f433
000001e0: 552e da30 20ae 33b2 d0b1 e530 76b0 4d17
000001f0: f728 acb1 bda8 2bb2 982f c6b0 8231 54b1

dense.1.bias f2 [6]
0.2386 -0.01677 -0.006775 0.010704 -0.1482 -0.1592
00000000: a333 4ba4 f09e 7b21 beb0 18b1
