model/2023_1_17_hj_num_1.onnx (onnx, 103769 bytes, 20 tensors)

conv.0.weight f4 [8, 1, 3, 3]
-0.145468 0.07121241 -0.08248585 -0.13257979 0.21535932 0.04139018 -0.122159265 -0.24777165
-0.05803246 0.29115626 -0.23104277 -0.24408272 0.13251443 -0.014664581 -0.14651535 -0.008456059
0.122495346 0.050681274 0.120058805 0.15945265 0.06032913 -0.035800084 -0.28443193 -0.13206051
0.15928668 0.1734789 -0.28627792 0.14909716 0.11471631 0.1692512 -0.1750615 0.042692117
-0.2732686 -0.0015414875 0.14812523 -0.25258926 0.07143735 0.09754032 0.241369 0.14084452
0.034006555 0.19930004 0.17344718 0.20233361 -0.17508815 -0.30493158 -0.27622658 -0.01993443
0.2842037 -0.1488049 0.2007444 -0.22963658 0.25108644 0.13705339 -0.08398868 0.20481136
0.23303328 -0.0013134015 0.1277137 -0.0054908968 -0.2394768 0.11945191 0.12321123 -0.029016644
0.044345398 0.12826133 -0.1607201 0.12778741 -0.18688618 0.22139859 0.1549043 -0.14567222
00000000: 90f5 14be d0d7 913d 57ee a8bd ffc2 07be
00000010: 2787 5c3e c088 293d a32e fabd dab7 7dbe
00000020: 72b3 6dbd 6f12 953e 7a96 6cbe d2f0 79be
00000030: ddb1 073e b643 70bc 1f08 16be 488b 0abc
00000040: d7de fa3d 2b97 4f3d 64e1 f53d 8e47 233e
00000050: ae1b 773d 1ca3 12bd 10a1 91be df3a 07be
00000060: 0c1c 233e 74a4 313e 0593 92be edac 183e
00000070: 62f0 ea3d 3050 2d3e 5243 33be eedd 2e3d
00000080: dde9 8bbe bd0b caba 24ae 173e 6153 81be
00000090: bf4d 923d 38c3 c73d 6f29 773e 8c39 103e
000000a0: 754a 0b3d 4f15 4c3e 239c 313e 8b30 4f3e
000000b0: 4f4a 33be fe1f 9cbe 926d 8dbe 884d a3bc
000000c0: 2683 913e 5060 18be f18f 4d3e da25 6bbe
000000d0: 678e 803e b957 0c3e 4202 acbd 12ba 513e
000000e0: 47a0 6e3e 7126 acba 61c7 023e fbec b3bb
000000f0: 6839 75be 34a3 f43d 2b56 fc3d 50b4 edbc
00000100: 85a3 353d f056 033e cf93 24be b4da 023e
00000110: 175f 3fbe 50b6 623e 3c9f 1e3e 192b 15be

conv.0.bias f4 [8]
-4.2274144e-07 1.543671e-06 4.6601534e-07 -2.3225147e-07 -2.421633e-07 6.7722254e-08 3.5655955e-07 -6.522489e-08
00000000: 24f5 e2b4 2230 cf35 a930 fa34 cc60 79b4
00000010: ac02 82b4 b46e 9133 2c6d bf34 c311 8cb3

conv.1.weight f4 [16, 8, 3, 3]
-0.063411884 -0.04957544 -0.014585211 0.092361405 -0.019973516 -0.041154806 0.08304597 0.058282156
-0.053623714 -0.058660764 0.034737524 0.103054695 0.044557814 0.0041576773 0.050230667 0.057579
0.024083255 -0.027599018 0.034270238 0.08340782 -0.063353546 0.057279192 0.032998458 -0.043335237
0.048277028 0.07948592 0.039689433 0.040506568 -0.054081954 0.042981282 0.088389315 -0.03417218
0.004224497 -0.00928224 0.06624683 -0.04308179 0.11080747 0.07166822 -0.017178852 0.04916639
-0.045304805 0.0538175 -0.006067802 -0.106940754 0.047965296 -0.07377138 -0.07360615 0.045660444
0.022397462 -0.015812222 -0.04347479 0.015301727 0.07182354 0.039110433 -0.019272262 0.057419177
-0.05083585 0.006856294 -0.07332769 0.011504939 0.035947304 0.02577386 -0.0028840771 0.020780426
0.060485974 -0.009914775 0.0011111874 0.0010181128 0.025175419 8.352453e-05 -0.025023254 0.0029790942
-0.037381586 0.01935985 -0.050084922 0.07304709 0.009905365 0.017137265 -0.06361376 -0.07378101
-0.011999281 0.056284256 0.03577287 0.11369949 -0.043446288 0.029643621 0.066573605 0.09436298
-0.020704718 0.07595261 0.023615694 0.040632103 -0.04679093 0.044389922 0.05666744 -0.02347073
0.08192193 0.046843983 -0.04390636 -0.0042744135 -0.06672768 0.01290369 0.05971654 0.04827179
0.05850696 -0.041978784 0.05734073 0.015959581 0.03106129 -0.024697691 0.07070822 0.07641301
0.011257691 -0.089610405 -0.057261545 0.06035601 0.04740428 0.025553346 -0.07070368 -0.021114009
-0.0492879 0.009135468 -0.006112447 -0.047435097 -0.05759636 0.018155565 0.03177605 0.008560248
-0.01108402 -0.09192072 0.015987566 -0.05500817 -0.06838619 0.022697102 0.026682504 -0.039000936
0.027203817 -0.08681532 -0.0074386806 0.029087232 -0.064299874 -0.0056350473 0.028692208 0.011087786
0.08272334 -0.04097923 -0.041427527 0.003329744 -0.053548288 -0.044661302 -0.080279246 -0.049101137
0.0062625064 -0.0019569346 -0.030756619 0.07334517 0.0034979384 -0.04274897 0.024573332 0.03342033
0.014088226 0.06935713 -0.09163846 -0.021773145 0.0028538357 0.016789544 0.024746154 0.06854754
-0.09636211 -0.047805402 -0.009487563 -0.026380466 -0.08523403 -0.05273395 -0.024777535 -0.064823315
0.06380087 -0.05247858 -0.06299835 0.0012037939 -0.056018498 -0.119448595 -0.06821733 0.06376206
0.08804379 0.007878076 0.06868054 0.055523653 0.05547855 0.10163828 0.055261765 0.043769583
0.0478641 0.07325549 -0.03221745 -0.034314446 0.0060658315 0.10237314 -0.098729484 -0.06625691
-0.101993114 -0.07212254 -0.030798743 0.003327032 0.06547274 0.08546754 0.011169804 -0.051928785
0.014675536 -0.055989567 -0.019436304 0.042193633 -0.067569084 -0.07423343 0.031421553 0.020231249
-0.034143858 -0.0059328633 -0.07066584 0.09117768 -0.018549336 -0.03077443 -0.0076091574 0.0066838698
0.029019699 -0.046639256 -0.027701898 0.0023990688 -0.055070635 -0.030474171 0.09938661 -0.015476205
-0.01151563 0.034343954 -0.016585283 -0.06481496 0.0036494925 0.049597688 -0.024778958 0.0046844725
-0.025754806 -0.03738112 0.07120709 -0.057652447 -0.078748584 0.06426137 -0.05003482 0.018928597
-0.02841914 -0.047658052 0.045220517 0.024859557 -0.09392233 0.048954263 -0.012780014 0.04781238
00000000: 17de 81bd 9e0f 4bbd cff6 6ebc fa27 bd3d
00000010: 809f a3bc f191 28bd 0114 aa3d 45b9 6e3d
00000020: 8aa4 5bbd 4546 70bd ef48 0e3d 570e d33d
00000030: 4182 363d 203d 883b acbe 4d3d f5d7 6b3d
00000040: 3f4a c53c 5617 e2bc f35e 0c3d b8d1 aa3d
00000050: 81bf 81bd 969d 6a3d 6429 073d 4a80 31bd
00000060: 22be 453d 84c9 a23d 6391 223d 37ea 253d
00000070: 0a85 5dbd 240d 303d 7505 b53d 21f8 0bbd
00000080: a66d 8a3b 8914 18bc 6bac 873d 8876 30bd
00000090: 07ef e23d cac6 923d aaba 8cbc b262 493d
000000a0: 8891 39bd bd6f 5c3d 6ad4 c6bb c103 dbbd
000000b0: 4277 443d 7315 97bd d2be 96bd 7206 3b3d
000000c0: e27a b73c a288 81bc 9f12 32bd 18b4 7a3c
000000d0: 3818 933d 4332 203d dde0 9dbc 5f30 6b3d
000000e0: 4139 50bd c3aa e03b d42c 96bd 367f 3c3c
000000f0: 7b3d 133d b423 d33c c902 3dbb b63b aa3c
00000100: 24c0 773d 9571 22bc 43a5 913a 3272 853a
00000110: ae3c ce3c e429 af38 91fd ccbc e83c 433b
00000120: 6f1d 19bd 8c98 9e3c d925 4dbd b699 953d
00000130: 1d4a 223c 7363 8c3c ee47 82bd 801a 97bd
00000140: a298 44bc 528a 663d 9386 123d 47db e83d
00000150: bcf4 31bd 2ed7 f23c be57 883d 6141 c13d
00000160: f19c a9bc 0b8d 9b3d b375 c13c d96d 263d
00000170: d9a7 3fbd 35d2 353d 1e1c 683d b045 c0bc
00000180: afc6 a73d 7adf 3f3d 28d7 33bd 6110 8cbb
00000190: 86a8 88bd 006a 533c 5599 743d a4b8 453d
000001a0: fea4 6f3d f2f1 2bbd 1dde 6a3d abbd 823c
000001b0: 3f74 fe3c d052 cabc 79cf 903d 6d7e 9c3d
000001c0: 2e72 383c a985 b7bd 158b 6abd dd37 773d
000001d0: fe2a 423d 4055 d13c 17cd 90bd 49f7 acbc
000001e0: 1ce2 49bd eeac 153c ec4a c8bb 4e4b 42bd
000001f0: 29ea 6bbd fbba 943c 9a27 023d 4840 0c3c
00000200: c099 35bc ee40 bcbd 5bf8 823c 3f50 61bd
00000210: 0f0e 8cbd 46ef b93c 4495 da3c 72bf 1fbd
00000220: 8ada de3c 3bcc b1bd 2dc0 f3bb 5948 ee3c
00000230: a7af 83bd 34a6 b8bb ec0b eb3c 8ca9 353c
00000240: db6a a93d d6d9 27bd e9af 29bd d637 5a3b
00000250: 7355 5bbd c5ee 36bd 7269 a4bd 461e 49bd
00000260: b635 cd3b ea3f 00bb 4ef5 fbbc fe35 963d
00000270: ab3d 653b 8b19 2fbd 034e c93c c2e3 083d
00000280: 4dd2 663c 1c0b 8e3d f2ac bbbd 985d b2bc
00000290: 6b07 3b3b 3a8a 893c 72b8 ca3c a762 8c3d
000002a0: 7f59 c5bd 99cf 43bd b971 1bbc d91b d8bc
000002b0: 2e8f aebd 8eff 57bd 42fa cabc 16c2 84bd
000002c0: 08aa 823d c8f3 56bd 4705 81bd 9fc8 9d3a
000002d0: a773 65bd 77a1 f4bd 87b5 8bbd af95 823d
000002e0: 4d50 b43d 0c13 013c 62a8 8c3d c56c 633d
000002f0: 7a3d 633d bb27 d03d 295a 623d bc47 333d
00000300: 260d 443d f906 963d 72f6 03bd 4e8d 0cbd
00000310: e2c3 c63b 02a9 d13d af32 cabd b4b1 87bd
00000320: c4e1 d0bd fbb4 93bd a54d fcbc 560a 5a3b
00000330: 9216 863d 9b09 af3d 8e01 373c 47b3 54bd
00000340: a971 703c 5155 65bd e238 9fbc 3bd3 2c3d
00000350: a961 8abd b207 98bd e3b3 003d 01bc a53c
00000360: 6eda 0bbd 7768 c2bb 40b9 90bd 5dbb ba3d
00000370: c7f4 97bc a81a fcbc 3d56 f9bb 5d04 db3b
00000380: b8ba ed3c ce08 3fbd 17ef e2bc b239 1d3b
00000390: bf91 61bd f8a4 f9bc 358b cb3d e98f 7dbc
000003a0: 0eac 3cbc 3fac 0c3d dcdd 87bc b5bd 84bd
000003b0: 532c 6f3b f226 4b3d 3efd cabc 3480 993b
000003c0: befb d2bc f21c 19bd 06d5 913d f924 6cbd
000003d0: f046 a1bd 779b 833d 50f1 4cbd 2510 9b3c
000003e0: 42cf e8bc 1735 43bd 2639 393d 45a6 cb3c
000003f0: 5a5a c0bd 4484 483d 4463 51bc ead6 433d

conv.1.bias f4 [16]
-1.4619071e-06 3.300236e-07 -2.6553755e-08 1.8207194e-07 -1.1957014e-06 -1.0014604e-06 -1.1531565e-06 -3.3534278e-07
2.3350704e-07 6.189198e-07 2.289151e-07 5.771427e-06 -3.490986e-07 -2.4213494e-07 1.8282294e-07 3.4319945e-07
00000000: bf36 c4b5 192e b134 5318 e4b2 8e7f 4334
00000010: fd7b a0b5 eb69 86b5 28c6 9ab5 2909 b4b4
00000020: edb9 7a34 d823 2635 b4cb 7534 2ea8 c136
00000030: bf6b bbb4 c6fe 81b4 fd4d 4434 f940 b834

conv.2.weight f4 [32, 16, 3, 3]
0.028403789 -0.056828626 -0.007391155 0.05523514 -0.054015376 0.044155695 0.04713436 0.0028234972
-0.063273504 0.05010654 -0.027149595 0.001188341 -0.033488136 0.049598023 0.0015223905 -0.03906917
-0.048291493 -0.03923065 0.05742492 -0.06185255 -0.015747687 0.0044901287 0.014691276 -0.04709738
0.004990807 -0.010580824 -0.045621086 0.015603175 0.03638156 -0.06572507 -0.009281835 0.038120754
-0.032894857 -0.038597707 -0.08260901 -0.052475147 -0.07551304 -0.06589649 -0.04070174 -0.048663776
0.03980498 -0.03959424 -0.05778313 -0.053246174 0.034492016 0.0070323967 -0.0064169536 0.018033022
0.04651976 0.028001977 0.01876181 -0.033149194 0.009814737 -0.0456144 0.033487312 0.026382051
0.04612133 -0.029796563 -0.019753754 0.030855821 0.027324567 -0.010513887 0.0122374715 0.0026861597
0.05765262 -0.037221298 0.035435613 -0.009030213 -0.05215519 0.050097805 0.030388074 -0.043659225
-0.027855296 0.013576346 0.0300439 0.056220613 0.005227229 0.008533465 -0.046297885 -0.021648372
-0.053224754 0.05072955 -0.031771023 -0.02209453 0.0097644385 0.019455012 0.044195887 0.00602138
-0.017951354 0.037088886 0.0414639 -0.0073648263 -0.08118226 0.038476106 -0.035662394 0.047155984
-0.0066297185 0.025270967 -0.019003885 -0.061610315 -0.055791073 -0.037174296 -0.043220498 -0.04964467
-0.045223672 -0.057660595 0.019557962 -0.023877189 0.0008608439 -0.009173733 0.033783626 0.03410938
0.05119897 -0.035046827 0.026107157 0.042094804 -0.039004862 0.0041531157 0.038733553 0.018155731
-0.033382803 0.02027147 -0.011258806 -0.020588959 0.008368032 0.01908144 -0.055414386 0.027344318
0.027891433 -0.006481613 -0.012373981 0.033000655 -0.038159523 0.019350033 0.058807183 -0.018052839
0.0180903 0.016340476 -0.045372356 0.008706157 -0.004849885 0.04225776 0.032465827 0.012239661
0.029859858 0.027262252 0.051037394 -0.011653427 0.031889595 -0.01773512 0.0067319903 -0.036600668
-0.019617097 0.031270258 -0.009547053 0.014591028 -0.030466095 -0.04786411 0.018112356 -0.010686478
-0.033403993 -0.026588747 0.0030581022 -0.008274418 -0.030931607 -0.03650387 -0.0499111 -0.0823409
-0.031221874 -0.064558394 -0.044648796 -0.042815413 -0.04145446 0.037276983 -0.017028492 -0.020304658
-0.051050786 -0.05223211 -0.05057238 -0.069918714 -0.061686732 -0.017936276 -0.0058501777 0.03138977
0.018418929 -0.006054047 -0.025429986 -0.008470028 -0.031148745 -0.007891001 -0.007757487 -0.01816992
-0.001707795 0.0030061845 -0.016999371 0.006817716 -0.008773964 -0.015378232 -0.008666705 0.0038046036
-0.020389237 -0.016772684 -0.024541695 -0.03088645 -0.0073931594 0.021636153 -0.003439531 0.003184783
0.046037626 0.02197983 0.012842631 -0.02946274 0.024828762 -0.037299313 -0.03301854 0.0010035094
-0.047508582 -0.03987467 -0.03533005 0.01485141 -0.004569342 -0.036867384 -0.01235249 -0.028573325
0.005264966 0.012656816 0.025406387 0.012074648 0.024702713 0.0148418825 0.021891128 0.049616504
-0.008645046 0.03241686 -0.038832266 -0.030847527 -0.06987205 0.01955175 0.011758014 0.013694362
-0.02329863 -0.017361822 -0.003168096 0.003037493 -0.043830667 -0.058523823 0.006648132 -0.030405542
-0.014745239 0.034819182 0.019398296 -0.024643632 -0.0001504913 0.05350261 0.01459376 0.0028025182
00000000: 10af e83c 22c5 68bd 8131 f2bb 3e3e 623d
00000010: 3a3f 5dbd 9adc 343d f50f 413d 6c0a 393b
00000020: 8a95 81bd 843c 4d3d d468 debc 1bc2 9b3a
00000030: db2a 09bd 4c27 4b3d f38a c73a fe06 20bd
00000040: 4dcd 45bd 51b0 20bd 6536 6b3d 1959 7dbd
00000050: 4b01 81bc ee21 933b adb3 703c 2fe9 40bd
00000060: ec89 a33b 315b 2dbc 2ddd 3abd 76a4 7f3c
00000070: d504 153d de9a 86bd d612 18bc 8224 1c3d
00000080: c2bc 06bd a118 1ebd ea2e a9bd 2ef0 56bd
00000090: 95a6 9abd bdf4 86bd deb6 26bd ab53 47bd
000000a0: 8c0a 233d 922d 22bd 01ae 6cbd a918 5abd
000000b0: 8047 0d3d 0570 e63b 4f45 d2bb fdb9 933c
000000c0: 818b 3e3d 6764 e53c 5eb2 993c 73c7 07bd
000000d0: fecd 203c 2ad6 3abd fe29 093d 2c1f d83c
000000e0: b8e9 3c3d ec17 f4bc a0d2 a1bc 59c5 fc3c
000000f0: c5d7 df3c 7042 2cbc ad7f 483c 480a 303b
00000100: 2725 6c3d 5c75 18bd ef24 113d 75f3 13bc
00000110: aea0 55bd 5b33 4d3d 69f0 f83c 04d4 32bd
00000120: ca30 e4bc 536f 5e3c a01e f63c 9647 663d
00000130: 2d49 ab3b f2cf 0b3c daa2 3dbd ed57 b1bc
00000140: 3302 5abd cac9 4f3d 5522 02bd 96ff b4bc
00000150: 06fb 1f3c 1e60 9f3c bf06 353d ff4e c53b
00000160: b80e 93bc 84ea 173d 0dd6 293d a454 f1bb
00000170: e242 a6bd 1f99 1d3d bb12 12bd a226 413d
00000180: 1c3e d9bb 0f05 cf3c 09ae 9bbc 195b 7cbd
00000190: 2e85 64bd 1344 18bd fa07 31bd 3658 4bbd
000001a0: 753c 39bd 842d 6cbd 0538 a03c 189a c3bc
000001b0: 42aa 613a 6d4d 16bc b360 0a3d 47b6 0b3d
000001c0: 03b6 513d 438d 0fbd adde d53c 9a6b 2c3d
000001d0: 90c3 1fbd dc16 883b 13a7 1e3d 54bb 943c
000001e0: 68bc 08bd 5b10 a63c db76 38bc 2daa a8bc
000001f0: 121a 093c ae50 9c3c 32fa 62bd 3101 e03c
00000200: 937c e43c b663 d4bb 3dbc 4abc b22b 073d
00000210: 294d 1cbd f683 9e3c cddf 703d 8ce3 93bc
00000220: 1c32 943c 76dc 853c 5dd8 39bd 45a4 0e3c
00000230: c9eb 9ebb 7916 2d3d e3fa 043d dc88 483c
00000240: a99c f43c 1655 df3c 960c 513d 04ee 3ebc
00000250: aa9e 023d 3e49 91bc 0798 dc3b 95ea 15bd
00000260: 09b4 a0bc 3e15 003d 3e6b 1cbc 350f 6f3c
00000270: 0894 f9bc 280d 44bd 5d60 943c 5616 2fbc
00000280: a0d2 08bd a5d0 d9bc 716a 483b 6d91 07bc
00000290: 4864 fdbc 1585 15bd 956f 4cbd 59a2 a8bd
000002a0: 04c5 ffbc 3137 84bd a8e1 36bd 375f 2fbd
000002b0: 27cc 29bd c0af 183d 567f 8bbc f455 a6bc
000002c0: a11a 51bd 56f1 55bd fc24 4fbd 8b31 8fbd
000002d0: 3aab 7cbd 19ef 92bc d9b2 bfbb 8f92 003d
000002e0: 4be3 963c 0761 c6bb 8c52 d0bc dfc5 0abc
000002f0: a72b ffbc 4249 01bc 8432 febb 16d9 94bc
00000300: 17d8 dfba 6803 453b 4442 8bbc 2667 df3b
00000310: acc0 0fbc fbf4 7bbc ccfe 0dbc a856 793b
00000320: 5407 a7bc de66 89bc aa0b c9bc 9505 fdbc
00000330: 5142 f2bb 4d3e b13c c169 61bb cbb7 503b
00000340: f391 3c3d 0b0f b43c e669 523c d85b f1bc
00000350: b065 cb3c 2ac7 18bd 733e 07bd 3088 833a
00000360: 5c98 42bd 9f53 23bd 3eb6 10bd 5453 733c
00000370: 6bba 95bb 4102 17bd 1962 4abc 9b12 eabc
00000380: bc85 ac3b 895e 4f3c 0e21 d03c bfd4 453c
00000390: 585d ca3c 5e2b 733c 0655 b33c ad3a 4b3d
000003a0: f3a3 0dbc 8bc7 043d 950e 1fbd f4b3 fcbc
000003b0: 1419 8fbd fe2a a03c afa4 403c 515e 603c
000003c0: c5dc bebc 613a 8ebc d59f 4fbb ad10 473b
000003d0: c987 33bd adb6 6fbd 93d8 d93b 0b15 f9bc
000003e0: 0496 71bc 8f9e 0e3d 2de9 9e3c 71e1 c9bc
000003f0: 33cd 1db9 8e25 5b3d aa1a 6f3c 74aa 373b

conv.2.bias f4 [32]
-9.597742e-07 9.0683545e-07 8.661043e-07 -4.269423e-06 -6.2477744e-07 -1.3331726e-06 -5.9046315e-06 -1.0720247e-06
1.2474511e-06 -6.2130175e-07 8.371416e-08 -4.0188697e-06 -1.0964077e-06 1.2025458e-06 1.008927e-06 1.1443599e-06
-3.117522e-07 -1.999215e-06 4.6125583e-06 -8.081268e-08 1.85703e-06 2.0326397e-06 7.43519e-07 -1.26033e-06
-4.8215434e-06 -7.607844e-07 -7.0720745e-07 5.82791e-06 -3.138133e-07 3.0791273e-07 -7.72823e-07 -7.621159e-07
00000000: 97d1 80b5 426d 7335 3c7e 6835 1042 8fb6
00000010: 61b6 27b5 76ef b2b5 6620 c6b6 7de2 8fb5
00000020: 186e a735 88c7 26b5 59c6 b333 d4d9 86b6
00000030: 4828 93b5 2967 a135 786a 8735 e897 9935
00000040: e55e a7b4 412a 06b6 93c5 9a36 3e8b adb3
00000050: 113f f935 7c68 0836 3d96 4735 9c28 a9b5
00000060: bec8 a1b6 b538 4cb5 edd6 3db5 5e8d c336
00000070: 2c7a a8b4 344f a534 fe73 4fb5 3594 4cb5

conv.4.weight f4 [64, 32, 3, 3]
0.0012208512 0.004673764 -0.013822647 -0.003408405 0.026688688 0.026904367 0.018782899 0.00026772992
0.010842805 -0.020689856 -0.015298651 0.017306078 0.012911445 -0.010003062 0.0059513845 -0.014714556
-0.012592696 0.009143856 0.006877888 -0.012130731 0.004381257 0.0103683425 -0.003734226 0.023391584
-0.022779943 0.00363418 -0.012119247 0.011669962 0.023755517 0.017330296 -0.0021399872 0.00096041214
0.007964109 0.008174527 0.007956045 0.020634042 -0.0025119847 0.028845806 0.01750853 -0.012018129
-0.0040492737 -0.0043191547 0.010581555 0.013663195 0.0006632234 -0.014641279 0.00810537 0.003449804
-0.016183399 -0.008910959 -0.022287779 -0.0037514553 -0.012603586 0.009347313 0.0072620246 0.011120013
-0.0032472801 -0.0107608745 0.021868931 -0.0030209124 0.0064635817 -0.010349008 -0.017099647 -0.008287719
0.009777118 0.012419696 0.011495702 0.0006262059 0.0070252414 0.0009323593 -0.019906607 -0.022851944
-0.0009886923 -0.009009807 0.005037118 0.024198474 0.041193925 0.00197241 0.013925662 0.041864973
0.0046726014 0.001014391 0.018459795 0.028147688 -0.005051485 0.027739013 -0.006130616 0.0033864183
0.014474352 0.006116604 -0.01800132 -0.018671226 -0.027700514 0.0017082694 -0.011060893 -0.021371936
0.01379886 -0.017283767 -0.005802739 -0.010327487 -0.007320477 0.02071301 0.00247507 -0.005944348
-0.0099466685 0.020452363 0.014642091 -0.012092702 -0.002934748 -0.008099682 0.027371215 0.027906468
0.023379242 0.01338758 0.0016374752 0.014310443 0.013201452 0.014380539 0.013014577 0.0036715544
0.010659376 0.004210978 -0.006817187 -0.007487458 0.0039947964 0.015886657 0.01700269 0.01771576
0.011214069 0.0023043253 0.008680089 -0.016955465 0.0161612 -0.002649281 0.005846418 0.008458517
6.364164e-05 -0.0057738964 -0.028850479 0.020970006 0.009095754 0.012819171 0.008622651 3.478205e-05
0.029013898 0.0042376015 0.007908517 0.008710006 -0.0017740475 0.012136794 -0.009872611 0.008832387
-0.005523251 0.009828543 -0.0033683872 0.009222599 -0.01530633 -0.0033391844 -0.02364243 -0.011891277
0.004129193 0.0031437827 -0.030541796 -0.0025279182 -0.010630702 0.011783681 0.019427136 -0.0070417984
-0.022067947 -0.014195472 -0.018040985 -0.008646945 -0.020314867 -0.0015270782 -0.019408546 -0.016173804
-5.0027797e-05 0.0070555154 -0.0021548104 -0.010440345 0.008850185 0.00755449 0.020968068 0.008140027
0.02508181 -0.0036552942 0.019875819 0.0087746885 0.023323094 0.01575995 0.027166018 0.001728679
0.022128267 -8.100711e-05 3.4368156e-06 -0.013456979 -0.0040563694 0.020376813 0.00031749948 -0.01545294
0.013330313 -0.005071109 0.00052287837 0.005119962 -0.021626933 0.01020018 -0.013913209 0.0128039
-0.0122489715 0.0033346696 -0.00803703 0.0011138525 -0.0013060656 0.009254588 -0.014568045 -0.008288641
0.0020476456 -0.020692794 0.017245784 -0.0034592017 -0.029639479 -0.020403245 -0.005515976 0.016054641
-0.017750671 -0.013825847 -0.015298727 -0.0055169524 -0.010745602 -0.0051917927 -0.0067697936 0.0061086537
-0.020551533 0.003361278 0.014121333 -0.02119644 -0.025847554 -0.014582164 -0.0012085937 0.0006476345
-0.015029623 0.008306313 -0.023698002 0.021928055 -0.00852452 -0.002520698 -0.015528105 0.0020010239
0.01874319 -0.0070414264 0.0008034382 0.0028119406 -0.023617445 0.0060841725 -0.016864847 -0.025496243
00000000: f804 a03a 6026 993b 6278 62bc 8c5f 5fbb
00000010: 3ca2 da3c 8c66 dc3c 98de 993c 1a5e 8c39
00000020: 05a6 313c c67d a9bc 31a7 7abc 7ac5 8d3c
00000030: 878a 533c e2e3 23bc d503 c33b 5215 71bc
00000040: 9851 4ebc 1dd0 153c e85f e13b f9bf 46bc
00000050: a690 8f3b fbdf 293c ebb9 74bb b59f bf3c
00000060: 019d babc 6c2b 6e3b ce8f 46bc 5e33 3f3c
00000070: ee9a c23c 44f8 8d3c 073f 0cbb 2bc4 7b3a
00000080: e57b 023c 74ee 053c 125a 023c b908 a93c
00000090: 1ca0 24bb 0a4e ec3c 0c6e 8f3c b0e7 44bc
000000a0: c5af 84bb b287 8dbb 425e 2d3c 98db 5f3c
000000b0: 2bdc 2d3a fae1 6fbc 63cc 043c 1b16 623b
000000c0: 0c93 84bc 45ff 11bc dc94 b6bc fada 75bb
000000d0: 457f 4ebc 7925 193c 47f6 ed3b b730 363c
000000e0: 52d0 54bb 614e 30bc 7926 b33c 80fa 45bb
000000f0: 74cc d33b e38e 29bc 8f14 8cbc 37c9 07bc
00000100: 3530 203c fb7b 4b3c 7858 3c3c f727 243a
00000110: ff33 e63b 9369 743a 2e13 a3bc 0034 bbbc
00000120: 0297 81ba df9d 13bc 690e a53b e13b c63c
00000130: f6ba 283d 8c43 013b 7628 643c 9b7a 2b3d
00000140: 9f1c 993b 50f5 843a ff38 973c fb95 e63c
00000150: ed86 a5bb ed3c e33c 56e3 c8bb acee 5d3b
00000160: d525 6d3c cb6d c83b 8177 93bc 66f4 98bc
00000170: 30ec e2bc 02e8 df3a bf38 35bc 3314 afbc
00000180: 9d14 623c b096 8dbc e724 bebb 9f34 29bc
00000190: 9de0 efbb 55ae a93c c934 223b cec8 c2bb
000001a0: 5af7 22bc b78b a73c 61e5 6f3c 7820 46bc
000001b0: e754 40bb 87b4 04bc 9939 e03c 1b9c e43c
000001c0: d385 bf3c 9557 5b3c 8da0 d63a 5976 6a3c
000001d0: e74a 583c 5a9c 6b3c 183b 553c 769e 703b
000001e0: aaa4 2e3c 3efc 893b b662 dfbb 5a59 f5bb
000001f0: c8e6 823b bc24 823c 3a49 8b3c a420 913c
00000200: 37bb 373c 2a04 173b ef36 0e3c 30e6 8abc
00000210: 7e64 843c 8f9f 2dbb 4f93 bf3b 9795 0a3c
00000220: 5877 8538 f432 bdbb d757 ecbc 4ac9 ab3c
00000230: 5b06 153c 8007 523c 0546 0d3c f1e2 1138
00000240: 8eae ed3c 94db 8a3b b992 013c 6ab4 0e3c
00000250: 2887 e8ba 67d9 463c bbc0 21bc b7b5 103c
00000260: 63fc b4bb e607 213c 29c0 5cbb 621a 173c
00000270: 67c7 7abc 38d6 5abb c5ad c1bc a1d3 42bc
00000280: 2e4e 873b ec07 4e3b ca32 fabc 6eab 25bb
00000290: 652c 2ebc 5710 413c a825 9f3c e3be e6bb
000002a0: d7c7 b4bc 2094 68bc b0ca 93bc eaab 0dbc
000002b0: 5d6b a6bc 3e28 c8ba acfe 9ebc ed7e 84bc
000002c0: f0d4 51b8 f431 e73b b837 0dbb fb0d 2bbc
000002d0: 5e00 113c a88b f73b 3ac5 ab3c bf5d 053c
000002e0: 5e78 cd3c a98d 6fbb 9dd2 a23c b6c3 0f3c
000002f0: 1310 bf3c 031b 813c 458b de3c d894 e23a
00000300: 5746 b53c 5ce2 a9b8 0ba4 6636 a97a 5cbc
00000310: 4beb 84bb 46ed a63c 0f76 a639 542e 7dbc
00000320: 6367 5a3c 8c2b a6bb c611 093a 5bc5 a73b
00000330: f72a b1bc a81e 273c 3af4 63bc 73c7 513c
00000340: e9af 48bc 798a 5a3b bfad 03bc b0fe 913a
00000350: 4a30 abba 8ea0 173c cfae 6ebc 15cd 07bc
00000360: cb31 063b ef83 a9bc 0847 8d3c c6b3 62bb
00000370: 7ece f2bc b524 a7bc 5cbf b4bb 0685 833c
00000380: db69 91bc ce85 62bc 83a7 7abc 8dc7 b4bb
00000390: 520e 30bc ea1f aabb 25d5 ddbb 1a2b c83b
000003a0: b05b a8bc e348 5c3b 2a5d 673c 28a4 adbc
000003b0: 40be d3bc 07ea 6ebc ad69 9eba 04c6 293a
000003c0: cf3e 76bc 3417 083c 5022 c2bc 77a2 b33c
000003d0: 6eaa 0bbc 4b32 25bb 9869 7ebc 9c23 033b
000003e0: 528b 993c c4bb e6bb d39d 523a 8948 383b
000003f0: 5f79 c1bc bd5d c73b 2628 8abc 7fdd d0bc

conv.4.bias f4 [64]
1.4476057e-06 1.4752447e-06 1.5925888e-06 -1.1540674e-06 -9.27564e-07 2.5193285e-06 2.252644e-06 1.5011216e-06
-1.3013698e-06 1.4308162e-06 1.1394054e-06 9.681127e-07 1.594489e-06 -3.39556e-06 -3.0528818e-07 -8.81322e-07
-8.5492275e-08 1.7310926e-07 1.2993003e-06 -2.5118518e-07 1.4634429e-06 2.379816e-06 -1.8603469e-06 1.3795628e-06
-3.3835615e-06 -1.7221331e-06 2.1422089e-07 5.109528e-07 1.7738096e-06 -3.07292e-06 6.794215e-07 6.6862737e-07
-9.869249e-07 3.8101805e-07 -3.4012464e-06 -4.119089e-07 6.0135886e-07 1.2405554e-06 2.2940835e-06 1.7106615e-06
1.0910721e-06 3.180968e-06 -4.672695e-06 -1.1225885e-06 7.323453e-08 -8.5415627e-07 2.8655713e-06 -4.948999e-06
7.362699e-07 3.4167164e-07 1.2379062e-06 3.1621491e-06 5.8335905e-07 8.817839e-07 -2.485306e-07 -2.9985827e-07
-3.2664414e-06 1.9088657e-06 -3.3844924e-07 -1.7989939e-06 -1.1610452e-06 3.7133213e-06 3.308526e-06 5.4652173e-07
00000000: 5a4b c235 0601 c635 efc0 d535 74e5 9ab5
00000010: b6fd 78b5 bc11 2936 212c 1736 257a c935
00000020: baaa aeb5 780a c035 aced 9835 19f0 8135
00000030: 3a02 d635 47df 63b6 7de6 a3b4 fd93 6cb5
00000040: e097 b7b3 e9df 3934 9e63 ae35 a1da 86b4
00000050: 846b c435 edb4 1f36 08b1 f9b5 6b29 b935
00000060: 2511 63b6 0b24 e7b5 9704 6634 6928 0935
00000070: a213 ee35 5d38 4eb6 7d61 3635 b97b 3335
00000080: 7b76 84b5 b98e cc34 f840 64b6 5424 ddb4
00000090: 116d 2135 2981 a635 0ef4 1936 e299 e535
000000a0: f470 9235 9d78 5536 25ca 9cb6 d9ab 96b5
000000b0: 1c45 9d33 2c49 65b5 244e 4036 940f a6b6
000000c0: 15a4 4535 fe6e b734 2226 a635 4f35 5436
000000d0: 2198 1c35 bab3 6c35 c96d 85b4 35fc a0b4
000000e0: 0935 5bb6 101a 0036 1cb4 b5b4 f674 f1b5
000000f0: 36d5 9bb5 6032 7936 0b08 5e36 b0b4 1235

BN.weight f4 [64]
0.6503798 0.6449181 0.6469445 0.6531631 0.63160014 0.6240053 0.60085684 0.67427784
0.6670374 0.63393867 0.67671764 0.58650255 0.61007166 0.6212712 0.62091905 0.6901486
0.62357134 0.6765702 0.5816371 0.6080644 0.60959977 0.59546787 0.66047263 0.67675143
0.6308543 0.6656863 0.6455433 0.6153664 0.58507293 0.6873438 0.68216115 0.64711267
0.66316634 0.6653456 0.6584312 0.66648996 0.6614219 0.6777204 0.6133813 0.6257915
0.62989485 0.6786936 0.60174936 0.5835822 0.6260528 0.68797827 0.60696304 0.6341665
0.58027977 0.62764037 0.5774015 0.6274094 0.6786096 0.6133241 0.6482241 0.63668966
0.6539609 0.5970665 0.5982221 0.64551044 0.6464933 0.69804925 0.61293036 0.60476816
00000000: 4a7f 263f 5a19 253f 289e 253f b235 273f
00000010: 8cb0 213f d0be 1f3f c1d1 193f 799d 2c3f
00000020: f7c2 2a3f ce49 223f 5e3d 2d3f 0825 163f
00000030: a82d 1c3f a10b 1f3f 8df4 1e3f 94ad 303f
00000040: 5fa2 1f3f b433 2d3f 2be6 143f 1caa 1b3f
00000050: bb0e 1c3f 9570 183f bc14 293f 953f 2d3f
00000060: ab7f 213f 6b6a 2a3f 5342 253f a788 1d3f
00000070: 57c7 153f c3f5 2f3f 1da2 2e3f 2da9 253f
00000080: 45c5 293f 1754 2a3f f28e 283f 169f 2a3f
00000090: f252 293f 167f 2d3f 8f06 1d3f df33 203f
000000a0: ca40 213f ddbe 2d3f 3f0c 1a3f a565 153f
000000b0: ff44 203f 581f 303f ee61 1b3f bc58 223f
000000c0: 378d 143f 0aad 203f 96d0 133f e79d 203f
000000d0: 5cb9 2d3f cf02 1d3f 04f2 253f 18fe 223f
000000e0: fb69 273f 5ad9 183f 1525 193f 2c40 253f
000000f0: 9680 253f 5bb3 323f 01e9 1c3f 16d2 1a3f

BN.bias f4 [64]
0.02920899 -0.03852522 -0.016844744 0.0067756977 -0.002038871 0.0743804 -0.032235716 -0.020153342
0.015268897 -0.062548354 -0.0067294785 0.041445065 0.03842552 -0.012588543 0.012898827 -0.08434263
-0.0035561514 0.024580127 0.033762973 0.048873518 -0.057663742 -0.05605602 -0.024256777 0.012861557
0.025752965 0.002499275 -0.10148601 0.01361733 0.018597541 -0.006085294 0.0467976 -0.0023819273
0.05565365 0.09222318 -0.04239073 0.072682396 -0.0072348826 -0.059162926 -0.099960655 0.0134178
0.04543246 0.017324079 0.0075889095 -0.033990245 0.03549347 0.025383294 -0.04143198 -0.0026697072
0.074985065 0.013789466 -0.035442524 0.0013858114 0.051765747 -0.0016407052 -0.08713685 0.06134771
0.06618818 0.03743809 -0.007888213 0.053041983 -0.06429917 0.042077824 -0.018300224 -0.014562966
00000000: b147 ef3c 9fcc 1dbd fdfd 89bc ac06 de3b
00000010: 949e 05bb c054 983d 9909 04bd 9f18 a5bc
00000020: 652a 7a3c 5a19 80bd f582 dcbb 4dc2 293d
00000030: 1464 1d3d 2d40 4ebc 9a55 533c d4bb acbd
00000040: 520e 69bb 435c c93c 0b4b 0a3d 992f 483d
00000050: d130 6cbd ff9a 65bd 26b6 c6bc 48b9 523c
00000060: e2f7 d23c e0ca 233b e6d7 cfbd 391b 5f3c
00000070: df59 983c 2567 c7bb d7ae 3f3d 1c1a 1cbb
00000080: 15f5 633d 82df bc3d e7a1 2dbd 82da 943d
00000090: 9812 edbb d354 72bd 2cb8 ccbd 55d6 5b3c
000000a0: 6317 3a3d 3aeb 8d3c 63ac f83b 5b39 0bbd
000000b0: 9a61 113d a0f0 cf3c 94b4 29bd 41f6 2ebb
000000c0: c591 993d 36ed 613c 2e2c 11bd 1da4 b53a
000000d0: 5208 543d ee0c d7ba ce74 b2bd bd47 7b3d
000000e0: ab8d 873d af58 193d 903d 01bc 8d42 593d
000000f0: 49af 83bd cc59 2c3d 5aea 95bc 8299 6ebc

BN.running_mean f4 [64]
0.019064425 -0.005383985 -0.01573948 0.027409673 0.011708921 -0.00909658 -0.0004460276 -0.0010267707
-0.028088806 0.009164462 -0.01980475 0.013394244 -0.003390793 0.021406071 0.012371868 -0.0036889
0.013864571 -0.026698975 -0.010611384 0.022622844 -0.017611302 0.0085512325 -0.003594013 -0.0045813164
0.02651129 -0.02027621 -0.02533908 -0.015612455 -0.018606495 -0.011003476 0.008349261 0.030235777
0.006060988 0.013176147 0.02127457 0.027649455 0.01567123 0.020626554 0.026622994 -0.002461465
-0.021536235 -0.013415064 0.021178328 0.0016289769 -0.020906618 -0.03272888 0.009810366 0.009470509
-0.012281406 -0.026984485 -0.012602499 -0.03152022 0.0044055786 0.016902871 0.02138301 -0.0003499905
-0.024888648 -0.013989645 0.016899962 0.0037529399 0.027483175 0.0120644085 -0.005914651 0.01316789
00000000: ff2c 9c3c 246c b0bb 15f0 80bc 408a e03c
00000010: c6d6 3f3c d209 15bc d0d8 e9b9 b594 86ba
00000020: 7f1a e6bc 8a26 163c 923d a2bc 8873 5b3c
00000030: 1138 5ebb c95b af3c 60b3 4a3c 79c1 71bb
00000040: 3a28 633c cfb7 dabc 5fdb 2dbc 8b53 b93c
00000050: 9445 90bc 781a 0c3c 8889 6bbb de1e 96bb
00000060: 342e d93c 4b1a a6bc e793 cfbc 62cb 7fbc
00000070: a66c 98bc ec47 34bc 57cb 083c 05b1 f73c
00000080: 419b c63b c4e0 573c 0248 ae3c 1c81 e23c
00000090: f460 803c 05f9 a83c 7718 da3c 8850 21bb
000000a0: c26c b0bc dbca 5bbc 2c7e ad3c 6583 d53a
000000b0: 5b44 abbc b80e 06bd a8bb 203c 322a 1b3c
000000c0: f337 49bc 910e ddbc b67a 4ebc 591b 01bd
000000d0: ac5c 903b e477 8a3c 6c2b af3c ee7e b7b9
000000e0: 47e3 cbbc d334 65bc ca71 8a3c e2f3 753b
000000f0: 6524 e13c cca9 453c b0cf c1bb 22be 573c

BN.running_var f4 [64]
0.0001254912 6.1230945e-05 4.8239544e-05 0.00014326737 4.1857656e-05 4.6171554e-05 4.3143667e-05 8.228591e-05
0.00016441528 6.870973e-05 0.00020198981 5.7757574e-05 6.375427e-05 0.00011687543 8.409284e-05 1.8363322e-05
4.0854222e-05 0.00017845535 6.9193375e-05 8.199753e-05 7.839991e-05 3.712384e-05 7.716313e-05 6.410707e-05
0.00014281028 0.00013997155 0.00011080249 7.04258e-05 9.581554e-05 4.501021e-05 6.0254028e-05 0.00020277353
7.950178e-05 2.8990207e-05 0.00014610292 0.00018680574 5.97633e-05 0.00016654517 0.00013817842 3.8874237e-05
0.00011247538 6.478372e-05 9.6354685e-05 2.6837357e-05 9.616693e-05 0.00021366311 3.4887948e-05 4.516267e-05
5.455873e-05 0.00015996759 3.8649985e-05 0.0002139222 4.3838714e-05 7.83305e-05 0.00010510556 5.7979716e-05
0.00011622612 5.7107984e-05 0.00010152462 2.1615562e-05 0.000111428264 0.00011568442 1.7018512e-05 0.000104188206
00000000: 4a96 0339 1d69 8038 d154 4a38 0b3a 1639
00000010: 5190 2f38 54a8 4138 29f5 3438 e990 ac38
00000020: e466 2c39 4118 9038 3acd 5339 b940 7238
00000030: d0b3 8538 051b f538 005b b038 ef0a 9a37
00000040: e35a 2b38 be1f 3b39 e91b 9138 17f6 ab38
00000050: a26a a438 6bb5 1b38 a4d2 a138 3971 8638
00000060: 58bf 1539 54c5 1239 a25e e838 90b1 9338
00000070: 94f0 c838 58c9 3c38 45b9 7c38 9b9f 5439
00000080: 31ba a638 ff2f f337 3433 1939 49e1 4339
00000090: 5baa 7a38 a1a2 2e39 fde3 1039 e50c 2338
000000a0: c3e0 eb38 7fdc 8738 0712 ca38 c920 e137
000000b0: 3aad c938 c10a 6039 a654 1238 0c6d 3d38
000000c0: fed5 6438 f9bc 2739 1b1c 2238 4e50 6039
000000d0: 76df 3738 5e45 a438 1e6c dc38 3f2f 7338
000000e0: 6cbe f338 3b87 6f38 9ee9 d438 1153 b537
000000f0: 98ae e938 9a9b f238 fac2 8e37 9e7f da38

dense.0.weight f4 [10, 64]
0.036778267 -0.072281875 0.03214208 0.07166461 -0.06297191 0.068321005 -0.06683557 -0.06748317
-0.023998858 -0.028679349 0.02906493 0.01581188 -0.003363864 -0.07327965 -0.027628083 -0.026007751
-0.015818166 -0.027972454 0.051072054 0.027699323 0.007280752 -0.008504943 0.03265997 0.033063747
-0.045443412 -0.043452315 -0.019289568 -0.019470831 0.017411992 0.07323858 -0.00034396793 0.021641057
0.08875796 0.0484356 0.023864178 0.103940606 -0.039189026 -0.08237442 -0.08117536 0.024004566
-0.017603997 -0.090722814 -0.045572814 -0.0659823 0.047252048 0.07154285 -0.024086926 0.015269188
0.09853742 0.03170602 0.004662275 -0.06574535 0.0028901834 -0.0532581 -0.091735564 0.07499687
0.0047920304 0.013018065 0.03485264 -0.07072892 0.009285049 0.014866726 0.006651033 -0.024232661
0.033914704 -0.07278857 0.03724147 -0.063873865 -0.036261708 -0.0629361 0.033923525 0.047600888
0.09326388 0.06413035 0.09477151 0.05764979 -0.048464052 0.08709087 0.03931748 0.08456474
0.07052165 0.0043556085 -0.07914332 0.06582418 -0.06876605 -0.062430378 0.016182749 0.1166747
-0.038903337 -0.042478085 -0.031408362 -0.055417113 0.04186244 0.048852183 -0.087434314 0.070062205
-0.05185502 0.059205476 0.051090196 -0.035688348 0.041147184 -0.02053249 -0.03147579 -0.093928166
-0.04714988 -0.01797427 0.086015016 0.05680909 0.053002536 -0.015576439 0.0045638867 0.015876817
-0.02277824 -0.062107902 -0.01810143 -0.016943958 -0.032411437 -0.06950104 0.017143816 -0.020295912
-0.01267264 -0.054814532 0.024336463 0.07743269 0.06290116 -0.04287571 -0.026333954 -0.12539953
0.064732544 0.033895582 0.042104837 0.081167765 0.08039437 0.07578036 0.031383723 -0.07462876
0.053900387 -0.11644893 -0.09763282 0.0018226169 0.08828848 -0.064515226 0.082696505 -0.09427492
0.027918957 0.10577479 -0.00620324 0.033757746 -0.048011668 -0.040689874 -0.03544148 -0.057816528
-0.026023617 -0.08143947 -0.09599055 0.028055154 0.038363922 -0.10704146 0.08154507 0.01629074
0.035060517 0.028340751 -0.11191316 0.02417903 0.0025882786 -0.10763141 -0.068968445 0.05946007
0.0066478313 0.109591104 0.0059220055 0.030656038 0.07260681 -0.08693194 0.0015936013 0.035511382
0.0350472 0.07701085 -0.046815466 0.016993012 0.007967095 -0.008649201 -0.08182226 -0.029446604
0.09778808 -0.024140133 0.05025811 0.057376284 -0.05910767 0.109889194 0.0016619893 -0.018280728
0.066935316 -0.038013484 -0.06777319 -0.08509329 0.0016864581 -0.060539573 0.07111047 0.06255569
0.024720745 0.011879971 -0.020354137 0.06482217 -0.008687989 0.09277205 0.07979811 -0.06607391
0.06516457 -0.059971146 -0.063310355 -0.06314585 -0.04971748 0.055520605 0.044974905 0.028453195
0.056048553 -0.07330396 -0.054222897 -0.078381956 0.034706183 0.052042004 -0.0074711256 0.07807548
-0.07103825 0.02897394 0.06834517 0.028557947 0.04361228 0.04709811 -0.03537165 -0.017732814
-0.0071396083 0.068582736 0.039376136 0.0035500433 0.049920674 -0.03115476 -0.019177962 -0.0060440926
-0.025393311 -0.06482412 0.051987976 -0.00022887334 -6.6850655e-05 -0.019515593 -0.034518808 0.087959014
-0.07133165 -0.014813346 -0.03134909 0.0154533265 -0.05348569 -0.016893975 -0.0674902 0.07472699
00000000: cfa4 163d 8508 94bd 6aa7 033d e5c4 923d
00000010: 6bf7 80bd e2eb 8b3d 16e1 88bd 9e34 8abd
00000020: 4199 c4bc f4f0 eabc 9319 ee3c ea87 813c
00000030: 4674 5cbb a413 96bd 4a54 e2bc 350e d5bc
00000040: 1995 81bc 7d26 e5bc ee30 513d b1e9 e23c
00000050: 6093 ee3b 5158 0bbc 76c6 053d da6d 073d
00000060: df22 3abd 0efb 31bd 2805 9ebc 4b81 9fbc
00000070: 98a3 8e3c 1cfe 953d 9856 b4b9 9648 b13c
00000080: bcc6 b53d 6864 463d cf7e c33c d0de d43d
00000090: ac84 20bd ebb3 a8bd 443f a6bd 39a5 c43c
000000a0: 4236 90bc e2cc b9bd 8faa 3abd ba21 87bd
000000b0: 5d8b 413d 0f85 923d f251 c5bc 9e2b 7a3c
000000c0: fdcd c93d 2cde 013d ffc5 983b 80a5 86bd
000000d0: 3b69 3d3b 2a25 5abd dbdf bbbd f597 993d
000000e0: 7706 9d3b b949 553c a4c1 0e3d 53da 90bd
000000f0: 5120 183c 9193 733c e9f0 d93b 9383 c6bc
00000100: 25ea 0a3d 2c12 95bd 838a 183d 4dd0 82bd
00000110: 2887 14bd a4e4 80bd 65f3 0a3d 26f9 423d
00000120: 2201 bf3d c656 833d 9117 c23d 3022 6c3d
00000130: 3e82 46bd b35c b23d 5e0b 213d 4730 ad3d
00000140: a86d 903d 7eb9 8e3b e515 a2bd d4ce 863d
00000150: 37d5 8cbd ffb6 7fbd af91 843c 25f3 ee3d
00000160: 1b59 1fbd 80fd 2dbd 0ea6 00bd 0efd 62bd
00000170: f377 2b3d 3a19 483d c310 b3bd c67c 8f3d
00000180: ee65 54bd 7181 723d f443 513d f22d 12bd
00000190: f389 283d c133 a8bc c2ec 00bd 695d c0bd
000001a0: 3c20 41bd c73e 93bc a428 b03d a6b0 683d
000001b0: 3019 593d 5234 7fbc a88c 953b 1910 823c
000001c0: 6e99 babc db64 7ebd 7349 94bc 0ece 8abc
000001d0: dbc1 04bd 9056 8ebd 3071 8c3c 9d43 a6bc
000001e0: e8a0 4fbc 3485 60bd 435d c73c 0895 9e3d
000001f0: 53d2 803d 719e 2fbd 4eba d7bc bc68 00be
00000200: 7f92 843d 18d6 0a3d 1f76 2c3d 493b a63d
00000210: cea5 a43d bc32 9b3d 388c 003d f7d6 98bd
00000220: a7c6 5c3d c77c eebd b7f3 c7bd e0e4 ee3a
00000230: 97d0 b43d 8f20 84bd c95c a93d 3613 c1bd
00000240: 4cb6 e43c 74a0 d83d 8c44 cbbb 9045 0a3d
00000250: e2a7 44bd 6daa 26bd 162b 11bd 06d1 6cbd
00000260: 7b2f d5bc bdc9 a6bd b296 c4bd ecd3 e53c
00000270: 7d23 1d3d 8e38 dbbd 1a01 a73d 2874 853c
00000280: 9e9b 0f3d dd2a e83c ba32 e5bd 1a13 c63c
00000290: 1ca0 293b db6d dcbd 543f 8dbd 678c 733d
000002a0: 0dd6 d93b 4d71 e03d 620d c23b 5f22 fb3c
000002b0: e1b2 943d 5f09 b2bd 63e0 d03a 6274 113d
000002c0: a78d 0f3d ddb7 9d3d 93c1 3fbd ee34 8b3c
000002d0: 6b88 023c 61b5 0dbc 6e92 a7bd 013a f1bc
000002e0: 1e45 c83d 87c1 c5bc 73db 4d3d 6503 6b3d
000002f0: e21a 72bd 960d e13d 1bd7 d93a 77c1 95bc
00000300: 6215 893d 07b4 1bbd accc 8abd 6445 aebd
00000310: 250c dd3a 58f8 77bd 5ea2 913d 331d 803d
00000320: 2983 ca3c 36a4 423c b8bd a6bc 7cc1 843d
00000330: 1158 0ebc 46ff bd3d 316d a33d c251 87bd
00000340: 0175 853d 4ea4 75bd dca8 81bd 9d52 81bd
00000350: 8ea4 4bbd 9369 633d 9b37 383d ad16 e93c
00000360: 2b93 653d 6320 96bd d418 5ebd b886 a0bd
00000370: 1228 0e3d ff29 553d 58d0 f4bb 0ae6 9f3d
00000380: 817c 91bd c25a ed3c 8df8 8b3d 5bf2 e93c
00000390: caa2 323d f3e9 403d dde1 10bd 6844 91bc
000003a0: 60f3 e9bb 1b75 8c3d df48 213d d8a7 683b
000003b0: 9f79 4c3d 4438 ffbc 1a1b 9dbc 860d c6bb
000003c0: a205 d0bc 82c2 84bd 58f1 543d b8fd 6fb9
000003d0: 2c32 8cb8 2adf 9fbc 9863 0dbd db23 b43d
000003e0: 5416 92bd adb3 72bc e767 00bd f32f 7d3c
000003f0: d013 5bbd 3c65 8abc 4d38 8abd 770a 993d

dense.0.bias f4 [10]
0.07920738 -0.05607656 0.17569968 -0.0028111143 0.060708173 0.029372966 -0.04233367 0.06820116
-0.01304866 0.079001315
00000000: 7b37 a23d 89b0 65bd 9eea 333e ac3a 38bb
00000010: 22a9 783d 939f f03c 1266 2dbd 0dad 8b3d
00000020: 0cca 55bc 71cb a13d

dense.3.weight f4 [10]
1.5508785 1.5116969 1.5253962 1.5102495 1.5050427 1.5489864 1.5108299 1.5271088
1.5284854 1.5692987
00000000: 3083 c63f 497f c13f 2f40 c33f db4f c13f
00000010: 3da5 c03f 3045 c63f e062 c13f 4d78 c33f
00000020: 69a5 c33f c8de c83f

dense.3.bias f4 [10]
0.34887275 -0.48932928 0.48681512 -0.47696507 -0.43809673 0.4524133 -0.4911394 0.48231563
-0.4183991 0.48965007
00000000: 739f b23e 5e89 fabe d53f f93e c434 f4be
00000010: 374e e0be b7a2 e73e a076 fbbe 13f2 f63e
00000020: 6838 d6be 6ab3 fa3e

dense.3.running_mean f4 [10]
0.24273404 0.11771342 0.30183932 0.15689343 0.14779735 0.203593 0.15727393 0.20122573
0.22369125 0.23885466
00000000: 468f 783e bc13 f13d af8a 9a3e aca8 203e
00000010: 3058 173e af7a 503e 6b0c 213e 1e0e 4e3e
00000020: 520f 653e 5196 743e

dense.3.running_var f4 [10]
0.13061501 0.0966288 0.18173467 0.13088022 0.102427214 0.12392131 0.09059236 0.13447733
0.17433283 0.1583884
00000000: f1bf 053e 52e5 c53d a718 3a3e 7705 063e
00000010: 5cc5 d13d 75ca fd3d 7d88 b93d 6db4 093e
00000020: 4e84 323e 9230 223e

dense.4.weight f4 [6, 10]
0.43514892 -0.62109417 0.39129925 -0.61021864 -0.77911115 0.48633552 -0.6376569 0.7454034
-0.6160251 0.56430095 -0.5094822 0.60494417 -0.44476297 0.51714575 0.54092914 -0.7482249
-0.36390272 -0.26127315 0.41824248 0.16446732 -0.5856947 0.6567172 -0.25040367 0.1441196
0.65912646 -0.46467686 0.68727666 -0.5577715 -0.41283795 -0.44453755 -0.7620263 -0.51646197
0.7043041 0.072684035 0.445625 -0.6942119 -0.72323596 -0.64883155 0.41983172 -0.50806355
-0.35202926 0.6823798 -0.34190336 0.7157897 -0.47305024 -0.22929935 0.41553813 -0.42855594
0.6049452 -0.40815914 0.23457593 -0.30292892 -0.6646982 -0.34082144 -0.48343277 -0.607336
0.5264849 -0.7428236 -0.4085975 -0.4130826
00000000: d7cb de3e 0700 1fbf 6058 c83e 4a37 1cbf
00000010: d473 47bf f800 f93e 7c3d 23bf c2d2 3e3f
00000020: d2b3 1dbf 0776 103f 6d6d 02bf 9fdd 1a3f
00000030: f9b7 e3be aa63 043f 557a 0a3f ab8b 3fbf
00000040: 7551 babe 98c5 85be e123 d63e 1f6a 283e
00000050: 16f0 15bf 9e1e 283f e934 80be 1794 133e
00000060: 83bc 283f 20ea edbe 5df1 2f3f 1dca 0ebf
00000070: 7f5f d3be 6d9a e3be 2814 43bf da36 04bf
00000080: 464d 343f 5edb 943d f628 e43e dfb7 31bf
00000090: fe25 39bf d319 26bf 2ff4 d63e 7410 02bf
000000a0: 2e3d b4be 71b0 2e3f f50d afbe fe3d 373f
000000b0: a433 f2be 73cd 6abe 6ac1 d43e af6b dbbe
000000c0: b0dd 1a3f 3cfa d0be ac34 703e 8019 9bbe
000000d0: a929 2abf 2680 aebe 8084 f7be 5f7a 1bbf
000000e0: b7c7 063f b029 3ebf b133 d1be 907f d3be

dense.4.bias f4 [6]
0.2904639 -0.12041301 -0.3081051 0.3732273 -0.0958236 -0.13878442
00000000: afb7 943e 199b f6bd f4bf 9dbe a617 bf3e
00000010: 2a3f c4bd 811d 0ebe
