model/2023_1_5_hj_num_8.onnx (onnx, 9460 bytes, 10 tensors)

conv.0.weight f4 [3, 1, 5, 5]
0	0x3d435832	0.04769153
1	0x3cc99784	0.024608381
2	0xbc67bea5	-0.014144574
3	0xbace1b09	-0.001572461
4	0x3c96bcf9	0.018400656
5	0xbe5dbf5f	-0.21655034
6	0xbd651b71	-0.055934373
7	0x3d4bb95a	0.049737312
8	0x3bcc0cc0	0.006227106
9	0x3d4c0407	0.04980853
10	0x3c8ff968	0.01757498
11	0x3d20e1e8	0.03927794
12	0xbe4e8005	-0.20166023
13	0xba7ee776	-0.00097238214
14	0xbd31e277	-0.043428864
15	0xbc606c7c	-0.01369774
16	0x3d7dbd80	0.0619483
17	0x3df9ac42	0.12191059
18	0x3dec280e	0.11531077
19	0x3e068dc6	0.1314002
20	0xbd489862	-0.04897345
21	0xbce96229	-0.02848919
22	0xbcb55af1	-0.02213809
23	0xbd0117e4	-0.031516925
24	0xbdafd5e1	-0.08585716
25	0xbe275340	-0.16340351
26	0xbcd5af01	-0.026084425
27	0x3d160c4b	0.036632817
28	0x3cbf5c31	0.02335939
29	0x3b83c5b7	0.004021372
30	0xbe1e64bf	-0.15468119
31	0xbe164e6c	-0.14678353
32	0x3d450e25	0.048109192
33	0xbb0f3aad	-0.0021855042
34	0xbd036376	-0.032077275
35	0xbe15d49e	-0.14631888
36	0xbacba93e	-0.0015538109
37	0x3c8cb538	0.017176256
38	0x3d00c6dd	0.03143965
39	0xbcb506ab	-0.022097906
40	0x3d183e50	0.0371688
41	0xbd5c3c83	-0.053768646
42	0xbdb6bb1d	-0.08922408
43	0x3c47ea5f	0.0122018745
44	0xbdaf8df2	-0.08571996
45	0xbe1d1b80	-0.15342522
46	0xbd2febf6	-0.04294964
47	0xbd1fd1a9	-0.039018307
48	0xbdf20b5c	-0.11818573
49	0xbd5e4eef	-0.054274496
50	0x3d174f16	0.036940657
51	0x3d9e9faf	0.07745301
52	0x3df19c7e	0.11797427
53	0x3e0c77ef	0.13717626
54	0x3dff56c7	0.12467723
55	0xbc9a1957	-0.018810911
56	0xbce44941	-0.027866961
57	0xba120af7	-0.0005571092
58	0xbd12e98a	-0.03586725
59	0xbd75ca4a	-0.06000737
60	0xbe0f16f3	-0.13973598
61	0xbd43cad6	-0.04780086
62	0xbd77e2ba	-0.060518958
63	0xbde948b0	-0.11390817
64	0xbd37ca80	-0.044870853
65	0x3de49096	0.1116039
66	0x3d32e33e	0.043673746
67	0xbae83590	-0.0017716158
68	0xbca762ac	-0.020432793
69	0xbd02d0e8	-0.03193751
70	0xbcb1132f	-0.021615593
71	0xbc6348fe	-0.013872383
72	0xbbdde466	-0.006771612
73	0xbc880d7e	-0.016607996
74	0xbd6deb88	-0.05808595

conv.0.bias f4 [3]
0	0xbe75e814	-0.24014312
1	0x3e1f6be7	0.15568505
2	0xbe70d4db	-0.23518698

conv.5.weight f4 [24, 72]
0	0xbc3bae20	-0.011455089
1	0xbd0fd588	-0.03511575
2	0x3ca356db	0.019938877
3	0xbcee91f2	-0.029122327
4	0x3c04a041	0.008094848
5	0xbc8b5d47	-0.017012252
6	0x3d3345e8	0.04376784
7	0x3bf5ef52	0.007505336
8	0x3c3acb85	0.011401062
9	0x3ced2f8b	0.028953334
10	0x3d38f6c7	0.04515722
11	0x3ce4f3ae	0.027948227
12	0x3badf9c6	0.0053093163
13	0xbc9a3bc3	-0.018827325
14	0x3b455eae	0.0030116248
15	0xbca0c9af	-0.01962742
16	0x3c1c0a9a	0.009524012
17	0xbc08add3	-0.008342224
18	0xbbce3243	-0.0062926128
19	0x3cf2a2e5	0.02961869
20	0x3bbb0966	0.0057079075
21	0x3d305985	0.043054122
22	0x3d1d584b	0.03841428
23	0x3d03706e	0.032089643
24	0x3c3cb2de	0.011517255
25	0xbc3d2918	-0.011545442
26	0x3cbe40c9	0.023224251
27	0x3d05d373	0.032672357
28	0x3aba544f	0.00142158
29	0xba2796ff	-0.00063930446
30	0x3c361b78	0.0111149475
31	0x3c0d28dd	0.0086157
32	0x3d72989c	0.05922757
33	0x3d108308	0.03528121
34	0x3ce0e9ce	0.027455237
35	0x3d01bbf4	0.031673387
36	0x3d717a23	0.05895437
37	0x3cbef6a9	0.023310976
38	0x3c90821b	0.017640164
39	0x3d526907	0.051369693
40	0x3ced338c	0.028955244
41	0x3d14f4eb	0.036366384
42	0xbc7b2ce5	-0.015330528
43	0xbc206653	-0.009790021
44	0x3bb91347	0.00564805
45	0xbd20d5fd	-0.039266575
46	0xbd28ec80	-0.04124117
47	0x3bd45f4c	0.006481087
48	0x3cd78271	0.026307316
49	0xbb718922	-0.003685542
50	0x3cf6ffcc	0.03015127
51	0xbc36a2aa	-0.011147181
52	0x3ca49075	0.020088414
53	0x3d3557a1	0.044273023
54	0x3bed3384	0.007238807
55	0x3b091170	0.0020914935
56	0xbb33084d	-0.002731818
57	0x3cb64508	0.022249714
58	0xbc91db92	-0.017804895
59	0xbd025117	-0.031815615
60	0xbc548d7c	-0.012973186
61	0x3d6b197a	0.057397343
62	0xbc32f0cc	-0.010921668
63	0x3d1be49d	0.03805982
64	0x3c038d2b	0.008029263
65	0x3cad9c9a	0.021192838
66	0x3c8d7cdc	0.017271452
67	0x3bc53447	0.006018195
68	0x39c1f264	0.00036992424
69	0xbc1944c5	-0.009354775
70	0x3cb91853	0.022594607
71	0xbc2236ec	-0.00990079
72	0x3c7a3513	0.015271443
73	0x3d9f506e	0.077790126
74	0xbd15c18f	-0.036561545
75	0x3d18dd04	0.037320152
76	0xbd0606bb	-0.032721262
77	0x3c6d7c06	0.0144949015
78	0xbd7298ff	-0.05922794
79	0xbcda636a	-0.026658732
80	0xb93cffd6	-0.00018024383
81	0xbd2b0678	-0.041754216
82	0xbd36d213	-0.044633936
83	0xbd2ee62e	-0.042699985
84	0x3c272e2d	0.01020388
85	0x3ca1efe2	0.019767705
86	0x3c3faf7a	0.011699552
87	0x3d9bd2d1	0.076085694
88	0x3cd0d5cc	0.025492571
89	0x3d9050b6	0.070466444
90	0x3bf43e23	0.0074536963
91	0x3cb94255	0.022614637
92	0x3c74bb1f	0.014937191
93	0xbd506a9a	-0.050882913
94	0xbd32f921	-0.04369462
95	0x3c2e959f	0.01065579
96	0x3c19a539	0.009377771
97	0xbc5b3573	-0.0133794425
98	0xbcfaf0ec	-0.030632459
99	0xbcbd1f01	-0.023086073
100	0x3cba6dc1	0.022757413
101	0xbd1792d1	-0.03700525
102	0xbcb6f98f	-0.022335796
103	0xbc35a8e2	-0.011087628
104	0xbda1a237	-0.07892268
105	0xbb9f3659	-0.0048587737
106	0xbcab3092	-0.020897184
107	0xbcfaf707	-0.03063537
108	0xbc18ef87	-0.0093344515
109	0x3caa7f77	0.020812733
110	0xbcbf2b61	-0.023336114
111	0xbcec9c1a	-0.028883029
112	0xbc6dddb2	-0.014518188
113	0x3c20f5c9	0.009824225
114	0x3d51d858	0.051231712
115	0x390967c8	0.00013104
116	0xbc949023	-0.018135136
117	0x3d7c76eb	0.061636847
118	0x3d06b55e	0.03288781
119	0xbb51e4ef	-0.0032027324
120	0xbcb07773	-0.021541333
121	0x3d384570	0.044988096
122	0xbb0742fc	-0.002063929
123	0x3d65bacc	0.056086347
124	0xbb9bfc7d	-0.0047603236
125	0x3c53b16f	0.012920721
126	0x3bbdfb1e	0.0057977578
127	0x3d1ba1b1	0.037995998
128	0x3c3f82e2	0.01168892
129	0x3c99ff56	0.018798511
130	0x3cfd197c	0.030895941
131	0x3d814bb9	0.06313271
132	0x3c4ccc69	0.012499907
133	0xbd409813	-0.04702003
134	0x3d2ee24d	0.042696286
135	0xbc8bebf2	-0.01708028
136	0x3ab5845e	0.0013848653
137	0xbbcdcb8a	-0.0062803673
138	0x3c301eb0	0.010749504
139	0xbd5c6995	-0.05381163
140	0xbd2ef4a2	-0.04271377
141	0xbc07fab2	-0.0082995165
142	0xbc6abd1f	-0.014327317
143	0x3b78704c	0.003790873
144	0xbd0a96e9	-0.033835325
145	0xbdbc0e9e	-0.091824755
146	0xbcde3d59	-0.027128862
147	0xbda686b1	-0.08131159
148	0xbcb6cbd5	-0.022313992
149	0xbd99219e	-0.07477115
150	0x3d341ed2	0.043974705
151	0x3c142b98	0.009043597
152	0x3ce7fcc9	0.02831878
153	0xbc9cd630	-0.019145101
154	0x3d550411	0.05200583
155	0x3c953209	0.018212335
156	0xbc86d488	-0.016458765
157	0x3da04d50	0.07827246
158	0x3d27bcb7	0.040951457
159	0x3d264a69	0.040598307
160	0x3bab45a9	0.00522681
161	0x3daa034f	0.08301412
162	0xbcb79c09	-0.02241327
163	0xbd3ae75f	-0.04563081
164	0xbd4d2053	-0.050079655
165	0xbd066cd3	-0.032818627
166	0x3c93d123	0.01804406
167	0xbc65c0bc	-0.014023002
168	0x3b8ebeb3	0.004356229
169	0xbcab33c7	-0.020898713
170	0x3cb11bfa	0.021619786
171	0x3c9a634b	0.018846175
172	0xb91a0d48	-0.00014691532
173	0xbd2ed91b	-0.042687517
174	0xbb4d2410	-0.0031302013
175	0x3ce03bd6	0.027372282
176	0x3d1c3435	0.038135726
177	0x3cd0633b	0.025437942
178	0x3c601c1d	0.013678578
179	0x3d65f813	0.056144785
180	0x3de00def	0.109401576
181	0xbd14f266	-0.03636398
182	0xbc827ad6	-0.015927713
183	0x3b3dbc9f	0.0028951538
184	0xbc679d25	-0.014136587
185	0xbd1b82d2	-0.037966557
186	0xbbc7d9a1	-0.0060989414
187	0xbd123298	-0.03569278
188	0xbcb38d42	-0.021917943
189	0xbd72e7af	-0.059302982
190	0xbd96181d	-0.07328818
191	0xbd4cf2da	-0.05003629
192	0x3c61885d	0.013765422
193	0xbd86ae49	-0.06576211
194	0x3db4dda0	0.08831334
195	0xbda7729b	-0.08176156
196	0x3cedebef	0.029043166
197	0x3c401083	0.011722687
198	0x3c36d10d	0.01115824
199	0xbc72a83c	-0.014810618
200	0x3d098e28	0.033582836
201	0x3d266245	0.04062106
202	0xbc9ed54a	-0.019388814
203	0xbd124389	-0.035708938
204	0x3c286639	0.010278278
205	0xbcb41736	-0.021983724
206	0xbba6d091	-0.005090781
207	0xbc5eb45f	-0.0135928085
208	0xbbb48140	-0.005508572
209	0xbcf7ac3b	-0.030233493
210	0x3c3d744d	0.011563373
211	0xbc9fd84c	-0.019512318
212	0xbc13a0b4	-0.009010483
213	0xbcd3adaa	-0.025839645
214	0x3cbba19d	0.022904212
215	0xbd418093	-0.04724176
216	0x3b681574	0.0035413178
217	0x3d076799	0.033057783
218	0xbc2ece97	-0.010669372
219	0x3d047e4f	0.03234702
220	0xbac2c2de	-0.00148591
221	0x3d9160a4	0.07098511
222	0x3d2f854a	0.042851724
223	0x3cc4a109	0.024002569
224	0xbbce2997	-0.006291579
225	0x3b9b71ba	0.004743782
226	0xbc3eaede	-0.011638371
227	0xbc1389ff	-0.009005069
228	0x3cbc585e	0.022991356
229	0x3d520938	0.051278323
230	0x3be04383	0.0068439855
231	0x3b5d4fed	0.0033769563
232	0x3d4ec6e2	0.05048264
233	0xbc9d1961	-0.01917714
234	0x3c7c8d7f	0.015414595
235	0xbc91646d	-0.017748082
236	0x3c5b4540	0.01338321
237	0x3d890769	0.066908665
238	0x3c994b84	0.018712766
239	0xbd250bc9	-0.040294442
240	0xbb8d140a	-0.0043053674
241	0xbc848c36	-0.016180139
242	0xbd07b959	-0.033135746
243	0xbc1f5a0a	-0.009726057
244	0xbd0de33c	-0.034640536
245	0xbc91d978	-0.017803892
246	0xbcbb993e	-0.02290022
247	0x3d8e916f	0.06961333
248	0x3d6eb8d4	0.058281735
249	0x3d57cc5f	0.052685138
250	0x3c8ef221	0.01744944
251	0x3d8dfd51	0.06933082
252	0xbd103d59	-0.035214756
253	0x3d8470ec	0.06466851
254	0x3b30f36d	0.0027000562
255	0x3d6c23c8	0.05765131

conv.5.bias f4 [24]
0	0xbcf70512	-0.030153785
1	0x3d224a60	0.03962171
2	0x3d85eae4	0.065389425
3	0xbcf38ee1	-0.029731216
4	0x3d32d06f	0.04365581
5	0xbc58f864	-0.013242815
6	0x3b90fb90	0.00442452
7	0xbb96d0ad	-0.004602513
8	0xbd12cbc4	-0.035838857
9	0x3d14d60a	0.036336936
10	0xbcd28398	-0.025697514
11	0x3b6df4c2	0.0036309217
12	0x3d566ed8	0.052351803
13	0x3a5bef9d	0.0008389892
14	0xbbab3275	-0.005224521
15	0xbcbc667a	-0.022998083
16	0x3c1eb7c9	0.0096873725
17	0x3dc102c7	0.09424358
18	0x3abef8e4	0.0014570025
19	0xbcd48901	-0.025944235
20	0xbd9d2e80	-0.07674885
21	0xbd3d1194	-0.046159342
22	0xbd024ef8	-0.03181359
23	0xbd45d3ff	-0.04829788

BN.weight f4 [24]
0	0x3f166908	0.58754015
1	0x3f45df9d	0.7729433
2	0x3f48d61c	0.78451705
3	0x3f38af0c	0.721421
4	0x3f14ae8e	0.5807885
5	0x3f4847c2	0.78234494
6	0x3f0154e1	0.5052014
7	0x3f32ad6e	0.6979588
8	0x3f18f899	0.5975433
9	0x3f1614ad	0.586253
10	0x3f44a803	0.76818866
11	0x3f51945b	0.81867
12	0x3f1fdc1e	0.6244525
13	0x3f3b2af9	0.73112446
14	0x3f0584bf	0.5215568
15	0x3f330df5	0.6994317
16	0x3f3bf20b	0.73416203
17	0x3f609191	0.87722117
18	0x3f05d573	0.5227882
19	0x3f51ac35	0.8190339
20	0x3f39da05	0.72598296
21	0x3f1146ec	0.56748843
22	0x3f164b29	0.58708435
23	0x3f3aedab	0.730189

BN.bias f4 [24]
0	0x3e97033c	0.29494655
1	0x3eca110e	0.39466137
2	0x3f0a8611	0.5411082
3	0x3eee65c0	0.46562004
4	0x3ec33489	0.3812602
5	0x3ef18629	0.4717267
6	0x3e87301c	0.26403892
7	0x3ebd3a27	0.3695843
8	0x3ea6b4da	0.32559854
9	0x3ec77359	0.3895519
10	0x3eef29e8	0.4671166
11	0x3ed79f99	0.4211395
12	0x3ec32644	0.38115132
13	0x3ea5e30f	0.32399794
14	0x3e83006e	0.25586265
15	0x3e91c5d9	0.28471258
16	0x3ebf5783	0.37371454
17	0x3ee0dd0a	0.4391864
18	0x3e8f6982	0.28010184
19	0x3ece78d9	0.40326574
20	0x3ea53868	0.32269597
21	0x3eae85a2	0.3408633
22	0x3e9c9eaa	0.305898
23	0x3e972e53	0.2952753

BN.running_mean f4 [24]
0	0x3d5c56a8	0.05379358
1	0x3c832db6	0.016013008
2	0x3b4b550f	0.003102604
3	0x3d359b30	0.04433745
4	0x3c3e3482	0.0116091985
5	0xbc8a8b86	-0.016912233
6	0x3d3e7e04	0.046506897
7	0x3d043045	0.032272596
8	0x3d51fcb6	0.051266395
9	0x3ba0d43b	0.0049081123
10	0x3d342fc3	0.04399086
11	0x3c84deb7	0.01621948
12	0x3d627b4a	0.05529336
13	0xbbce39e3	-0.0062935217
14	0x3d2ab17f	0.04167318
15	0x3c496782	0.012292745
16	0x3caed076	0.021339636
17	0xbc9b2a28	-0.018941
18	0x3c5e1f37	0.013557247
19	0xbc2c5d8b	-0.010520349
20	0x3cda1f45	0.026626239
21	0x3b91309f	0.004430845
22	0x3d72dd24	0.059292927
23	0xbc34addf	-0.011027782

BN.running_var f4 [24]
0	0x3b67d370	0.003537383
1	0x3b544fff	0.0032396314
2	0x3b827603	0.0039813532
3	0x3b40c1bb	0.0029412347
4	0x3b3d469a	0.0028881193
5	0x3b60ccc2	0.0034301733
6	0x3b92e4c8	0.0044828393
7	0x3b866645	0.004101547
8	0x3b858970	0.0040752217
9	0x3b6f354a	0.0036500269
10	0x3b7f6bd4	0.0038974183
11	0x3b78f8aa	0.0037990012
12	0x3b7f70e8	0.003897721
13	0x3b583aa8	0.0032993946
14	0x3b57bca2	0.003291883
15	0x3b8b4f6c	0.004251411
16	0x3b5321cc	0.003221619
17	0x3b996e23	0.004682319
18	0x3b831043	0.0039997413
19	0x3b39dfda	0.0028362186
20	0x3b525627	0.0032094808
21	0x3b838c42	0.004014523
22	0x3b93a320	0.00450553
23	0x3b576438	0.0032866132

dense.1.weight f4 [6, 24]
0	0x3eac8c06	0.3370058
1	0xbeb79d31	-0.35862115
2	0x3ef38fca	0.4757064
3	0x3ed8e019	0.42358473
4	0x3ea17b9c	0.3153962
5	0x3ee84e75	0.45372358
6	0x3f05937c	0.5217817
7	0x3ed5cf2f	0.4175963
8	0x3eb79bcc	0.3586105
9	0x3eaeb51c	0.3412255
10	0x3edf60a0	0.43628407
11	0xbe89c82b	-0.2691053
12	0x3eae1108	0.3399737
13	0xbe294164	-0.16528851
14	0x3f075916	0.5287031
15	0xbe85a44e	-0.26101917
16	0xbec51b1b	-0.38497242
17	0xbe779ee7	-0.2418171
18	0x3f0b848d	0.5449913
19	0xbed988ac	-0.42487085
20	0xbe60df98	-0.21960294
21	0x3eb7372b	0.35784277
22	0x3eaf4819	0.34234694
23	0xbe54d73f	-0.20785235
24	0xbe5a6292	-0.21326664
25	0x3e53dc20	0.2068944
26	0xbe917857	-0.28412125
27	0x3f0f7e6a	0.5605227
28	0xbe5b372b	-0.21407764
29	0xbe9895b2	-0.29801708
30	0xbdcb1b37	-0.099173
31	0xbe81df67	-0.25365755
32	0xbe57f79c	-0.21090549
33	0xbe4e81cb	-0.201667
34	0x3f13fe1f	0.57809633
35	0x3f0ac37d	0.5420454
36	0xbe62e2c2	-0.22156814
37	0xbe85517c	-0.2603873
38	0xbde53d07	-0.11193281
39	0xbdd76536	-0.10517351
40	0x3eb99900	0.36249542
41	0xbea74f74	-0.32677805
42	0xbe035e58	-0.12828958
43	0xbeb95cb7	-0.36203548
44	0x3eff6a35	0.49885717
45	0xbe584640	-0.21120548
46	0xbe50459e	-0.20339057
47	0x3eddfa4f	0.43355033
48	0xbe52a0ee	-0.20569202
49	0x3ee8366f	0.4535403
50	0x3f1fe9aa	0.6246592
51	0xbe77128e	-0.24128172
52	0xbe265d95	-0.16246636
53	0xbe70c515	-0.23512681
54	0xbdbbb17f	-0.09164714
55	0xbe5d632f	-0.21619867
56	0xbe543b3d	-0.20725723
57	0xbe4d32eb	-0.20038955
58	0xbe891df3	-0.26780662
59	0xbe69f327	-0.22846662
60	0xbe3ddc42	-0.18541053
61	0x3f0b605e	0.5444392
62	0xbdb1b72c	-0.086775154
63	0xbe90a65d	-0.28251925
64	0x3ed65122	0.41858774
65	0x3f1a4fc1	0.60277945
66	0xbd81aa2b	-0.06331285
67	0xbea0d4d8	-0.31412387
68	0xbe8d5897	-0.2760665
69	0xbe537ddd	-0.20653482
70	0xbe4cb408	-0.19990551
71	0xbe8e77fd	-0.2782592
72	0x3ecff5a8	0.40617108
73	0xbead20c4	-0.3381406
74	0xbe932e56	-0.2874629
75	0xbe85ebc5	-0.2615644
76	0xbe612b9f	-0.21989296
77	0xbe84478e	-0.25835842
78	0xbdfbd3f8	-0.12296289
79	0xbe5d5e6e	-0.21618053
80	0x3ed7e07a	0.4216345
81	0xbe6773d4	-0.22602779
82	0xbe6e9984	-0.23300749
83	0xbe85b793	-0.2611662
84	0xbe6fe6ff	-0.23427962
85	0x3ebc43d7	0.36770508
86	0xbdffeb5b	-0.12496062
87	0x3ecdcee5	0.4019691
88	0x3e5b5be3	0.21421771
89	0xbe98cdd0	-0.29844522
90	0xbe08a837	-0.13345419
91	0x3eaac1ee	0.33351082
92	0x3ed5688f	0.41681334
93	0x3ed1a916	0.40949315
94	0x3ed4e5f9	0.41581705
95	0xbe5ca8d5	-0.2154878
96	0xbe4a57f4	-0.19760114
97	0xbeae0d19	-0.33994368
98	0xbe8fcf23	-0.2808772
99	0xbe7ed8c3	-0.24887376
100	0x3ef8129a	0.48451692
101	0xbe86e8fa	-0.26349622
102	0xbde5707c	-0.11203095
103	0xbe701a71	-0.23447587
104	0xbe5bd184	-0.21466643
105	0x3ef4e916	0.4783408
106	0xbe89f896	-0.2694747
107	0x3f05dabb	0.5228688
108	0x3efea2c0	0.49733543
109	0xbe8a2b6f	-0.26986262
110	0xbe0bdb9c	-0.13657993
111	0x3ee99c6a	0.45627147
112	0xbea5f4c3	-0.324133
113	0x3f065b19	0.52482754
114	0xbe0b0aab	-0.13578288
115	0x3e926a13	0.28596553
116	0xbe58345b	-0.21113722
117	0xbe4c4f5a	-0.19952145
118	0xbe5aca8d	-0.2136633
119	0xbe520102	-0.20508197
120	0xbe27b7b0	-0.16378665
121	0x3ec38d5a	0.3819378
122	0xbe82d468	-0.25552678
123	0xbe722e0b	-0.23650376
124	0xbe465753	-0.19369249
125	0x3f1984db	0.59968346
126	0xbdd80242	-0.10547306
127	0x3ef2dfd5	0.47436395
128	0xbe28ac8e	-0.16472074
129	0xbe360ef8	-0.17779148
130	0xbe82221d	-0.2541665
131	0xbe9b6d33	-0.3035675
132	0xbe4a40a3	-0.1975122
133	0xbe5f22c8	-0.21790612
134	0xbda9d972	-0.082934275
135	0xbe518ece	-0.20464632
136	0xbe8c0bb9	-0.27352694
137	0xbe825493	-0.2545515
138	0xbdac7c36	-0.08422129
139	0x3ef820c6	0.48462504
140	0xbe603c74	-0.21898061
141	0xbe207e9e	-0.156733
142	0xbe1e3f7b	-0.15453903
143	0x3ef3e6a6	0.47636908

dense.1.bias f4 [6]
0	0x3d731fbf	0.059356447
1	0xb9c71c02	-0.00037977105
2	0x3d23bdb9	0.039975855
3	0xbdbf1038	-0.09329265
4	0x3b91300e	0.0044307774
5	0xbc4ff341	-0.012692274
