model/2023_4_9_hj_num_1.onnx (onnx, 134038 bytes, 29 tensors)

block_neck1.block_neck.0.weight f4 [3, 1, 1, 1]
000000 1b d1 34 be 2f dd 71 3e 0c 4c 70 be
       -0.17657892 0.23619531 -0.2346651

block_neck1.block_neck.1.weight f4 [3, 1, 3, 3]
000000 e6 ec c1 bd af 61 f5 bc d2 ae 93 39 46 e6 2c bd
       -0.09469013 -0.029953806 0.00028168276 -0.042211793
000010 b1 ad 8e 3d c8 d1 9d 3c 92 b8 33 be 62 d1 60 3c
       0.06966723 0.01926507 -0.17550877 0.013721796
000020 3f aa da bd 15 e3 a3 bd 43 f2 a4 bd b6 00 1f be
       -0.10677003 -0.08002297 -0.0805402 -0.15527615
000030 c8 26 9f bd 4d f8 ef 3c 86 81 b7 bd 05 fa 14 b9
       -0.07771069 0.029293204 -0.089602515 -0.0001420752
000040 e9 1e 3a bd e0 81 0b be 07 ae 30 3c 02 45 9d 3d
       -0.045439634 -0.13623762 0.010783679 0.07679178
000050 3d a9 2e 3e 4f 47 1b 3d 57 9c 05 3d 59 7d 03 3d
       0.17056747 0.037909802 0.0326198 0.032101963
000060 18 4a 91 bd f4 38 45 3c e4 5d 2f 3e
       -0.070942104 0.012037504 0.1712566

block_neck2.block_neck.0.weight f4 [16, 1, 1, 1]
000000 ca cf 68 be 14 e7 24 3e 6c f2 55 3e 04 0e 6e be
       -0.22735515 0.16103774 0.20893258 -0.23247534
000010 66 05 51 be 06 d0 31 3e 1a 2f 43 be 5a fe 50 3e
       -0.20412216 0.17364511 -0.19060937 0.20409527
000020 1a 08 29 3e d3 cc 22 be a8 52 35 3e 97 d9 39 be
       0.16506997 -0.15898447 0.17707312 -0.1814941
000030 6a 8c 45 be c9 86 2e 3e eb ef 1a 3e 48 76 38 be
       -0.19291845 0.17043604 0.15130584 -0.1801387

block_neck2.block_neck.1.weight f4 [16, 1, 3, 3]
000000 47 9a f4 bc 1c ac 80 3c 8a 82 03 bd 5f 3b c5 bd
       -0.029858721 0.015707068 -0.032106914 -0.09630465
000010 98 d7 c4 bc c4 5a 30 be 22 23 97 bc a6 9f 04 be
       -0.024028584 -0.17222124 -0.01844937 -0.12951526
000020 03 cd c8 bd 12 ff c1 bc ac c3 b3 bd 34 69 c7 bd
       -0.09804728 -0.023681197 -0.08777556 -0.09736863
000030 a8 2e b1 bb 46 c3 6a bc e6 57 98 3d f4 d9 e6 3d
       -0.005407173 -0.014328783 0.0743864 0.1127204
000040 4a 22 11 3e 61 74 bf 3d 96 ff 97 bc 12 09 aa 3d
       0.14173236 0.093483694 -0.01855449 0.08302511
000050 b2 00 5a 3d e7 48 b6 3d c6 6e 19 bd 0d e7 17 3e
       0.05322332 0.08900624 -0.037459157 0.14834233
000060 a3 3e d0 3d 81 e3 7a 3d b3 3c 93 3c 45 b6 2a be
       0.10168197 0.06125212 0.01797328 -0.16671093
000070 9f 73 07 be e8 3b c9 3c 80 f9 31 bd 48 d1 71 3c
       -0.132277 0.024564698 -0.043450832 0.014759369
000080 f2 90 ca 3d a6 f2 8b bc 50 66 66 3d a8 45 57 3c
       0.098909274 -0.017083477 0.056249917 0.013139166
000090 1b dc f7 bd 67 3b 0a be 9d 84 f7 bd dc 15 b7 bd
       -0.12102529 -0.13499223 -0.12085841 -0.08939716
0000a0 ef d2 27 bd 80 89 70 bd ff a4 23 bc 8a 62 e0 bd
       -0.040972646 -0.05872488 -0.009988069 -0.10956295
0000b0 9b 47 62 3c 53 05 aa 3d 79 36 29 3d 6a 9c 81 bd
       0.013811017 0.08301797 0.041311715 -0.06328662
0000c0 fd 53 85 3d bd 8f 95 3d 7e 2e d9 3d 05 e7 17 3d
       0.0651016 0.073028065 0.10604571 0.03708555
0000d0 4d 6f 43 3d 9c b0 d8 3c c8 b5 6c bd 82 49 cc 3c
       0.047713567 0.026451401 -0.057790548 0.024937395
0000e0 d4 48 bf bd ee a6 dd bc 7c 14 8f bd 4e d2 7e bc
       -0.09340063 -0.027057137 -0.06986329 -0.01555307
0000f0 16 f4 84 3d e7 49 53 3d 60 d0 17 3e 5a c3 ae bd
       0.06491868 0.05158415 0.14825583 -0.08533354
000100 30 de 1d 3d e5 18 49 bc 3e 08 cd bd e2 6a 62 3d
       0.038541973 -0.012274002 -0.10011338 0.055277713
000110 53 3e d0 bd 37 59 1f be 6a 57 7a bd 3e 14 e8 3c
       -0.101681374 -0.15561377 -0.06111852 0.028329965
000120 10 4b 33 bc d7 06 9b 3d ec 19 27 3e 75 2d bb bd
       -0.010943189 0.07569664 0.16318482 -0.091395296
000130 b8 3c b2 3d 64 63 ba 3d 0d d8 7e 3c 60 84 43 3d
       0.087029874 0.091009885 0.01555444 0.047733665
000140 7c 0a f1 3c bb f0 a0 bd f0 50 7d 3b 28 e8 50 3c
       0.029423945 -0.07858416 0.003865298 0.012750663
000150 c4 9c a8 3b cb 57 93 3d b6 b8 9b 3d 9a a3 25 3e
       0.005145641 0.071944796 0.0760359 0.1617569
000160 d0 14 4b 3d 5d 2f b5 3c 9f ef 1c bd 9d fd b3 bb
       0.049580395 0.022117311 -0.038314458 -0.0054928795
000170 47 51 2d 3e 2a f7 0c bd 54 d0 4c bd 6c 16 1f 3d
       0.16925536 -0.0344154 -0.050003365 0.038839743
000180 8c 27 f4 bc 06 26 18 3e 6e ec 98 3d d1 31 de bd
       -0.029804014 0.14858255 0.074669704 -0.108493455
000190 05 d0 2a 3d d5 78 24 3e b1 23 e1 bc e9 d7 54 3d
       0.04170229 0.16061719 -0.02748284 0.05196372
0001a0 f7 25 16 3d 2e 60 f3 bd c8 55 b9 bd 8b 1b 10 3c
       0.0366573 -0.11883579 -0.090495646 0.008795629
0001b0 38 c1 11 bd bc 85 2e 3d be 4c 13 3e 93 cc 82 bc
       -0.03558466 0.042608008 0.14384744 -0.01596669
0001c0 8e ee 2f bd 0d ae ab bd 78 17 04 3d 8d d8 8e 3b
       -0.042952113 -0.08382807 0.032248944 0.004359311
0001d0 3e 52 91 bd 44 c6 b4 bd ff a8 36 bd 92 e3 09 3d
       -0.070957646 -0.08826879 -0.04459476 0.033664294
0001e0 58 b1 c7 bd 8a a7 04 bd 29 b6 b0 bd 7a 62 fe bd
       -0.097506225 -0.03238634 -0.08628494 -0.12421127
0001f0 c5 13 49 bd e3 6b af bd ed 26 08 be 2b 93 c2 bd
       -0.04909112 -0.085655 -0.13296099 -0.09500726
000200 81 b8 c1 bd 45 0a ea 3c d6 76 72 3d 4b 1a 5e bd
       -0.094590195 0.02856935 0.059195362 -0.054224294
000210 5c b9 e3 bc 8a 4f 5d bd 2c a3 58 bc dd 94 5c bd
       -0.027798347 -0.054030932 -0.013222497 -0.053852905
000220 12 69 74 bd e4 02 92 bd 88 3b 0d 3d e0 2e da 3d
       -0.059670515 -0.071294576 0.0344806 0.10653472
000230 72 5c 30 bc dd ca 13 bd de e6 2d bd 97 fa c7 bd
       -0.010764228 -0.036082137 -0.0424565 -0.09764593

block_neck3.block_neck.0.weight f4 [32, 1, 1, 1]
000000 34 66 be 3d 58 47 1c be 96 37 08 be fa 84 e6 bd
       0.092968374 -0.1526159 -0.13302454 -0.11255832
000010 24 3f 05 be 73 06 41 3e 88 90 b6 3d ce b5 a2 3d
       -0.13012367 0.18850116 0.08914286 0.07944833
000020 29 90 31 be f9 b1 52 be 0a 01 e5 3d 08 4e dc bd
       -0.17340149 -0.20575704 0.11181839 -0.10757071
000030 29 10 de bd 20 f8 02 be 9f b2 4c be 3c 23 5b 3e
       -0.10842926 -0.12789965 -0.19990014 0.2140016
000040 7a 29 12 be 67 95 ae 3d b9 62 27 3e dd d0 32 be
       -0.14273635 0.0852459 0.16346253 -0.17462488
000050 9b b4 1a be 64 63 29 3e 1d b7 32 3e 2c a3 27 be
       -0.15107958 0.16541821 0.17452665 -0.16370839
000060 e5 93 04 be 99 9a d7 3d 77 5a 45 be 23 4d 21 3e
       -0.12947042 0.10527534 -0.19272791 0.15752082
000070 36 1c 0b 3e 6d 27 b7 bd 8b d1 01 be b8 6e 27 be
       0.1358498 -0.08943067 -0.1267759 -0.1635083

block_neck3.block_neck.1.weight f4 [32, 1, 3, 3]
000000 e4 e4 ce 3d 84 f9 e6 bc 96 e0 8f bd 68 32 b6 3d
       0.10102251 -0.02819515 -0.07025258 0.08896333
000010 0d 89 cf 3d 4c 2b 27 3d 61 05 5a 3c f4 d4 15 be
       0.10133562 0.040812775 0.0133069465 -0.14632016
000020 89 ab f2 bd 57 2e a6 bd 65 aa 10 3d 59 52 f6 3c
       -0.11849124 -0.081143074 0.03531875 0.030068563
000030 24 25 9f bd 72 2a 06 3d cc e5 07 bc 69 ae 56 bd
       -0.07770756 0.032755323 -0.008294534 -0.052412424
000040 8d 2c cb bc de d5 10 be 35 b1 22 be f8 29 8f bd
       -0.024801517 -0.14144084 -0.15887912 -0.06990427
000050 67 42 39 bc 7c 9d cc 3d d5 27 fb 3d 78 7a a2 3d
       -0.011307335 0.09990975 0.12263457 0.07933515
000060 ff 8b c9 3d a3 53 8a 3b fd 2a 72 bd e0 32 6a 3c
       0.09841155 0.004221396 -0.059123028 0.014294356
000070 c4 fe 0b 3e 1b d7 e1 3c db 64 ad 3c 4e 0d a0 bd
       0.13671404 0.02756839 0.021166256 -0.07815038
000080 e1 89 8f bd ee 2c 93 bc a0 6d 27 be 08 7e af 3c
       -0.0700872 -0.01796576 -0.16350412 0.021422401
000090 75 71 45 bd 24 25 91 bd e4 04 2c 3d 52 a3 3b bd
       -0.048203904 -0.07087162 0.04199685 -0.04581005
0000a0 70 6c 01 be eb 95 26 bd b3 34 4d bd 2b 67 da bd
       -0.12639022 -0.040670317 -0.050099086 -0.10664209
0000b0 e1 8f 6b 3c a0 54 cd 3c a8 91 8c 3d e2 3a a9 bd
       0.014377565 0.025064766 0.06863719 -0.08263184
0000c0 36 b2 71 3d 06 fb bf bd b9 15 bc bd 81 79 03 bd
       0.059007846 -0.09374051 -0.09183831 -0.032098297
0000d0 42 40 f5 bd 29 a9 47 3d 47 19 bd bd 27 86 26 3d
       -0.11975147 0.048745308 -0.09233337 0.04065528
0000e0 de a6 38 bd 83 2f 4a bd 41 ef 2d bd 56 68 18 3d
       -0.045081012 -0.049361717 -0.0424645 0.037208878
0000f0 88 53 bb bd 07 64 31 3e 6c d8 ed 3d c5 cf 2d bd
       -0.09146792 0.17323314 0.11613545 -0.042434473
000100 d1 a3 98 bd 16 21 c7 bd 0a 05 a9 3d 5a af 58 3d
       -0.074531205 -0.097231075 0.08252914 0.052901603
000110 c0 22 c5 bd df 40 81 3d 67 b4 9d 3d 2b b5 07 3d
       -0.09625769 0.06311201 0.07700425 0.03313176
000120 6f 75 e9 bd 3b a1 07 bd 85 ad 9f bc b0 33 d3 3c
       -0.11399352 -0.033112746 -0.01949192 0.025781482
000130 54 44 22 3d 66 fb c3 3c e2 ca cd 3d c1 03 9e bd
       0.039615944 0.023923587 0.100484625 -0.0771556
000140 3c 13 ac bd 98 56 49 3c 28 69 b7 bd 66 e2 5b 3d
       -0.08402106 0.012288712 -0.08955604 0.053682707
000150 7f d0 49 bb 01 d4 b6 bd 8b 6f 53 3d b1 a4 80 3d
       -0.003079444 -0.08927155 0.051620048 0.062814124
000160 b8 c2 17 3e b3 35 9f 3c 14 9a ef bd 71 11 cb bc
       0.14820373 0.019434785 -0.1169931 -0.02478859
000170 a6 57 ec 3d 05 8e 45 3d b9 d7 f9 3d 37 ec 61 3c
       0.11540155 0.048231144 0.12199349 0.013789228
000180 f9 05 c6 3d ad cc fb 3d d5 ee d6 bc 7d 2d 79 3d
       0.09669108 0.12294898 -0.02623693 0.060834397
000190 ba 5d 1c 3e bf 6e 99 3d 2b e3 04 bc 10 d1 8c 3c
       0.15270129 0.07491826 -0.008110802 0.017189533
0001a0 1e bc 1d 3d e1 31 72 bc 7d 2f 09 be 80 bc 90 bd
       0.03850948 -0.0147824 -0.13397022 -0.070672035
0001b0 13 00 69 bc 30 11 d4 bd d9 3b 49 3d 56 a6 7f 3d
       -0.014221209 -0.10354841 0.04912934 0.06241449
0001c0 2f 5a a9 bd d6 67 3a 3d 38 4b 8f bd 0d 70 60 bd
       -0.08269154 0.045509182 -0.06996769 -0.05479436
0001d0 2a 2c f3 3d 7b 7d fa 3b 78 83 57 3c e9 1b 3e 3e
       0.11873658 0.007644353 0.013153903 0.18565334
0001e0 3d d1 90 bc 81 29 52 bd a8 f2 f2 3c a9 77 11 bd
       -0.017677898 -0.051309112 0.029656723 -0.035514507
0001f0 fd 07 91 ba 4c bb d8 bd b4 93 c9 bd 47 f8 36 3d
       -0.0011065003 -0.10582599 -0.09842625 0.04467037
000200 5c 6c 23 be 8c c3 1d bd db 6b 82 3d 1b ad 97 bc
       -0.15959305 -0.038516566 0.06368228 -0.01851516
000210 f2 fb 18 3d 1a cf c8 3d 60 d7 c5 3b 1f 70 36 be
       0.03734965 0.098051265 0.0060376376 -0.17816208
000220 6c db 5c bd cf 2a e7 3d c6 12 2d bd 55 c2 52 bd
       -0.053920195 0.11287462 -0.042254232 -0.05145486
000230 c8 2c b2 bd ad e8 01 3d f6 20 99 3d 98 1e 63 bc
       -0.086999476 0.031716038 0.0747699 -0.013862275
000240 91 a8 ca 3c 32 29 35 3d 95 0f 15 bc 7f 13 1f 3c
       0.024738582 0.04422874 -0.009097953 0.009709238
000250 1e db ed bd 46 b3 7f 3d 74 f3 8e bd 5d 60 c0 3d
       -0.11614059 0.062426828 -0.06980029 0.0939338
000260 2b a7 27 3e 89 79 08 3e b8 c5 b8 3d 31 96 fb bd
       0.16372363 0.13327612 0.09022087 -0.12284506
000270 90 b1 76 3d 2b 6d 5b 3c fb d7 d8 bd 30 17 da 3c
       0.06022793 0.013392727 -0.1058807 0.026622385
000280 62 32 a1 3d 89 a5 76 3c 72 b9 e7 3c 26 d9 3b 3d
       0.07870938 0.015054115 0.02828667 0.045861386
000290 43 9d 4e 3d c2 5f fe bc ca 21 5a 3d 34 e8 f5 3d
       0.050442945 -0.03105152 0.05325488 0.1200718
0002a0 92 5c 24 ba b8 35 08 3e 07 ad fd 3d 48 d2 a2 3d
       -0.00062698976 0.13301742 0.12386518 0.07950264
0002b0 82 d8 2b 3e 8f 98 be 3d 1f c7 13 bd 05 ad 01 3d
       0.1678181 0.09306442 -0.03607857 0.031659145
0002c0 4e 0c a9 bd 45 c7 8e 3c 93 5a a4 bd 7b c2 e4 bd
       -0.082543 0.017429003 -0.08025088 -0.11169907
0002d0 84 98 2e 3d f5 61 83 bd b4 5f 0b be 2b 0b 6d bd
       0.04262592 -0.06415168 -0.13610727 -0.05787198
0002e0 7c 0c 1f bd a0 f4 f6 bc 92 e1 40 bd 3b 45 49 3c
       -0.038830265 -0.030145943 -0.04709012 0.012284572
0002f0 ad 75 8e 3d f9 34 3d 3e 56 b2 cf 3d c4 f5 51 bd
       0.069560386 0.18477239 0.10141437 -0.05125977
000300 03 48 a6 3d 25 f6 e2 3b c6 b3 f8 bc 28 46 b1 3d
       0.08119204 0.0069263154 -0.03035916 0.08655959
000310 95 20 1f 3d 30 cf 25 bd 6c fa 24 3e 3a 21 86 3d
       0.038849432 -0.040480793 0.16111153 0.06549306
000320 47 e6 cf bd 28 bb 89 3d 32 f9 80 bd c5 68 11 be
       -0.10151344 0.0672515 -0.0629753 -0.14200123
000330 95 e9 90 3c 87 44 73 bd 86 cf d1 bc 4a d7 26 3d
       0.017689506 -0.059391525 -0.02561165 0.04073266
000340 35 2a 96 bd f9 55 f6 bc 7c 34 fe 3d c9 e4 5e bd
       -0.07332269 -0.030070292 0.12412354 -0.054417405
000350 e8 3b 67 bd 3b 22 89 3d 7e a1 c1 bd 0c 7f 42 ba
       -0.056453615 0.06695982 -0.0945463 -0.0007419444
000360 a8 8f 9e 3c cc 70 22 bd df 81 86 bd f5 f9 16 3e
       0.01935561 -0.039658353 -0.0656774 0.14743789
000370 dc 61 d0 3c be 0c e5 bd 36 14 7a 3c df bc 80 3d
       0.025437288 -0.11184071 0.015263608 0.06286024
000380 c6 cd 99 3d 22 41 71 bd 56 34 a4 3b 27 58 ac 3d
       0.07509951 -0.058900006 0.0050111217 0.08415251
000390 f2 ea f5 bd a0 5c 09 bd 11 82 12 3e ed fb a6 bd
       -0.12007703 -0.0335356 0.14307429 -0.0815352
0003a0 05 04 99 bd 0e a8 2b 3d 6d d1 e9 bb f9 16 8c bb
       -0.0747147 0.041908316 -0.007135561 -0.0042751995
0003b0 9e 84 cd bd cb 9d af bc 28 7b 90 bd d2 a9 df bd
       -0.1003506 -0.021437546 -0.0705474 -0.109210625
0003c0 ab ed a4 bc ec 87 00 bd 08 85 0c be ea 65 2d 3c
       -0.02013286 -0.031379625 -0.13722622 0.01058338
0003d0 ee 44 12 bd 60 08 24 3d b2 9d b4 3c e6 df 06 3e
       -0.035710268 0.04004705 0.022047851 0.13171348
0003e0 63 bc 07 3e 48 12 16 bd 23 7d c3 3d 40 b0 96 3d
       0.13255458 -0.036638528 0.09545352 0.07357836
0003f0 7d 81 9b 3d f8 fb 20 3e b5 1b ca 3d a3 f0 88 3c
       0.07593057 0.15721118 0.09868566 0.016716307

onnx::Conv_126 f4 [3, 1, 3, 3]
000000 eb 8f f9 bd 26 07 41 3e 6c d2 b2 3b 33 5a e7 3d
       -0.12185653 0.18850383 0.005457213 0.11296501
000010 0a 83 8c 3e 06 6f 56 bd 9d 42 af 3d e5 bd fb 3d
       0.27443725 -0.052351974 0.08557627 0.12292079
000020 53 cf 29 be 58 e3 a5 be 64 2f bb be 73 48 a4 bd
       -0.16582994 -0.32400012 -0.36559594 -0.08021631
000030 1a 61 dc 3d b1 94 b2 3d f9 24 ba 3d fb 79 f2 3d
       0.10760708 0.08719767 0.09089083 0.11839672
000040 cd a0 2d 3e 03 e9 95 3c 13 57 72 3e 8f e4 b7 3d
       0.16955872 0.018299585 0.23666029 0.08979141
000050 e4 f2 ca 3e 99 d8 74 bd 1c 8c ed bd a7 59 1d 3e
       0.39638436 -0.059776876 -0.11598989 0.15366231
000060 4f 60 96 bd d1 eb e7 bd 77 50 13 3e
       -0.07342588 -0.11324275 0.14386164

onnx::Conv_127 f4 [3]
000000 80 1d cc bc a5 0b 8d 3d 02 ac 48 be
       -0.02491641 0.06886987 -0.19596866

onnx::Conv_129 f4 [16, 3, 1, 1]
000000 9a 7e ca c0 ac ba d5 c0 00 29 47 c1 ca 0e 7a 41
       -6.3279543 -6.679037 -12.44751 15.628611
000010 51 9d 95 40 61 e1 83 bf 66 a5 aa c0 c4 0e 75 bf
       4.6754537 -1.0303155 -5.3326902 -0.95725656
000020 9e 4c 19 41 bc f4 c0 3f 8e ee b1 40 b7 cf 00 c1
       9.581205 1.5074687 5.5603704 -8.050712
000030 95 61 7a 40 a2 3d 0a c0 18 e8 2b 41 b5 95 da 3f
       3.912206 -2.1600118 10.7441635 1.7076937
000040 57 8c db c0 e7 6a 05 bf e4 e8 b7 41 15 4f 73 3f
       -6.8608813 -0.52116245 22.988716 0.95042545
000050 a6 2d 72 40 b5 ce c1 c0 8c 24 77 40 26 d6 ab 40
       3.7840362 -6.056483 3.8616056 5.369891
000060 5f eb 2d c0 f6 14 df 40 e2 27 2f 40 45 1a 87 40
       -2.717491 6.9713087 2.7368093 4.2219567
000070 0d 4c 1a c1 23 3d 01 bf 2b f5 80 40 98 aa 09 c1
       -9.643567 -0.5048391 4.0299277 -8.604149
000080 8e fe d1 3f 1d 8a b0 bf 5f 40 78 40 81 e3 23 c1
       1.6405809 -1.3792149 3.878929 -10.243043
000090 ea 48 39 3f 7a ae c5 be 7a e9 cc c0 a8 d4 c2 3f
       0.72376883 -0.38609678 -6.4035006 1.5221148
0000a0 05 39 5a c1 20 03 4e bf a3 a7 30 c0 1e c4 70 c1
       -13.638921 -0.8047352 -2.7602317 -15.04788
0000b0 c3 81 f2 bf d5 bf 67 c0 97 ff 38 c0 00 38 04 c1
       -1.894585 -3.6210835 -2.8906 -8.263672

onnx::Conv_130 f4 [16]
000000 47 9e 62 be 60 37 a6 bb 36 c5 4f 3e fb 50 48 3d
       -0.2213069 -0.005072519 0.20290074 0.048905354
000010 70 a4 b6 bb f5 20 e6 bd 90 de c2 3c 3e eb 89 3d
       -0.0055738017 -0.11236755 0.023787767 0.06734322
000020 38 7d 4d 3e 7d 6a 94 bd c9 94 08 be 8d 12 0d bd
       0.20067298 -0.072468735 -0.13338007 -0.03444152
000030 44 28 93 3c b6 db b0 bd 66 86 b3 bd dc 41 94 bc
       0.017963536 -0.086356565 -0.08765869 -0.01809781

onnx::Conv_132 f4 [16, 3, 1, 1]
000000 f5 82 c7 be 20 46 7c be 39 32 85 3e c7 fc 12 3f
       -0.389671 -0.24636126 0.2601488 0.5741696
000010 08 a1 82 3e d6 30 16 3f e7 31 cd 3e e1 91 0e 3e
       0.25513482 0.5866827 0.40077135 0.13922836
000020 a1 82 97 bf 6b ad 9d 3f d4 d3 25 3d d8 6f 7c 3c
       -1.183674 1.2318548 0.04048522 0.015407525
000030 b3 f0 5f bf 21 f4 57 bf e1 55 5f 3f 42 49 5f 3e
       -0.8747665 -0.84356886 0.87240416 0.2180529
000040 c6 1c 96 bf 67 b7 93 bf 2e 92 33 3f f2 56 39 bf
       -1.1727531 -1.1540345 0.7014493 -0.72398293
000050 e5 a5 cd be 97 d0 7c 3f 6d 66 29 bf 13 61 e4 3e
       -0.4016563 0.9875578 -0.66171914 0.44605312
000060 a9 ab 97 3f 1c 29 ca bf ea 38 30 bf 5e da 26 bf
       1.1849262 -1.5793796 -0.68836844 -0.6517695
000070 4f f8 0a bd fa 55 21 bf b8 1a 11 bf cb 5f 08 3f
       -0.03392821 -0.63021815 -0.56681395 0.5327117
000080 94 93 3c bf 9f 63 c2 3c b5 79 b5 3e 1d d3 49 bf
       -0.73662686 0.023729144 0.35444418 -0.7883776
000090 2a 11 fc 3e f8 c7 08 bf 6d 14 92 3f 8f 19 45 3e
       0.49231845 -0.5343013 1.1412483 0.19248031
0000a0 91 00 a4 3f 0b 28 db bc 89 e8 d7 3e c1 b2 0e 3f
       1.2812673 -0.026752492 0.42169598 0.55741507
0000b0 59 e9 45 3f 25 4f 51 3f 27 e7 8c 3e 0b 8c 41 bf
       0.77309185 0.8176139 0.27520105 -0.75604314

onnx::Conv_133 f4 [16]
000000 34 52 08 bd e2 76 dc bd c0 52 70 bb 0e 84 f6 bd
       -0.03328152 -0.107648626 -0.0036670417 -0.12036906
000010 70 1d 67 bc ee 5b 96 3e cc 5e 50 3d 32 85 cf bd
       -0.01410614 0.29367012 0.050871655 -0.10132827
000020 12 26 df 3d b7 46 12 3e 82 66 0c 3e e9 31 11 3d
       0.10895933 0.14284788 0.13710979 0.03544799
000030 e8 e9 8e bd b2 0a e0 bd b2 34 81 be 1e 9f 85 3c
       -0.06978208 -0.1093954 -0.25235516 0.016311225

onnx::Conv_135 f4 [32, 16, 1, 1]
000000 91 a8 05 c0 76 dd fb be 0b 19 06 41 b4 a8 ac 40
       -2.0884135 -0.491924 8.381114 5.3955936
000010 30 a3 63 c0 66 8c 02 40 42 70 5f bf 24 59 c1 c0
       -3.5568352 2.0398192 -0.87280667 -6.0421314
000020 53 64 82 c0 dc 6d b3 c0 10 21 8b 3f 30 ea 3c 3f
       -4.0747466 -5.6071606 1.0869465 0.7379484
000030 9a ef a6 bf 0a 53 63 40 bd 20 22 41 d1 df 08 bf
       -1.304187 3.5519433 10.132993 -0.53466517
000040 6d dc f7 3e 73 41 4b 3f bf 40 bb 3f e1 bd 82 bf
       0.4841036 0.7939674 1.4629134 -1.0214196
000050 af 1a 84 3e d2 2b 0d 40 cf 12 b5 c0 45 f5 36 c0
       0.25801608 2.2057996 -5.658546 -2.85872
000060 d8 70 4f c0 a5 0e 19 be e4 32 cb 3f 46 34 95 3e
       -3.2412624 -0.14946993 1.5874906 0.29141444
000070 b9 59 5f be c3 f4 ce bf a2 3f 1e bd 61 ca b5 be
       -0.2181157 -1.6168445 -0.038634904 -0.35505965
000080 07 69 a0 40 4d 6a 0a c0 a6 2d 0f bf ff c9 9a 3c
       5.0128207 -2.162738 -0.5592903 0.018895147
000090 0d 8b d7 40 82 b4 41 c0 d5 c0 ff 3f cd 77 de bf
       6.735724 -3.0266423 1.9980723 -1.738031
0000a0 6f f9 ec be b5 0b 00 41 5f ee e4 3f 3c 21 77 bf
       -0.46284053 8.002858 1.7885245 -0.96535087
0000b0 53 09 c5 3f ae cc ff 3f c6 6f 00 c1 ca 3f 9b 40
       1.539347 1.9984338 -8.027288 4.8515368
0000c0 5d 2a 66 40 3b 7e 0b 3e 0b c0 5e c0 ab 3c 30 40
       3.5963356 0.13622372 -3.4804714 2.7537029
0000d0 7f 69 4f 40 f8 2f 8d 40 3c c4 9e 3f b9 54 51 be
       3.240814 4.4121056 1.2403636 -0.20442475
0000e0 f0 f2 b8 40 2f 51 ba bf ed e6 82 40 af 33 f0 3e
       5.7796555 -1.4556025 4.090689 0.4691443
0000f0 f1 87 55 3e 31 93 c5 bf b7 34 ae 40 55 48 ae 40
       0.20852639 -1.5435544 5.443935 5.4463296
000100 7a d2 19 40 99 91 4f 40 26 b6 55 c0 8d f2 86 3f
       2.4034715 3.2432616 -3.3392425 1.0542771
000110 b5 d1 3d 40 83 50 06 c1 ed 67 63 40 83 8d ed bf
       2.9659245 -8.394656 3.5532181 -1.8558811
000120 8a d1 3c 3e 24 1b 5d 40 47 df 01 41 5e 75 2f 40
       0.18439308 3.4547815 8.117011 2.7415385
000130 46 7e 94 40 5f 8e 18 41 20 8b 9b bf 19 b8 29 40
       4.640414 9.534759 -1.2151833 2.6518614
000140 4a ca 73 3f 96 b0 37 c0 22 c8 a3 c0 82 18 65 40
       0.95230544 -2.870153 -5.1181803 3.5796208
000150 4f ba 9a bd 23 95 2d bf d3 82 e2 3e 37 61 bd c0
       -0.07555067 -0.6780569 0.44240436 -5.918117
000160 65 24 a0 40 c7 25 cd bf 55 ae 9a 40 92 75 0b c0
       5.0044427 -1.6027154 4.833781 -2.179051
000170 3c c8 b3 c0 35 c4 58 c0 1d 63 0b 3e 97 2a bc 3e
       -5.6181927 -3.3869755 0.13612027 0.36751243
000180 80 4a b8 bf 76 99 05 bf bc 43 c1 bf ec 90 ae be
       -1.4397736 -0.5218729 -1.5098796 -0.34094942
000190 f1 37 c1 c0 40 7f 84 40 8c 5e 2c c0 11 60 37 c0
       -6.038079 4.1405334 -2.6932707 -2.8652384
0001a0 32 c5 05 40 42 44 81 c0 fe 9a 98 bf 47 46 27 40
       2.0901608 -4.0395823 -1.19223 2.6136644
0001b0 1d e6 a4 c0 e8 1a e1 c0 4b db 81 bf 7b 9b 7a c0
       -5.15309 -7.0345345 -1.0145048 -3.9157398
0001c0 3f 57 ec be 6e eb 02 40 7c 1e b4 3e 53 c1 ef c0
       -0.46160313 2.0456195 0.35179508 -7.492349
0001d0 ab f1 f5 bf fc 05 96 3f a6 4e c4 3e 24 5d 72 c0
       -1.9214376 1.1720576 0.38341254 -3.7869349
0001e0 22 43 46 40 9c 7b 83 c0 83 e0 60 bf c5 06 b2 3f
       3.0978475 -4.108839 -0.8784258 1.3908316
0001f0 f2 63 cc bf 6d a6 73 be 09 db 24 c0 63 bb 3b be
       -1.5968001 -0.23793955 -2.5758688 -0.18333201
000200 07 8c 22 40 77 55 63 40 97 53 8a 3d d7 27 13 c1
       2.5397966 3.5520914 0.06754225 -9.197227
000210 23 89 c8 bf 85 fc 4a 40 81 8e 8b c0 e3 cf d9 3e
       -1.5666851 3.1716626 -4.3611455 0.42541417
000220 b2 f9 3c bf 62 e1 1c c0 f2 82 3c bf 5d 9c 04 40
       -0.73818505 -2.4512563 -0.73637307 2.0720437
000230 8e d2 33 40 c8 48 59 40 70 dc 85 3e 33 a0 a7 bf
       2.8097262 3.3950672 0.26144743 -1.3095764
000240 2f ba 22 40 6c 08 a6 be 24 91 45 40 05 f9 85 3e
       2.5426137 -0.324283 3.0869837 0.2616655
000250 88 77 07 40 5a 39 0e 40 91 08 20 c0 c9 5b 86 3e
       2.1166706 2.2222505 -2.5005229 0.26241902
000260 9e 59 e1 3f 4b f7 ad c0 77 a8 fd 40 d0 e5 87 3e
       1.7605474 -5.436437 7.9268146 0.2654252
000270 a9 74 92 40 ce 38 a2 c0 f8 9c 2f c0 f3 8a 81 3f
       4.5767407 -5.069434 -2.7439556 1.0120529
000280 91 d3 c3 3f 71 59 b8 3d 19 55 48 c0 8b ad 10 40
       1.529894 0.090014346 -3.130194 2.2605922
000290 d2 28 90 40 3d 33 2b c0 af 29 99 be 65 83 3e c0
       4.504983 -2.6750023 -0.29914615 -2.9767697
0002a0 12 96 42 40 82 81 35 40 d2 a5 8e c0 6c 71 c6 c0
       3.0404096 2.8360295 -4.4577417 -6.2013454
0002b0 08 23 b9 bf b5 5d d4 40 ff 54 8a 40 90 d7 a1 40
       -1.4463816 6.636439 4.3228755 5.057564
0002c0 01 04 4f c0 26 03 a6 be e6 59 89 40 e0 ef 07 40
       -3.2346194 -0.32424277 4.292224 2.1240158
0002d0 a0 ce a1 3f 6a 81 f3 bd 6f 8e b6 bf 62 72 0f c1
       1.2641182 -0.11889918 -1.4262217 -8.9654255
0002e0 5b 15 5c 41 2f f4 11 c1 90 e1 f0 bf 54 07 b5 c0
       13.755214 -9.122115 -1.8818836 -5.6571445
0002f0 15 da 56 40 1e 39 bf be 35 7c a6 40 de f1 ba 40
       3.3570607 -0.37348264 5.202662 5.842025
000300 59 cb 5a be f7 0f 37 3f 0a bd c6 40 6b aa c1 be
       -0.21366633 0.71508735 6.210576 -0.3782533
000310 2e f5 60 40 14 1d 3b 3f 33 d5 49 be d0 69 86 40
       3.5149646 0.73091245 -0.19710235 4.2004166
000320 47 3f 28 40 7b c3 8c c0 6e 30 fe 3e 89 fc 0e 40
       2.6288621 -4.3988624 0.49646324 2.2341635
000330 c6 e9 69 40 f6 41 60 c0 a0 ff 21 40 04 9e ec 3f
       3.6548934 -3.504026 2.531227 1.8485723
000340 f9 e0 58 c0 03 c0 d0 40 9a db f5 bf 3e 70 a9 3f
       -3.3887312 6.523439 -1.9207642 1.3237379
000350 cd f6 dc 40 d5 65 cd c0 fb bc 17 c1 63 96 65 40
       6.905127 -6.4186807 -9.483638 3.5873039
000360 e4 62 cf 3f ff 24 ff 3f c1 b6 f4 3f c9 a2 3c 41
       1.6202054 1.9933165 1.9118272 11.789742
000370 ae 51 48 bd 99 72 24 40 cb 09 6e 3f 4f 3a f9 bf
       -0.04890602 2.5694945 0.9298369 -1.9470919
000380 b2 7a f7 40 55 d3 9e 3f 60 44 a4 bf 66 41 dc 3f
       7.7337275 1.2408243 -1.2833366 1.7207458
000390 01 31 fe 40 54 e8 8b 3f ba cc 9a c0 a4 0d 6c 40
       7.943482 1.0930276 -4.837491 3.6883326
0003a0 86 44 39 bf dc a4 16 40 16 dc 64 c0 cf c1 56 40
       -0.72370183 2.3538122 -3.575933 3.3555791
0003b0 96 70 25 3f bd aa 1d 3f 0b e1 94 40 47 64 87 40
       0.6462492 0.6158865 4.652471 4.230991
0003c0 9b 29 7e 40 1b e0 c4 3f 02 2d 6f 40 08 7a 8f 3f
       3.9712894 1.5380892 3.737122 1.1209116
0003d0 68 ba f2 40 91 17 dc 3e b0 e2 be bf 1e 64 af 3f
       7.5852547 0.4298673 -1.491293 1.3702428
0003e0 69 66 92 be d1 a1 e9 bf 94 77 38 c0 e1 c4 4a 40
       -0.28593758 -1.8252507 -2.8822985 3.1682665
0003f0 51 74 50 40 11 b6 d7 bf 2b ad c5 3f f4 84 2d 40
       3.2570994 -1.6852437 1.5443472 2.7112398

onnx::Conv_136 f4 [32]
000000 33 7a 10 3e cd d2 d8 bd 87 1a 80 be 74 e5 8e be
       0.14109115 -0.10587082 -0.2502024 -0.27909434
000010 08 ec 28 3e a4 33 57 be fc 2d 3e bd 37 ed 22 be
       0.16496289 -0.21015793 -0.046430573 -0.15910803
000020 88 3a 65 3d b2 23 07 bf fe 03 42 3e ab ae eb be
       0.055964023 -0.5278884 0.18946835 -0.460317
000030 d3 6a b0 be 15 65 f7 3d 68 ac 7b bc 0a 63 d6 bd
       -0.344565 0.12079827 -0.015360929 -0.10468109
000040 06 e9 5b 3e 2a bc 08 be cc 7c fd bc dc 50 21 3e
       0.2147561 -0.13353029 -0.030943297 0.15753502
000050 b6 7b 3e 3e 4a ac 3c be f1 16 4e 3e f5 53 8a be
       0.1860188 -0.18425098 0.20125939 -0.2701718
000060 46 4a 5b be 90 e4 ca 3d 52 4f 14 be 1e 44 e1 bd
       -0.21415052 0.09906876 -0.14483383 -0.109993204
000070 b7 bb 0e be e5 7b 91 3e 6b 0a a3 3e 14 10 8b 3d
       -0.13938795 0.28414837 0.31843886 0.06790176

onnx::Conv_138 f4 [32, 16, 1, 1]
000000 bd d8 8a 3b f0 cb 8f 3c 2e 00 bb bd 11 94 81 bb
       0.004237263 0.0175533 -0.09130894 -0.0039544185
000010 fa 8c 90 bd 9b 7b 8d bd 1c e2 3a 3c 40 f1 c0 bc
       -0.07058139 -0.069083415 0.011406448 -0.023552537
000020 54 da 93 3d 51 54 0c be c0 99 5b bd fc 0f a2 bd
       0.07219377 -0.13704039 -0.053613424 -0.07913205
000030 1d 11 cc bd 57 88 99 bd 52 15 5a be 50 cd b0 ba
       -0.099642016 -0.07496708 -0.21297196 -0.0013488922
000040 4e f3 18 be a6 1f dc 3d 52 cf 8f 3c 67 85 a7 3d
       -0.14936563 0.10748224 0.017554913 0.08179741
000050 66 ef a7 bc 0d ae b1 3d cd 90 fa 3e 17 3d d4 3d
       -0.020499896 0.08675776 0.489386 0.103632145
000060 6a da aa 3e 29 d6 70 3c 69 4f b8 3c 10 63 88 be
       0.33369762 0.014699497 0.022498803 -0.2663808
000070 14 1f 39 be f5 80 5a be 32 24 33 be 12 7e 67 3d
       -0.18078262 -0.21338256 -0.17494276 0.056516714
000080 85 c2 92 be 07 9c 2c 3e 46 56 1b be 6f 3a de 3c
       -0.28664032 0.16856395 -0.1516963 0.027127473
000090 c8 d4 6f 3e f9 fd 14 3e d5 a5 78 3d 50 e5 81 bd
       0.23421013 0.14550008 0.060705025 -0.06342566
0000a0 eb 92 48 be 64 30 0c 3e 9b ca 9b 3e 3d 57 81 3a
       -0.19587295 0.13690335 0.30428013 0.0009867918
0000b0 38 80 f9 3d 16 5c 2e 3e 0f 29 4e 3e e9 01 57 3c
       0.12182659 0.17027315 0.2013285 0.013123014
0000c0 0f 51 38 be ce 17 08 3e 0c f7 dc 3e 60 dd 15 3e
       -0.17999671 0.13290331 0.43157232 0.14635229
0000d0 b1 e5 88 3e 5e 77 d2 3c d1 ce cd 3e 84 0e 3f 3e
       0.2673774 0.025691684 0.4019685 0.18657881
0000e0 9f 4e 86 3e 13 92 d6 bb c8 03 b0 bd 63 54 89 bd
       0.26231858 -0.006548175 -0.08594471 -0.067055486
0000f0 ca 59 81 be 5b a6 94 3d 19 2f 8b be cd 34 9f bd
       -0.25263816 0.07258292 -0.2718437 -0.07773743
000100 0c 0e 15 bd 41 6e 13 be e7 cf d9 3d c0 f1 f5 bd
       -0.03639035 -0.14397527 0.10635357 -0.12009001
000110 5c c3 15 3d e4 f9 fc bb e2 70 a1 bd d8 05 5f bd
       0.036563262 -0.007720219 -0.07882859 -0.054448932
000120 8a d2 07 3c bc 66 57 bd 9d ff 14 bd 33 3d 46 bd
       0.0082899425 -0.05258821 -0.036376584 -0.048398208
000130 d2 55 9b bd 36 d6 80 3d 8f fe 84 bc 69 94 b7 bd
       -0.07584728 0.062908575 -0.016234664 -0.08963854
000140 2a 32 00 be c1 38 8a 3d 5f 0b e0 bd 07 76 11 3d
       -0.12519136 0.06749106 -0.10939669 0.03551295
000150 d3 86 ab bc ec d7 92 3d c0 d7 0d 3e 3d 96 9f 3d
       -0.020938313 0.0717009 0.13851833 0.077923276
000160 ed 1b 8f 3d f5 66 47 be 17 57 10 be 63 ff dc 3d
       0.06987748 -0.19472869 -0.14095722 0.10790899
000170 95 60 9d 3e 98 11 fb bd 61 4d fe 3d 06 54 76 be
       0.3073775 -0.12259215 0.124171026 -0.2405549
000180 57 0d 04 bd 22 d3 01 be 23 94 8e 3d 8a a0 03 bd
       -0.032239284 -0.12678197 0.069618486 -0.032135524
000190 35 32 33 be 37 fe c4 bd e8 db 31 be a7 56 ad bd
       -0.17499621 -0.096188 -0.17369044 -0.08463793
0001a0 94 ec 4c be a3 38 05 3e f3 5d ad 3d 99 4b a4 3d
       -0.20012122 0.13009886 0.08465185 0.080222316
0001b0 be 5c 51 be eb 04 58 3e fe 4c bf 3d 4c 2b 7d 3c
       -0.20445535 0.21095626 0.09340857 0.015452217
0001c0 4f c6 b7 bb c2 c2 56 3d 2a b1 db bc 98 53 6a bd
       -0.005608357 0.05243183 -0.026817877 -0.057208627
0001d0 a6 de c8 bd 7d d8 f4 3d 91 0f 47 bd 7f 3d 5e be
       -0.09808092 0.11955354 -0.04859883 -0.21703146
0001e0 50 76 0a 3d 7a 09 a8 3e cd 92 52 3d a7 66 a5 be
       0.033804238 0.3281973 0.05140953 -0.3230488
0001f0 9e 84 09 3c b1 3c 81 3e a0 97 fa 3e 55 0d e5 3d
       0.008393435 0.25241616 0.48943806 0.111841835
000200 e3 67 e5 3c 92 64 d4 3c 96 da 49 bd fe 56 11 be
       0.028003639 0.025926862 -0.049280725 -0.14193341
000210 c3 55 93 bd 8a 20 f9 bc 4a 7e 85 3c 28 21 35 be
       -0.07194092 -0.030411024 0.01629557 -0.1768843
000220 ab d8 2c be 7c 27 80 bc fb 4a 54 bc 0e e8 57 bd
       -0.16879527 -0.015643828 -0.01295733 -0.05271154
000230 79 46 a9 bc 4b 82 7d bc c2 5d f1 3b e0 8b d0 bd
       -0.020663487 -0.015472959 0.007365913 -0.10182929
000240 89 10 f1 3c 79 65 99 bd 9d 8e 83 3d b7 69 27 bd
       0.02942683 -0.074900575 0.06423686 -0.040872302
000250 90 08 fb bd c2 dd bb bd 87 28 83 bc c6 18 72 bd
       -0.122574925 -0.09173156 -0.016010536 -0.059105657
000260 7e 0e 8c bd 95 70 b6 bc 7a 35 8c bc 6c d2 9d bd
       -0.06838702 -0.02227048 -0.017115343 -0.077061504
000270 63 43 04 be 6b dd 90 bc 4c 8d 07 bc bc a2 4f bc
       -0.12916331 -0.017683705 -0.008273434 -0.012673076
000280 fd 16 8a 3d 71 46 47 3e fb 08 1e bd 95 c4 6e 3e
       0.06742666 0.19460465 -0.038582783 0.23317178
000290 d5 d3 7e bc 69 89 70 be ef cd 88 3d 33 35 ac 3d
       -0.015553434 -0.23489918 0.06679904 0.084085844
0002a0 f0 55 20 3d 6e 4b 85 be 8f f6 f4 bd 19 a4 84 3e
       0.039144456 -0.2603411 -0.1196109 0.25906447
0002b0 2e 69 02 3e f7 be 83 be 2d 2b c0 be 12 ca 2e 3e
       0.12735435 -0.25731632 -0.3753294 0.17069271
0002c0 0f e7 34 3d 70 57 f6 3e 65 09 99 be fc a8 16 be
       0.044165667 0.48113585 -0.2988998 -0.147129
0002d0 45 41 f2 bd d2 1c a7 b9 28 30 ca 3e 81 97 8f be
       -0.118288554 -0.00031874195 0.39489865 -0.28045276
0002e0 40 52 cf 3c 0f 80 52 3e cb 7c 17 be 91 ef 08 be
       0.025307775 0.20556663 -0.14793698 -0.13372637
0002f0 a4 a4 1f be bf 52 3a 3d d9 36 30 be d7 90 b7 3d
       -0.15590149 0.04548907 -0.17208423 0.08963173
000300 f6 44 28 3e 83 1b 94 3b 71 0d f1 bd bc 2b e3 3d
       0.16432557 0.004519881 -0.11770142 0.11092326
000310 58 fe 1f 3e 0a 23 a7 bd 25 7e 10 3c 0d 04 c2 bc
       0.15624368 -0.0816098 0.008819138 -0.023683572
000320 05 9d 45 3c 0c f1 a1 3d df 13 a2 bd e8 fd 4d 3d
       0.012061362 0.07907304 -0.07913946 0.050290972
000330 5c 04 a6 3e 01 33 39 3a c7 40 5d 3d 23 e6 f3 3d
       0.324252 0.000706479 0.054016855 0.119091295
000340 b1 c2 60 3d 65 5d 02 bd 93 37 38 3e 65 8a 08 3d
       0.054873172 -0.03182735 0.1798995 0.03333511
000350 22 6f 05 3d b2 85 71 be ab a7 35 bd 7f 65 5f 3e
       0.032576688 -0.23586157 -0.044349354 0.21816061
000360 f5 19 c3 bc e2 a9 30 be 8f 78 36 be dd 5e 11 bd
       -0.023816088 -0.17252305 -0.17819427 -0.03549086
000370 02 6a 09 bd 6c 80 96 be d3 93 8c be cc d1 8e 3d
       -0.033548363 -0.29394853 -0.2745653 0.06973609
000380 ed 38 24 3e 71 32 d8 3c 33 4a d6 3d d9 ad d6 3d
       0.1603734 0.02639124 0.10463371 0.104823776
000390 57 b3 4d 3d c3 2c f3 bb 64 8e b7 3d 34 e9 45 3e
       0.05021986 -0.0074211075 0.08962706 0.19327241
0003a0 bb 5d 08 3d fc f3 dc bd 4b 09 6c 3d c5 3d d4 ba
       0.033292513 -0.10788724 0.05762605 -0.0016192725
0003b0 34 54 d8 3d 12 10 fc bd 1d 59 8a bd a6 de 11 3e
       0.105629355 -0.12307753 -0.06755278 0.1424509
0003c0 0f c0 a7 3e 1a a2 2b be 10 a5 18 be 49 db fc 3c
       0.32763717 -0.16761056 -0.14906716 0.030866282
0003d0 e7 62 14 3e e4 12 1d be 67 ce 82 be 2c 6f 9a be
       0.14490853 -0.15339237 -0.25548097 -0.30162942
0003e0 4a d7 9f bd 9e 5d 10 be c3 43 7c bd c1 33 4e 3e
       -0.07804735 -0.14098212 -0.06158806 0.2013693
0003f0 1c ee b5 3d ce 50 d1 bc 83 a4 ba bd b6 c5 06 3e
       0.088833064 -0.025551226 -0.09113409 0.13161358

onnx::Conv_139 f4 [32]
000000 38 4d f3 3d 29 36 f1 bd 5e 19 b5 be 04 09 7f be
       0.11879963 -0.11777908 -0.35370916 -0.24905783
000010 d8 7c 0b 3e 02 0e 00 be 67 b4 47 3e 5f d2 56 be
       0.13621843 -0.12505344 0.19502412 -0.20978688
000020 ba ca fb 3d 5e 19 fb 3d e2 a8 0b 3c c6 59 7f 3b
       0.122945264 0.12260698 0.0085241515 0.0038963421
000030 90 79 2d be 99 01 77 3e 41 6c a8 bd f7 63 02 3e
       -0.16940904 0.24121703 -0.08223773 0.12733446
000040 a8 26 1d be 04 ee ab be 4a 10 a6 3e 6e 44 a3 3e
       -0.15346777 -0.3358003 0.32434303 0.31888145
000050 1a e9 5f bd 7e ee cd bc 18 53 72 bc 14 14 c3 bd
       -0.054665662 -0.025138136 -0.014790319 -0.09525314
000060 df e4 c6 3d 85 7d a1 3e 84 81 eb bd 6e 83 4b be
       0.097116224 0.31541076 -0.114993125 -0.19874355
000070 f6 3f 44 3d 2d 29 8a be 9e e0 09 3e 6a 27 d5 bd
       0.04791256 -0.2698454 0.13464591 -0.10407908

onnx::Conv_141 f4 [64, 32, 1, 1]
000000 7e 74 7d c0 82 d6 30 c0 fe d6 0c 40 50 17 d2 bf
       -3.960235 -2.7630925 2.200622 -1.6413364
000010 0e 2f d9 3d 84 71 a5 3d 49 d7 42 40 02 1f 18 bf
       0.10604678 0.08078292 3.04439 -0.59422314
000020 a2 3d 33 be d9 4c f1 be 97 fb 58 40 dd 11 01 c0
       -0.1750398 -0.47128943 3.3903558 -2.0167153
000030 c4 56 0e c0 e3 e7 58 bf 21 10 97 3f ae f2 20 40
       -2.2240458 -0.8472883 1.1801797 2.514812
000040 76 90 8f bf 7e 10 63 bf 01 b6 e2 3f 69 db 86 3f
       -1.1215961 -0.8869704 1.7711793 1.0535709
000050 79 8b 82 3f 55 fa 44 c0 d6 a1 4f c0 87 57 46 40
       1.0198814 -3.077779 -3.2442527 3.0990922
000060 b1 a5 dc 3f 7f 7f 98 bf ca 99 a4 3f 60 ef e4 3f
       1.7238065 -1.1913909 1.2859433 1.7885551
000070 e5 55 82 3f ed 18 94 40 77 f5 41 40 18 b9 74 be
       1.0182463 4.6280427 3.030607 -0.23898733
000080 09 3a 17 c0 35 7f 34 c0 30 3e 57 c0 58 b7 f5 3f
       -2.3629172 -2.820264 -3.3631706 1.9196577
000090 99 e2 2f 3f 82 3d df 3e d9 db b8 c0 07 98 8d bf
       0.68705136 0.43601614 -5.776837 -1.106202
0000a0 c2 0b cd c0 73 2a 77 40 54 c9 b9 40 f2 a3 3f 40
       -6.4076853 3.861966 5.805826 2.9943814
0000b0 b9 6b 20 bd fd 5d 0d c0 e0 22 ab bf 55 80 13 c0
       -0.039165232 -2.2088616 -1.3370018 -2.3047078
0000c0 2d a4 7d 40 7f 57 e6 bf d3 3f 47 c0 fe d2 1a c0
       3.9631455 -1.7995452 -3.1132705 -2.419128
0000d0 c7 bf 6d 3d 27 8a a7 be 40 29 2f c0 39 ed f8 bf
       0.05804422 -0.3272259 -2.7368927 -1.9447395
0000e0 e5 dd ee 3f c1 33 86 40 91 af e6 be af b3 23 bf
       1.8661467 4.1938176 -0.45055822 -0.6394605
0000f0 7f d1 ec 3e bf dd 04 c0 f2 0a 46 40 95 7e 08 40
       0.46253583 -2.0760343 3.094418 2.132726
000100 3a 37 06 c0 c3 91 02 c0 07 9a 94 bf 85 a3 6a c0
       -2.0971208 -2.0401466 -1.1609505 -3.6662304
000110 0d 2a e0 be ef d1 37 be 93 ab f7 3f 89 91 be bf
       -0.43782082 -0.17951177 1.9349235 -1.4888164
000120 6e 32 9d be ff 53 60 40 99 40 f3 bf 4a 0f 99 be
       -0.30702537 3.5051267 -1.9004089 -0.29894477
000130 e0 a6 13 bf 41 8c c8 3e 0a 92 a3 3f 2d 67 1f c0
       -0.57676506 0.39169505 1.2778943 -2.4906723
000140 ba 8c 2a c0 6a 50 16 40 62 1e 9a 3e 26 11 54 40
       -2.6648393 2.348658 0.30101305 3.3135467
000150 6f db 8a 3f e7 87 02 40 fc 18 a3 3e 96 8b db bd
       1.0848216 2.0395448 0.31855 -0.10719983
000160 b5 d8 00 3f 22 17 7e bf 41 f3 6b 3f 62 a7 16 c0
       0.5033067 -0.9925405 0.9216805 -2.3539662
000170 2f 0c 55 bf 85 ff 53 bf 23 61 8c bf 84 ad a3 3f
       -0.83221716 -0.82811767 -1.0967144 1.2787328
000180 3b fe 84 c0 df 1f 8a be 2e dd 64 c0 6a c6 61 40
       -4.156034 -0.2697744 -3.5759997 3.5277352
000190 9e ae 14 c0 bb 0c 22 c0 e0 3b 07 40 64 8a c2 bd
       -2.3231578 -2.532027 2.1130295 -0.09499052
0001a0 88 00 6f 3f b0 6a 50 bf 18 46 47 40 63 65 9b 3e
       0.93360186 -0.8141279 3.1136532 0.3035079
0001b0 fd ed a1 be 88 d2 2b be d4 d1 de be 11 80 f1 3f
       -0.31626883 -0.1677953 -0.4351946 1.8867208
0001c0 ef 90 98 c0 a2 1b 24 3e e1 35 89 40 06 dc ed 3f
       -4.767692 0.16026166 4.287827 1.8582771
0001d0 bc 86 d7 bf 4d f6 59 bf 07 fa 9d 3f 27 33 35 40
       -1.6837993 -0.8514145 1.2341927 2.831247
0001e0 8c 95 94 be fd 94 d7 bf c4 49 bb be bf bc 9e bf
       -0.29020345 -1.6842343 -0.36579716 -1.2401351
0001f0 4e 71 e3 bf 85 2b 13 3f 04 f7 30 c0 56 52 ba bf
       -1.7768953 0.5748828 -2.7650766 -1.4556377
000200 48 c6 3f bf 22 bf 4d 40 f0 06 6d c0 c1 98 8e 3f
       -0.7491193 3.2147908 -3.7035484 1.1140367
000210 b5 90 53 c0 52 5e 82 3f 93 6b ca bf f1 b8 99 c0
       -3.3057072 1.0185034 -1.5814079 -4.803826
000220 41 20 c8 3f 96 f9 75 bf fd f9 be bf 13 b7 3e 40
       1.5634843 -0.9608396 -1.492004 2.979924
000230 c7 83 81 3f ed e8 61 40 f5 ab 99 bf 28 fc 7a 3e
       1.011834 3.5298417 -1.2005602 0.24510252
000240 f4 ff 5b 40 fb 04 7a bf 1e 06 03 40 26 6e 06 c0
       3.4374971 -0.9766385 2.0472484 -2.100473
000250 9a 46 96 3f 64 76 6f 40 0a 48 f4 bf bd 22 fb bf
       1.1740296 3.741601 -1.9084485 -1.9619976
000260 2c 63 a1 bf 45 b0 f8 bf ed c9 10 40 85 31 46 40
       -1.260839 -1.9428793 2.2623246 3.0967724
000270 c0 d6 19 40 b0 ce d9 c0 e2 a7 1b c0 5b 8c 08 c0
       2.4037323 -6.8064804 -2.4321218 -2.1335666
000280 02 5e e4 bf 11 c4 35 3f c4 ef 5c c0 72 7b 77 be
       -1.7841189 0.710023 -3.4521341 -0.24168184
000290 3a df 59 ba 3c 2f 87 3f e4 6e aa 3d a0 1b 88 3d
       -0.00083111564 1.056129 0.08321932 0.06645894
0002a0 85 95 17 c0 e5 bf f1 be a0 70 31 40 8b 79 f0 3f
       -2.368501 -0.47216716 2.772499 1.8787092
0002b0 a5 57 75 40 f8 8d ba 40 49 24 04 c1 ba 95 11 c0
       3.8334744 5.82983 -8.258859 -2.2747636
0002c0 b1 55 bc bf 79 ba d7 3f 2b 7f 8a be f5 97 a7 3f
       -1.4713651 1.6853782 -0.27050146 1.3093249
0002d0 7f 36 f9 3e 56 5e c1 3f 49 ef 77 3e 05 af f9 3f
       0.4867439 1.5106914 0.24212374 1.9506537
0002e0 12 3b 0e c0 45 fb a8 3f 1a 90 b8 3f d7 44 8c bf
       -2.2223554 1.3201681 1.4418976 -1.0958508
0002f0 9b c0 06 3e 77 7d c7 3f e4 55 85 3d cb 99 be bf
       0.1315941 1.5585164 0.06510523 -1.4890684
000300 b7 07 92 3f 82 6d d4 3f ba 85 f3 40 1c c8 0e bf
       1.1408604 1.6595919 7.610074 -0.5577409
000310 87 fc bc bf 28 44 6c 40 32 35 ca 3f e1 cf 0e c0
       -1.4764565 3.69166 1.5797484 -2.231438
000320 ed 04 1f 40 8a 50 32 c0 3c 7b 18 bf 2f 5a 11 3f
       2.4846756 -2.7861657 -0.5956304 0.56778234
000330 9e 17 e1 bf 4b 32 54 3f 1d 31 95 3f 3d f0 d3 bc
       -1.7585332 0.8288924 1.1655613 -0.02587139
000340 d8 ff 1b bf 09 82 29 c0 14 22 28 bf c3 ef 61 40
       -0.6093726 -2.6485617 -0.65677 3.530259
000350 86 a5 6b c0 ea ad 32 c0 71 25 0d 3d d6 d0 0d c0
       -3.6819777 -2.7918649 0.034459535 -2.2158713
000360 43 eb a0 3f 42 04 2d 40 ac 67 14 c1 ad 19 11 40
       1.2571796 2.7033849 -9.2753105 2.2671921
000370 4f 2e f2 be fa 8d 0e 40 e3 10 8d 3e d9 bb ed bf
       -0.47300956 2.2274156 0.27551946 -1.8572952
000380 d0 fb 93 bf 26 5b 00 c0 10 9b 27 c0 c7 79 5f 40
       -1.1561222 -2.0055633 -2.6188393 3.4918077
000390 a4 11 a2 be bb e8 2c c0 22 2a 27 bf 6f 00 28 c0
       -0.31654084 -2.7017047 -0.65298665 -2.6250265
0003a0 a2 ac 88 be c9 b8 23 c0 15 04 0a c0 13 8d 8f 3f
       -0.26694208 -2.5581534 -2.1564991 1.1214927
0003b0 43 9f 4c 40 4c e4 db 3f 73 48 a4 3f ae 69 27 40
       3.1972206 1.7179046 1.283461 2.6158252
0003c0 a2 91 74 c0 55 9d c3 c0 38 f3 d5 3f ca 6b a4 3f
       -3.8213887 -6.1129556 1.671485 1.2845395
0003d0 ae 76 e4 3f 31 96 ce bf d6 f8 0c c0 42 e8 fa 40
       1.7848718 -1.6139585 -2.2026877 7.840852
0003e0 dd 7c 45 40 b4 0b 84 c0 ba d4 9a 3f b8 5a 71 40
       3.085746 -4.1264286 1.2096169 3.771162
0003f0 44 a7 38 40 16 ba b9 c0 cc 1f ac 3e 39 e4 01 40
       2.885209 -5.8039656 0.3361801 2.0295546

onnx::Conv_142 f4 [64]
000000 f1 2e ac bd 26 76 ac 3d 18 9c 19 3d d4 b7 da 3d
       -0.08407391 0.084209725 0.03750238 0.10679594
000010 3d ba 4a be 00 54 c5 bd fe 94 bd 3e a1 27 7a be
       -0.19797607 -0.09635162 0.37027735 -0.2442918
000020 18 1b 08 3e ea 74 11 be ae 33 e6 3c a6 d6 f8 bd
       0.13291585 -0.14204755 0.028100815 -0.12150316
000030 0f a5 0c 3e 64 67 34 3e fc b2 6c 3e 48 74 73 3e
       0.1373484 0.17617565 0.23115152 0.23774827
000040 42 de 85 3d b8 12 2c 3b 86 b4 8e 3d 17 85 38 3e
       0.06536533 0.0026256274 0.06968026 0.1801952
000050 a2 d9 57 3d da 6a cf 3e 98 8e f7 bc 7b db 8d 3e
       0.052697785 0.4051121 -0.030219361 0.27706513
000060 20 d1 e4 3d 6a 69 2d be 10 57 6c bb 90 e8 ba 3c
       0.111727 -0.16934744 -0.0036062635 0.022815973
000070 85 95 03 3e a6 a3 93 3d 84 b1 fe 3e 0f 7a ca 3d
       0.12850006 0.07208948 0.4974481 0.09886562
000080 2b 24 2e 3e fb 34 08 be 5a c7 6c be a5 ef 3f 3e
       0.17005984 -0.1330146 -0.23122922 0.18743761
000090 3a da 3f be bb 69 a2 3d 82 08 0e bd bc 90 1d be
       -0.1873559 0.07930323 -0.034676082 -0.15387243
0000a0 92 e3 17 bd 3c 60 97 3c c9 c4 b7 3e e0 3c 21 be
       -0.037082262 0.018478505 0.35892323 -0.15745878
0000b0 20 b7 69 3c d4 58 29 3f 6c 99 49 bc b0 b0 a1 3c
       0.014264852 0.66151166 -0.012304645 0.019737571
0000c0 7f 38 e8 3e 32 0b 19 3d 72 98 cc 3e ef d8 aa bd
       0.45355603 0.037364192 0.39960057 -0.08342158
0000d0 6f eb e6 bc b4 f8 85 3d ed b6 6f 3e ea dd 93 3e
       -0.028188435 0.06541577 0.23409624 0.28880244
0000e0 9d 5b 96 3e 24 75 e5 3d 23 92 8d 3d 30 65 46 be
       0.2936677 0.112039834 0.06912639 -0.19374537
0000f0 5c 49 2a 3e 83 ec 3d 3e fb 52 9e 3d ce d8 34 bd
       0.16629547 0.18547253 0.07730671 -0.044152074

onnx::Conv_144 f4 [64, 1, 1, 1]
000000 96 6a 73 3f f5 2d 57 bf 64 91 6e bf ac 0f e3 bd
       0.9508451 -0.840545 -0.931906 -0.110869735
000010 f4 9b 48 bf 2e e1 31 bc 1e b0 f6 3e 71 71 b5 be
       -0.78362966 -0.01085691 0.48181242 -0.3543811
000020 55 83 8e bf b5 5f b4 3f aa 72 28 bf f6 02 41 3d
       -1.1133829 1.4091707 -0.65799963 0.047121964
000030 53 63 db be ce 5d 0c bf 57 81 9f bd 85 09 f6 3e
       -0.42849216 -0.54830635 -0.077883415 0.48054138
000040 94 b2 6e 3f 2a a7 a7 be d6 0b 7f 3f 0c 30 9b bf
       0.9324124 -0.32744724 0.99627435 -1.2124038
000050 27 4f cf be 48 55 e9 be 76 38 20 bf 38 ce fd bc
       -0.40490076 -0.45572877 -0.6258615 -0.030982122
000060 73 fd 29 3f c4 fd ff be f2 f6 75 3f 96 71 57 bf
       0.6640236 -0.49998295 0.96079934 -0.84157693
000070 d1 37 10 bf 01 d8 f4 be c5 e8 c8 3e 79 a8 29 3f
       -0.5633517 -0.47821048 0.3924009 0.66272694
000080 39 8b 1e bf 52 a8 7a 3c c2 ba d4 3e 25 c2 15 bf
       -0.61931187 0.01529892 0.41548735 -0.58499366
000090 33 9b 5e 3f 6b 7d 7c 3f 08 69 61 bf b2 6d 27 bf
       0.86955565 0.9862887 -0.8805089 -0.65401757
0000a0 5b fd 40 bf b9 db 93 3f 80 40 10 3f d6 17 fb be
       -0.7538659 1.1551429 0.5634842 -0.49041623
0000b0 3b 66 18 bf 9e 00 80 3e eb 24 31 3f bf 2b 63 3e
       -0.5953099 0.2500047 0.6919696 0.22184657
0000c0 df 4d 28 3f 5f 4a 4f 3f 6c d9 45 3f 56 94 60 3f
       0.6574382 0.80972856 0.77284884 0.8772634
0000d0 29 1e 21 bf 32 e4 ce 3e 82 be 1f bf 93 1c 1e bf
       -0.62936646 0.40408474 -0.62400067 -0.6176235
0000e0 51 b4 f3 3e c5 db d3 3e e5 b5 27 bf 0e 75 a4 3e
       0.47598508 0.41378608 -0.65511924 0.32120556
0000f0 3d d9 65 3f 6e 18 de be 7e fe f4 be c7 46 97 3e
       0.89784604 -0.43378013 -0.47850412 0.29546186

onnx::Conv_145 f4 [64]
000000 15 46 84 be 95 dc 54 3e 38 a2 aa 3e 30 78 8c bc
       -0.25834718 0.2078727 0.33326888 -0.017147154
000010 b6 d0 8d 3e e9 93 90 bd 9a 7e 56 be 01 ee 09 3e
       0.27698296 -0.070594616 -0.20946732 0.13469698
000020 2c 06 70 3e 6e 28 9a be 5c c7 50 3e 70 c0 fb 3c
       0.23439854 -0.3010897 0.2038855 0.03073141
000030 52 38 56 3e 0e d7 21 3e f6 5e 0b bd 76 19 7e bd
       0.20919922 0.15804693 -0.03402611 -0.062036
000040 73 1a 5c be e6 59 b4 3d 0e cb 83 be d4 84 c1 3e
       -0.21494465 0.08806209 -0.25740856 0.37796652
000050 a0 d8 fe 3d 4e e8 0c 3e a9 c6 41 3e c1 a6 da bd
       0.12443662 0.13760492 0.18923439 -0.10676337
000060 97 28 56 be ef 9c 25 3e 85 aa 58 be eb ae 4d 3e
       -0.20913921 0.16173147 -0.21158798 0.20086257
000070 0a a6 99 3e 7f 0b e3 3d ec 7f e5 bd 56 f2 80 be
       0.3000949 0.11086177 -0.1120604 -0.25184888
000080 20 c9 95 3e e1 af 8c bd e0 64 6b be 04 ba 43 3e
       0.2925501 -0.06869484 -0.229877 0.19113928
000090 37 d9 9c be e8 26 9c be f5 66 95 3e f5 18 4c 3e
       -0.30634472 -0.30498433 0.29180112 0.19931395
0000a0 70 68 39 3e 30 a3 52 be bf 9c 76 be b7 4c 8f 3e
       0.18106246 -0.20570064 -0.24083231 0.27988216
0000b0 d6 56 62 3e 9c c9 02 be c0 26 ad bd 3f dc 09 be
       0.22103438 -0.1277222 -0.084546566 -0.13462923
0000c0 9f 65 56 be b2 69 c9 bd 5e 9f 5a be bb ed b4 be
       -0.20937203 -0.09834613 -0.21349856 -0.35337624
0000d0 81 3e 27 3e f0 34 de 3b 90 c9 7d 3e 65 2b 4a 3e
       0.16332437 0.006781213 0.24783921 0.19743116
0000e0 5c ba 40 be 90 7c 56 be 82 cc 56 3e f3 cf 2b be
       -0.1882109 -0.20945954 0.20976451 -0.16778545
0000f0 33 f8 56 be 7b 20 b3 3d e5 33 54 3e c6 0f 5d be
       -0.20993118 0.087464295 0.20722921 -0.21588048

onnx::Conv_147 f4 [64, 1, 1, 1]
000000 57 0c 06 3f 8f e3 3d 3f 96 70 e5 bf c7 6c 33 bf
       0.5236258 0.7417535 -1.7924984 -0.70087856
000010 9a 17 aa bf 34 dc 01 c0 a3 75 3a c0 b0 c3 f5 bf
       -1.3288453 -2.0290651 -2.91343 -1.9200344
000020 6f 4d fb bf cb 4e bb bf 0b cb 2d 3f 7a 84 a7 bf
       -1.9633006 -1.4633421 0.67887944 -1.3087304
000030 07 01 1a c0 d7 af c3 3e 48 e9 89 3e 53 3b 1e 3f
       -2.4063127 0.38220093 0.26935792 0.6180927
000040 63 b1 9c bf a7 66 ba bf 52 e5 fa bf d0 bf 97 c0
       -1.2241634 -1.4562577 -1.9601233 -4.7421646
000050 1d 3a 6d bf 2b 91 a6 3f ab c6 09 bc b4 77 81 3f
       -0.926668 1.3013052 -0.008409183 1.0114655
000060 b0 cb 37 3e d4 22 04 c0 a5 4b 08 be 9c 64 bf bf
       0.17948794 -2.0646257 -0.13310106 -1.4952579
000070 66 78 16 c0 ec d9 e6 bf 64 42 98 3f 87 c4 f9 bf
       -2.3510985 -1.8035254 1.1895261 -1.95131
000080 18 1a b2 bf 3c a7 c7 bf c7 73 e2 3e 75 fb fc 3d
       -1.3914213 -1.5597911 0.44228956 0.12352649
000090 b3 c8 d1 bf 7d da e5 bf 54 d8 32 bc b1 c2 e2 bf
       -1.6389374 -1.7957302 -0.010915834 -1.7715665
0000a0 64 cf b3 3f e1 43 a4 bf 86 fb 92 bf 57 06 f4 bf
       1.4047666 -1.2833215 -1.1483009 -1.9064435
0000b0 5b eb 29 3e 17 3a ed bf d5 2e 06 3f 33 17 da 3d
       0.16593687 -1.8533353 0.5241521 0.10648956
0000c0 c1 5c 15 c0 26 3f a3 3e 53 02 56 c0 d1 59 2a 3f
       -2.3337862 0.31884116 -3.3438919 0.665433
0000d0 07 2b 16 3f 13 7e 04 c0 a6 f1 09 c0 9e fb dc bf
       0.58659405 -2.070195 -2.155374 -1.7264287
0000e0 49 9e 24 bf 35 d5 c2 bf 34 95 93 bf 1e bc 0c c0
       -0.64304024 -1.5221316 -1.1529908 -2.1989818
0000f0 be 60 0e c0 59 9c 2c bf 75 66 a1 3f 65 4f 9f bf
       -2.2246547 -0.6742607 1.2609392 -1.2446104

onnx::Conv_148 f4 [64]
000000 7a a7 92 bd ea fd c5 bd dc 0b c5 3e 73 64 0e 3e
       -0.0716085 -0.09667571 0.3848561 0.13905506
000010 29 40 aa 3e b3 7e 31 3e f0 c7 39 3f f8 0e 8a 3e
       0.33252075 0.17333488 0.72570705 0.26964545
000020 06 54 9c 3e 9c 79 32 3e 33 1b ef bd 2c 29 45 3e
       0.30532855 0.17429203 -0.1167511 0.19253987
000030 4d db c3 3e 96 b4 10 be 0e b9 ee bc 90 25 1a be
       0.3825325 -0.14131388 -0.029140975 -0.15053391
000040 bc 63 3b 3e 2d 04 26 3e 45 97 c6 3e 13 46 a7 3f
       0.18299764 0.1621253 0.38787284 1.306826
000050 95 94 38 3e 90 53 71 be 68 28 a2 bc c8 67 e6 bd
       0.1802543 -0.23567033 -0.019794658 -0.112502635
000060 68 4a a5 bc 6b 40 9b 3e f9 bf a5 bc 84 e5 9f 3e
       -0.020177081 0.30322585 -0.020233141 0.31229794
000070 35 5d 3a 3f 96 d7 8f 3e ab 9e 96 be 9a 74 78 3e
       0.7279847 0.28094167 -0.2941793 0.2426323
000080 4f 69 a0 3e c4 73 75 3e 9a c4 1c be 83 70 45 bc
       0.31330344 0.23969942 -0.15309373 -0.012050751
000090 a4 9b 92 3e 61 9e aa 3e 92 cd 0f bd a4 65 9d 3e
       0.2863437 0.3332396 -0.035108157 0.30741608
0000a0 61 78 44 be 15 b3 94 3e 38 f4 43 3e 72 ba b1 3e
       -0.19186546 0.2904288 0.19136131 0.3471256
0000b0 5b 77 04 bd 74 f1 b3 3e 12 4b 10 be 5d d7 c9 bd
       -0.03234039 0.35145152 -0.14091137 -0.098555304
0000c0 28 4d c7 3e ae d0 9e bd eb e1 47 3f 8b 76 5e bd
       0.38926053 -0.07754646 0.780791 -0.05431227
0000d0 61 12 10 be f2 b5 0b 3f bf 79 df 3e 8a 80 b6 3e
       -0.14069511 0.545745 0.43647572 0.35644943
0000e0 8d ef c1 3d 6c 11 34 3e 7b e4 47 3e ef 03 a4 3e
       0.09469519 0.17584771 0.19520752 0.3203425
0000f0 ef 59 c6 3e 16 85 b0 3d 38 77 ac be 38 71 3c 3e
       0.3874049 0.08619134 -0.33684707 0.18402565
