model/2023_3_26_hj_num_1.onnx (onnx, 135172 bytes, 26 tensors)

block_neck1.block_neck.1.weight f4 [1, 1, 3, 3]
-0.16753563 -0.10727883 -0.13139357 -0.04874661 0.06762688 0.5450509 -0.2162082 0.13816297
0.7461544
00000000: 768e 2bbe 01b5 dbbd 098c 06be 86aa 47bd
00000010: f67f 8a3d 7588 0b3f af65 5dbe 987a 0d3e
00000020: fa03 3f3f

block_neck2.block_neck.0.weight f4 [16, 1, 1, 1]
0.4240874 0.5689251 -0.4157183 -0.836903 -0.9163342 -0.74709105 0.7072522 0.6451598
-0.17598347 -0.39144653 1.0162203 0.83466446 -0.4179378 -0.67704946 -0.49352205 -0.5769615
00000000: fc21 d93e 13a5 113f 07d9 d4be 463f 56bf
00000010: e194 6abf 5c41 3fbf 7b0e 353f 3129 253f
00000020: 0335 34be ae6b c8be 8213 823f 92ac 553f
00000030: f1fb d5be 1d53 2dbf ecae fcbe c0b3 13bf

block_neck2.block_neck.1.weight f4 [16, 1, 3, 3]
-0.048667837 0.081407025 0.4255731 0.56293803 0.17029269 -0.35313162 -0.22068477 0.3196096
0.058465075 -0.26321945 0.14971142 -0.0045207 0.20516378 0.4436517 -0.031991083 0.36800566
0.3171125 -0.18084782 0.02099925 0.22207384 0.43155214 0.21256551 0.6780823 -0.011003834
0.4354299 -0.07731827 -0.49441382 0.3355763 0.5303645 0.3012356 -0.02400569 0.0031719466
-0.068206795 -0.27867886 -0.38322988 -0.29685873 0.05236327 0.073471576 0.22376774 -0.011787255
-0.41036493 -0.72965986 -0.039456505 0.08765297 -0.24564517 -0.09456249 0.07352322 0.33559847
-0.17170994 -0.42998037 -0.16716579 0.36495566 0.43515748 0.16205408 0.5491873 0.22240762
0.38108394 0.1270469 -0.12953925 0.25231376 0.09626762 0.19598942 0.10427633 -0.06401287
-0.51223016 0.026084937 0.18425602 0.01918717 0.21370642 0.53760016 -0.050753675 -0.14951079
0.02158516 -0.20544648 0.16623566 0.38280612 -0.08031721 0.16659567 -0.41969794 0.19335546
0.17647083 -0.13072975 -0.34173352 -0.06491343 -0.0071815527 0.09607929 0.46888337 -0.14604749
-0.15087847 0.3554874 0.4313777 -0.25025657 -0.5216338 0.3175314 0.17939647 -0.3356184
0.24111874 0.25585836 -0.0076589766 0.21510336 -0.14151515 0.20720862 0.14255016 -0.17164744
0.123473234 -0.17518282 -0.3398843 -0.5402354 0.7371751 -0.13924836 -0.18166503 0.26733133
-0.25568932 -0.640034 -0.07224043 0.20072213 -0.025049005 -0.13395974 0.50731534 0.2661321
-0.09528977 0.2719291 0.41308975 -0.12744357 0.03337946 -0.10075996 0.19321227 0.17647868
0.22704095 0.10547188 0.11349002 -0.27728015 0.2620662 -0.6769327 0.011122686 0.071158156
-0.068025194 0.17287084 0.33284473 -0.1676966 0.081620015 0.4830679 -0.19309726 -0.25744638
00000000: ed57 47bd bab8 a63d b8e4 d93e b51c 103f
00000010: 3561 2e3e abcd b4be 30fb 61be dfa3 a33e
00000020: 1379 6f3d b3c4 86be f34d 193e 6122 94bb
00000030: 7416 523e 5126 e33e 1509 03bd 3d6b bc3e
00000040: 925c a23e 2c30 39be 9e06 ac3c 5367 633e
00000050: 67f4 dc3e c6aa 593e cd96 2d3f 6d49 34bc
00000060: abf0 de3e 0b59 9ebd cf23 fdbe a8d0 ab3e
00000070: f8c5 073f 8d3b 9a3e 95a7 c4bc 6fe0 4f3b
00000080: 01b0 8bbd ffae 8ebe b536 c4be defd 97be
00000090: de7a 563d 4478 963d 5f23 653e 551f 41bc
000000a0: 5a1b d2be fdca 3abf 259d 21bd 6683 b33d
000000b0: 688a 7bbe fba9 c1bd 5893 963d 90d3 ab3e
000000c0: bbd4 2fbe 6326 dcbe 822d 2bbe 78db ba3e
000000d0: f6cc de3e 81f1 253e 8a97 0c3f d3be 633e
000000e0: 6f1d c33e 9518 023e f0a5 04be 452f 813e
000000f0: f527 c53d 73b1 483e d48e d53d 2e19 83bd
00000100: 8421 03bf 14b0 d53c 9cad 3c3e 692e 9d3c
00000110: dbd5 5a3e 2aa0 093f 16e3 4fbd 5b19 19be
00000120: 5dd3 b03c 9060 52be ae39 2a3e 2aff c33e
00000130: 597d a4bd 0e98 2a3e a6e2 d6be f9fe 453e
00000140: c5b4 343e 05de 05be b2f7 aebe 55f1 84bd
00000150: 3b53 ebbb 38c5 c43d 7b11 f03e 798d 15be
00000160: e37f 1abe 7202 b63e 8add dc3e a121 80be
00000170: cb89 05bf 7a93 a23e b5b3 373e 2dd6 abbe
00000180: d5e7 763e deff 823e 27f8 fabb 0e44 5c3e
00000190: 59e9 10be 7f2e 543e abf8 113e 59c4 2fbe
000001a0: 89df fc3d 2063 33be 5105 aebe de4c 0abf
000001b0: 82b7 3c3f 1f97 0ebe 6606 3abe a7df 883e
000001c0: b6e9 82be 45d9 23bf caf2 93bd 1a8a 4d3e
000001d0: 9233 cdbc be2c 09be 6bdf 013f 7742 883e
000001e0: 4827 c3bd 4a3a 8b3e 8080 d33e 9180 02be
000001f0: e7b8 083d 3d5b cebd 70d9 453e d4b6 343e
00000200: 6c7d 683e a401 d83d 756d e83d aaf7 8dbe
00000210: 8a2d 863e 764b 2dbf ed3b 363c 5ebb 913d
00000220: cb50 8bbd 0e05 313e a06a aa3e a8b8 2bbe
00000230: 6528 a73d ad54 f73e 4abb 45be 03d0 83be

block_neck3.block_neck.0.weight f4 [32, 1, 1, 1]
0.86575353 0.43828207 -0.6412694 0.9531138 -0.29021412 -0.7850697 -0.3401954 0.9775943
0.5316734 0.69378614 0.39724454 0.5423016 0.7879235 0.9909443 -0.96283495 -0.23445562
-0.4306848 -0.45638245 0.6990371 0.427348 -0.6272517 0.20584875 -0.7814999 -0.6928492
-0.7251716 -0.5059527 -0.79039145 0.8399031 0.3131932 -0.5169328 -0.6142698 -0.43301567
00000000: 06a2 5d3f 8266 e03e 3b2a 24bf 44ff 733f
00000010: f296 94be 54fa 48bf 172e aebe 9f43 7a3f
00000020: bf1b 083f f89b 313f a363 cb3e 47d4 0a3f
00000030: 5bb5 493f 87ae 7d3f 5a7c 76bf 2215 70be
00000040: b882 dcbe f6aa e9be 18f4 323f 5bcd da3e
00000050: 9193 20bf 04ca 523e 6110 48bf 915e 31bf
00000060: d9a4 39bf 1e86 01bf 1857 4abf e403 573f
00000070: dc5a a03e b555 04bf c940 1dbf 3bb4 ddbe

block_neck3.block_neck.1.weight f4 [32, 1, 3, 3]
-0.081353106 -0.40545493 -0.2511307 0.53226393 -0.24360296 -0.20227093 0.46983778 0.0060818405
0.1627378 -0.4281153 -0.22260152 -0.22379184 -0.28685355 0.073761575 0.3177541 0.49402982
0.2981712 -0.2902982 -0.5846902 -0.4062792 0.36751607 -0.27223685 0.056767456 0.06144883
0.5860037 -0.3000587 -0.4323097 -0.46951857 -0.16619577 -0.24949081 -0.52744424 -0.2147442
0.20569713 -0.10593088 -0.18258785 0.4329913 -0.49479154 0.07296558 0.1921799 -0.3005112
-0.16341889 -0.32214797 0.15340884 0.22469677 -0.15491791 -0.009546638 0.09290581 -0.089723326
0.13391604 0.025118353 -0.23664702 -0.18008673 -0.40918785 -0.5207049 0.4523995 -0.19808178
-0.33301705 -0.49088606 -0.3153666 0.24079539 0.15020582 -0.1727106 -0.31274864 0.12554722
-0.11490073 -0.29029447 -0.031915944 0.21137784 -0.35152197 -0.31091475 0.43790248 0.40574986
0.050472356 -0.23180261 0.0073666205 0.22127913 0.4329463 0.2362343 -0.1963254 -0.17730051
-0.35257623 0.20569643 0.3359057 -0.031653825 -0.37890303 -0.34966782 -0.17972179 -0.53011847
-0.49982795 -0.5919499 0.32303646 -0.008865786 0.4810356 0.3962528 0.11945715 0.1858095
0.023785172 0.5025423 -0.19744475 -0.3259397 -0.45329866 0.25068763 -0.22700173 -0.38528064
0.17705032 -0.24219255 0.19372518 0.38020197 0.33157334 0.18173213 -0.36939788 0.36705595
-0.07970315 -0.2601337 0.33045602 -0.09906504 -0.20933682 -0.08814664 0.2787369 0.3353744
0.063411884 0.44055146 0.5286216 -0.31265247 0.1791531 0.43068284 -0.16475031 -0.39968494
-0.30261976 0.3531128 -0.32585952 0.1863253 -0.13778281 -0.5147168 0.074290566 -0.32192528
0.1295819 0.51531756 -0.17558856 -0.35823867 0.34918597 0.39304775 -0.21802402 0.0018891176
-0.22803435 -0.04797642 0.303496 -0.19550586 -0.66722524 -0.5234457 0.14619915 0.036522057
0.29047427 0.30561274 -0.09451696 -0.36648807 -0.24393335 -0.0046863775 0.3471519 0.37623107
-0.013647938 -0.29771975 0.47089222 -0.37685975 -0.23878413 0.36839578 0.094505265 -0.2798159
0.23906718 -0.09914844 -0.22251992 -0.06731097 0.10409838 -0.4050449 -0.07739744 -0.04953016
-0.42477793 0.47063148 0.42089015 0.03688228 -0.3188058 -0.34642145 -0.30270538 0.45648038
-0.122949034 -0.25167456 0.23659585 0.18863903 -0.017777303 0.46431985 0.15047404 0.09168096
-0.42642632 -0.03200299 -0.48647943 0.2610658 -0.30729637 0.015502045 -0.27425754 0.37894613
-0.47621533 0.12842372 -0.36457172 -0.2894254 0.09190277 -0.1145835 -0.035865325 -0.34821442
0.17708734 0.11476513 0.42525458 0.27803946 -0.21466373 -0.4466278 -0.09926087 0.061510593
0.081293575 0.29409993 -0.06561293 0.19230685 0.3052425 -0.32573223 -0.5911116 0.18374541
-0.35855842 -0.050313193 0.58117557 0.35008422 0.12513003 -0.10994895 -0.22349855 -0.14696884
-0.11200347 0.42852506 -0.18180524 0.13657121 0.5201833 0.07106106 -0.24769358 0.39174086
0.15971193 0.1060111 0.02762815 -0.17263559 -0.02587723 0.2452297 0.12426757 0.25534907
0.33105668 0.09760776 0.31629357 -0.102273 0.17667046 0.19044884 -0.6102732 -0.30402604
00000000: 759c a6bd ca97 cfbe 3494 80be 7342 083f
00000010: 0e73 79be 1c20 4fbe 948e f03e 2d4a c73b
00000020: bda4 263e ee31 dbbe a7f1 63be b029 65be
00000030: 78de 92be 4f10 973d aab0 a23e 7af1 fc3e
00000040: e5a9 983e f7a1 94be 42ae 15bf d403 d0be
00000050: 112b bc3e a162 8bbe fe84 683d c5b1 7b3d
00000060: 5704 163f 4ba1 99be b257 ddbe bd64 f0be
00000070: 392f 2abe 857a 7fbe 9606 07bf e7e5 5bbe
00000080: 45a2 523e 4af2 d8bd 4ff8 3abe 09b1 dd3e
00000090: 5155 fdbe fa6e 953d cfca 443e 9bdc 99be
000000a0: 4857 27be 94f0 a4be 3517 1d3e e916 663e
000000b0: cda2 1ebe 8069 1cbc 6745 be3d ddc0 b7bd
000000c0: 4921 093e 01c5 cd3c 9953 72be a868 38be
000000d0: 1281 d1be eb4c 05bf e8a0 e73e f3d5 4abe
000000e0: 3681 aabe 6b55 fbbe bb77 a1be 1193 763e
000000f0: 8ecf 193e 0cdb 30be 9720 a0be 738f 003e
00000100: 1351 ebbd 7aa1 94be 4bba 02bd 6f73 583e
00000110: b0fa b3be 3830 9fbe c134 e03e 72be cf3e
00000120: 1abc 4e3d aa5d 6dbe b163 f13b ff96 623e
00000130: 23ab dd3e 68e7 713e 8709 49be 448e 35be
00000140: df84 b4be 16a2 523e d5fb ab3e 71a7 01bd
00000150: 94ff c1be a907 b3be fd08 38be d8b5 07bf
00000160: 73e9 ffbe 078a 17bf 0965 a53e cd41 11bc
00000170: 4c4a f63e a6e1 ca3e f3a5 f43d d844 3e3e
00000180: 1fd9 c23c 9da6 003f f52e 4abe 91e1 a6be
00000190: c316 e8be 215a 803e 2473 68be 8143 c5be
000001a0: ae4c 353e 5301 78be e55f 463e d5a9 c23e
000001b0: fbc3 a93e fd17 3a3e b821 bdbe c2ee bb3e
000001c0: 683b a3bd 3f30 85be 8831 a93e 9de2 cabd
000001d0: 645c 56be 3a86 b4bd 9ab6 8e3e 31b6 ab3e
000001e0: 17de 813d f68f e13e bf53 073f fc13 a0be
000001f0: e973 373e 7682 dc3e 4eb4 28be 81a3 ccbe
00000200: faf0 9abe 33cb b43e 0fd7 a6be 0fcc 3e3e
00000210: f016 0dbe 7bc4 03bf a725 983d 64d3 a4be
00000220: 1eb1 043e daeb 033f 7dcd 33be 0f6b b7be
00000230: 81c8 b23e 8e3d c93e b041 5fbe 459c f73a
00000240: d681 69be ec82 44bd d463 9b3e b032 48be
00000250: 46cf 2abf 8a00 06bf 3bb5 153e 2798 153d
00000260: 0bb9 943e 4679 9c3e 1c92 c1bd 53a4 bbbe
00000270: aac9 79be 2f90 99bb e5bd b13e 5ca1 c03e
00000280: 9a9b 5fbc b96e 98be c918 f13e c3f3 c0be
00000290: d483 74be 5f9e bc3e fa8b c13d 0844 8fbe
000002a0: 07ce 743e 560e cbbd 43dc 63be 55da 89bd
000002b0: 8831 d53d 0c62 cfbe 8d82 9ebd 23e0 4abd
000002c0: 7e7c d9be 9cf6 f03e ea7e d73e e011 173d
000002d0: 843a a3be 275e b1be 33fc 9abe ccb7 e93e
000002e0: b4cc fbbd 7ddb 80be 2f46 723e 972a 413e
000002f0: b5a1 91bc 55bb ed3e de15 1a3e 3ac3 bb3d
00000300: 8d54 dabe 9115 03bd d513 f9be 6baa 853e
00000310: f355 9dbe 4afc 7d3c 7c6b 8cbe 3a05 c23e
00000320: 7fd2 f3be 8281 033e 25a9 babe 912f 94be
00000330: 8537 bc3d c1aa eabd 85e7 12bd 2949 b2be
00000340: 6256 353e fb09 eb3d f8ba d93e 305b 8e3e
00000350: cfd0 5bbe 66ac e4be 4849 cbbd 88f2 7b3d
00000360: 3f7d a63d 4494 963e 1260 86bd 16ec 443e
00000370: bf48 9c3e 60c6 a6be 1753 17bf c227 3c3e
00000380: f894 b7be 3515 4ebd ecc7 143f 3d3e b33e
00000390: 1622 003e ea2c e1bd cedc 64be 007f 16be
000003a0: 1362 e5bd a367 db3e 272b 3abe 53d9 0b3e
000003b0: bc2a 053f 7688 913d 63a3 7dbe 4292 c83e
000003c0: 868b 233e 591c d93d 6e54 e23c 62c7 30be
000003d0: 7cfc d3bc 7f1d 7b3e ff7f fe3d 1dbd 823e
000003e0: 4380 a93e 94e6 c73d 3bf1 a13e 8274 d1bd
000003f0: 1ae9 343e 0505 433e dd3a 1cbf 4da9 9bbe

onnx::Conv_121 f4 [16, 1, 1, 1]
-3.969105 -7.2790465 -4.59642 8.737604 7.457949 -4.820831 -4.0539055 -7.2485824
-4.9300733 -7.014462 -5.119934 -3.9557173 7.734665 4.405557 -6.3365397 8.7767515
00000000: d105 7ec0 f3ed e8c0 df15 93c0 3acd 0b41
00000010: 85a7 ee40 3f44 9ac0 98b9 81c0 63f4 e7c0
00000020: 29c3 9dc0 7976 e0c0 80d6 a3c0 792a 7dc0
00000030: 6082 f740 53fa 8c40 efc4 cac0 936d 0c41

onnx::Conv_122 f4 [16]
-0.32318196 -0.72294325 -0.5732934 0.7649549 1.1165211 -0.09573895 -0.7615863 -0.28515804
-0.26526234 -0.64303297 -0.70418304 0.19685167 0.6306614 0.71013486 -0.6959536 0.95242035
00000000: 1b78 a5be cf12 39bf 5bc3 12bf 16d4 433f
00000010: 2aea 8e3f c812 c4bd 52f7 42bf 3c00 92be
00000020: 77d0 87be cf9d 24bf 5745 34bf 7c93 493e
00000030: 0773 213f 66cb 353f 042a 32bf d2d1 733f

onnx::Conv_124 f4 [16, 1, 1, 1]
2.5218737 -2.40322 -4.602357 2.583205 -0.84715766 2.705116 2.8480344 1.937549
2.3690352 -2.094116 2.6360705 2.81721 2.4219625 -3.12499 1.9454348 1.9595826
00000000: 6166 2140 5bce 19c0 8246 93c0 3b53 2540
00000010: 53df 58bf 9f20 2d40 3246 3640 9b01 f83f
00000020: 469e 1740 ff05 06c0 61b5 2840 2b4d 3440
00000030: 6f01 1b40 d6ff 47c0 0204 f93f 9ad3 fa3f

onnx::Conv_125 f4 [16]
-0.56095505 0.6020653 1.5601512 -0.14275938 0.60646844 -0.18223852 -1.0588982 0.08216983
-1.1238395 0.3996387 -0.88782835 -0.5780274 -0.81876165 1.5614071 -0.71681076 0.112777054
00000000: c09a 0fbf f420 1a3f 09b3 c73f 842f 12be
00000010: 8441 1b3f bc9c 3abe fa89 87bf a848 a83d
00000020: f9d9 8fbf 729d cc3e b848 63bf 9bf9 13bf
00000030: 5d9a 51bf 30dc c73f e980 37bf a8f7 e63d

onnx::Conv_127 f4 [32, 16, 1, 1]
-0.52571994 -0.27313837 0.11434905 -0.25124252 -0.19906591 -0.015436043 -0.40251574 -0.07049966
0.07252007 -0.20963655 -0.08926714 -0.07967299 -0.27496874 -0.32277316 0.16461284 -0.19308753
0.9127605 -0.0016360292 -0.036963448 -0.24726455 0.14879005 -0.29799286 0.22291361 0.1135583
-0.06885619 0.34804812 0.14481853 -0.38546962 0.6234007 -0.32829612 -0.47680694 -0.19213758
0.6453352 0.5360182 -0.5025579 0.251294 -0.2908531 -0.15167849 0.319245 0.34675038
-0.15537296 0.37162706 -0.4240758 0.005324864 0.59466416 0.4880613 -0.36402735 0.36707386
0.26133782 0.114592016 0.084381096 0.03890219 -0.20386717 -0.18608227 0.66634274 0.02585039
-0.33737257 0.119180955 0.17608501 -0.14752463 0.16152193 0.34509823 -0.006241915 0.063961126
-0.24703231 -0.72180897 0.004872598 -0.0669344 -0.23766969 0.06856254 0.0116948 0.25013262
-0.056143146 -0.3875022 0.051368818 0.17768879 -0.3666788 -0.23001502 -0.13675788 -0.69450945
-0.3353941 0.34192568 -0.7377414 -0.21737067 -0.016723935 -0.40040758 0.32236156 0.033730533
0.014835308 -0.12302876 -0.35042813 -0.59612596 0.48688433 0.18087249 0.20897476 -0.0005513746
0.061025806 0.054975744 0.086719714 -0.16032295 0.39651093 0.2174302 0.3651909 -0.30028102
0.082838714 -0.08643366 -0.391992 0.23006333 0.3034369 0.67570883 -0.4312681 0.43525773
0.65976137 -0.05803988 0.026845861 -0.13563147 0.086496994 -0.33257702 0.08821967 0.17559549
-0.3932298 0.06678558 0.7358811 -0.088466056 -0.28744936 -0.48698872 0.35233015 0.22839431
0.030133877 0.28367096 0.04234304 -0.46556458 0.5730109 -0.16728847 0.16871718 -0.20185514
0.5234831 0.6307213 0.3426319 -0.88698494 0.2503213 -0.20217845 -0.4688731 -0.3412431
-0.4833216 0.6729545 -0.79008126 0.4793948 -0.3503048 0.05002034 -0.01487313 0.52485454
0.109627604 -0.2849199 -0.10231263 -0.084494025 0.041720312 0.010547807 0.43308917 0.35543278
0.61571676 0.66764385 0.05413485 -0.22183843 0.31640333 0.3006488 -0.4971645 -1.2183322
0.27372426 -0.07864857 -0.1031594 -0.9921019 0.33769086 -0.7230688 -0.02698053 -0.760488
-0.3151786 0.13269892 0.40108618 0.5610348 -0.076966 -0.041236144 0.26545784 0.49545667
0.62827444 -0.2906529 0.6285485 0.3699585 -0.79928935 -0.55642265 -0.76716965 -0.39138368
-0.26937494 -0.3910504 0.5148884 -0.24049903 0.3317449 -1.3895552 -0.12230789 0.108685195
0.4021423 -0.40917954 0.07780335 -0.40505067 -0.37923887 -0.42700484 0.0073437085 0.31769684
-0.07529806 -0.15579143 -0.44966498 -0.36998552 0.12046316 0.61735654 0.06508741 -0.31306848
0.24035962 0.26466894 -0.14966267 0.32531703 0.336766 0.07688395 -0.33839083 0.19122729
-0.059377644 -0.25734487 -0.076737486 -0.37536883 0.018179398 -0.017815528 -0.20578235 -0.23722735
0.5274793 0.11595198 -0.33514988 0.24628574 -0.2837789 -0.06966078 -0.15416232 -0.03799166
-0.17021644 -0.058594394 -0.033928525 0.00083955104 0.162384 -0.037368745 -0.30598852 -0.21396564
-0.16356671 -0.027336778 -0.42521805 0.16682914 0.4140102 -0.14158058 0.21628241 -0.08229797
00000000: 9595 06bf cbd8 8bbe d62f ea3d dca2 80be
00000010: efd7 4bbe 75e7 7cbc 8b16 cebe 2062 90bd
00000020: 6785 943d f7aa 56be b1d1 b6bd 982b a3bd
00000030: b4c8 8cbe 8642 a5be 4590 283e bdb8 45be
00000040: acaa 693f 0870 d6ba fc66 17bd eb32 7dbe
00000050: 6b5c 183e 8592 98be 7743 643e 4191 e83d
00000060: 7904 8dbd 5d33 b23e 4f4b 143e 465c c5be
00000070: 3097 1f3f 6e16 a8be 0a20 f4be b7bf 44be
00000080: b034 253f 7d38 093f a2a7 00bf 9ba9 803e
00000090: b3ea 94be 9b51 1bbe 1574 a33e 4489 b13e
000000a0: 171a 1fbe e745 be3e 7720 d9be 327c ae3b
000000b0: e93b 183f 2ce3 f93e cb61 babe 1bf1 bb3e
000000c0: 12ce 853e 38af ea3d ffcf ac3d e757 1f3d
000000d0: 8ec2 50be 5a8c 3ebe 7095 2a3f 32c4 d33c
000000e0: 19bc acbe 2515 f43d a14f 343e b210 17be
000000f0: 0166 253e b7b0 b03e fa88 ccbb 0dfe 823d
00000100: 0af6 7cbe 79c8 38bf 51aa 9f3b e714 89bd
00000110: af5f 73be 846a 8c3d 8c9b 3f3c 6211 803e
00000120: 5bf6 65bd b066 c6be 1c68 523d 0df4 353e
00000130: 53bd bbbe 0f89 6bbe 420a 0cbe 5fcb 31bf
00000140: c7b8 abbe e210 af3e 9fdc 3cbf 6b96 5ebe
00000150: a200 89bc 3902 cdbe 930c a53e 0729 0a3d
00000160: cb0f 733c 81f6 fbbd 516b b3be b69b 18bf
00000170: e748 f93e a336 393e 7bfd 553e 1f8a 10ba
00000180: 32f6 793d 3f2e 613d 1b9a b13d b32b 24be
00000190: 7b03 cb3e 06a6 5e3e 4dfa ba3e 6fbe 99be
000001a0: 58a7 a93d 2104 b1bd 2db3 c8be b995 6b3e
000001b0: 155c 9b3e 41fb 2c3f 2ccf dcbe 1ada de3e
000001c0: 1fe6 283f 3abb 6dbd daeb db3c fae2 0abe
000001d0: 5625 b13d 8947 aabe 84ac b43d 4ecf 333e
000001e0: 6b55 c9be e1c6 883d b462 3c3f b12d b5bd
000001f0: 902c 93be 9656 f9be 9e64 b43e 33e0 693e
00000200: 52db f63c 523d 913e e56f 2d3d 7b5e eebe
00000210: d8b0 123f ab4d 2bbe 32c4 2c3e 1db3 4ebe
00000220: fd02 063f f376 213f 736d af3e 7211 63bf
00000230: 1d2a 803e de07 4fbe 2310 f0be 6ab7 aebe
00000240: ee75 f7be bf46 2c3f c442 4abf 3c73 f53e
00000250: 275b b3be 21e2 4c3d 6eae 73bc de5c 063f
00000260: 7084 e03d 05e1 91be 4989 d1bd 340b adbd
00000270: ebe2 2a3d b6d0 2c3c ddbd dd3e 49fb b53e
00000280: 9d9f 1d3f b5ea 2a3f 81bc 5d3d 9d29 63be
00000290: 9eff a13e a4ee 993e 588c febe 4ff2 9bbf
000002a0: 9625 8c3e 8012 a1bd 3c45 d3bd 64fa 7dbf
000002b0: d1e5 ac3e 091b 39bf 4606 ddbc 57af 42bf
000002c0: 175f a1be 3ae2 073e 2b5b cd3e fa9f 0f3f
000002d0: 5aa0 9dbd 3be7 28bd 17ea 873e 7fac fd3e
000002e0: 98d6 203f 75d0 94be 8ee8 203f 336b bd3e
000002f0: 3a9e 4cbf b771 0ebf 3b65 44bf 7163 c8be
00000300: 83eb 89be c237 c8be bacf 033f 6145 76be
00000310: 78da a93e f2dc b1bf 8f7c fabd 5896 de3d
00000320: 98e5 cd3e fb7f d1be 5d57 9f3d cd62 cfbe
00000330: 992b c2be 61a0 dabe 7ea3 f03b 29a9 a23e
00000340: df35 9abd ca87 1fbe 7d3a e6be be6e bdbe
00000350: 64b5 f63d 140b 1e3f 8c4c 853d 834a a0be
00000360: d520 763e b082 873e 2c41 19be f48f a63e
00000370: 986c ac3e 5575 9d3d 9041 adbe 16d1 433e
00000380: f935 73bd b5c2 83be 8b28 9dbd 5830 c0be
00000390: f6ec 943c dff1 91bc 9cb8 52be baeb 72be
000003a0: e208 073f 3b78 ed3d c498 abbe 5432 7c3e
000003b0: 784b 91be 50aa 8ebd badc 1dbe 259d 1bbd
000003c0: 384d 2ebe ad00 70bd a3f8 0abd 5115 5c3a
000003d0: fe47 263e f80f 19bd 87aa 9cbe cf19 5bbe
000003e0: 087e 27be 61f1 dfbc 2eb6 d9be 42d5 2a3e
000003f0: 25f9 d33e 80fa 10be 2379 5d3e d78b a8bd

onnx::Conv_128 f4 [32]
0.7362343 -1.7925881 -0.44735783 -0.34696138 0.92550063 -1.5450324 0.59204596 -1.3209769
-2.3214154 -0.9005773 -1.9266834 -0.6052921 -0.7876321 0.2552753 0.87599075 0.31295085
-0.73960614 0.060588926 1.4854015 -0.58763075 1.1557633 -0.72790307 0.84293014 -0.47360024
1.6516382 0.28085923 -1.7059706 1.7387974 2.2741275 -0.5506677 1.4715441 0.040477276
00000000: da79 3c3f 8773 e5bf 160c e5be eca4 b1be
00000010: 9ced 6c3f 9fc3 c5bf 5390 173f c515 a9bf
00000020: 1292 14c0 3c8c 66bf 909d f6bf 6cf4 1abf
00000030: 42a2 49bf 72b3 823e ee40 603f 183b a03e
00000040: d456 3dbf 182c 783d a321 be3f f86e 16bf
00000050: 0df0 933f db57 3abf 45ca 573f bb7b f2be
00000060: e168 d33f c8cc 8f3e 3f5d dabf ea90 de3f
00000070: 4e8b 1140 8ff8 0cbf 8f5b bc3f 80cb 253d

onnx::Conv_130 f4 [32, 16, 1, 1]
-0.16687717 -0.09230026 0.15525803 -0.31984258 0.0155477235 0.124226846 -0.20906258 -0.11251288
0.21939692 -0.23235562 -0.016693568 -0.008598119 -0.10215088 0.0098251 -0.13315776 -0.48042342
-0.0050673923 -0.13516706 -0.4107708 0.5060018 0.14965218 -0.1327505 -0.027111577 0.22091892
-0.037545476 -0.082011804 -0.15942448 0.05821253 -0.007979414 -0.29970798 0.12358551 0.37849078
0.03022296 -0.19565219 0.09248587 -0.1768726 -0.1404333 -0.02602289 -0.010978409 -0.20830293
0.039158683 -0.039736066 0.11516519 -0.16908424 -0.08554945 -0.09188428 0.1395347 -0.3167459
-0.02289638 -0.04967578 -0.054446336 -0.083645046 -0.40189984 0.035416804 0.2006128 0.08926715
0.16825436 -0.29251727 0.049064815 -0.060558535 0.1940391 -0.442317 -0.12104484 0.06341905
0.08916026 -0.12703443 -0.049963176 0.122269616 -0.07873836 -0.08828066 0.08385691 -0.16882567
-0.19232467 -0.2732068 -0.025955368 -0.14952937 0.10728979 -0.13590576 -0.101521045 0.02725842
-0.00013835634 0.09511508 0.073780425 0.016644971 -0.008949342 0.021478921 -0.0026236959 0.038691986
0.122610524 0.095791444 -0.07437166 0.06815745 0.033106085 -0.009220111 0.048700172 -0.0019572934
0.07813139 0.0747922 0.2164096 -0.39766312 -0.14174604 -0.11890562 -0.13134448 -0.027245918
0.14781666 0.06522573 -0.02167947 0.07108277 -0.21053037 -0.08445198 -0.0032746906 -0.3404675
0.11520339 -0.09169534 -0.1180137 0.056408197 -0.0670368 -0.019376168 0.1367603 -0.0039823824
0.11355884 0.016783673 -0.017417613 0.14776571 -0.049572073 -0.08843434 0.07208707 -0.007364769
0.08448765 0.09147177 -0.06484673 0.06940379 -0.111963704 -0.01771839 -0.08802507 0.13479541
0.06103027 0.078110866 -0.12735407 0.15343885 -0.15091126 -0.251824 -0.059975807 0.08895678
-0.0023424434 -0.2206106 -0.048059475 0.041105162 0.020275073 -0.045959473 0.030758182 -0.063098826
0.028298303 -0.22330628 0.011741906 -0.024721043 -0.044680934 -0.029988779 -0.020498274 0.016728282
-0.020062698 0.25266385 0.16145185 0.2917037 -0.043861322 0.1707701 -0.04328577 0.029626334
0.14169337 0.21249072 -0.018141117 -0.04695068 0.17175779 0.009597247 0.04837009 0.18388383
0.09327353 -0.1409541 -0.42741054 0.22699316 -0.08583087 0.0045283567 0.054398812 -0.12214276
-0.1263874 -0.044075113 0.08900499 0.052354846 0.29401112 -0.06662144 -0.043880247 0.31761712
0.043582346 0.13426988 0.11466156 -0.09042008 -0.11273017 -0.060408104 -0.10741876 0.012984339
0.055337306 0.062236004 -0.095342346 0.09347054 -0.25117114 0.0025874549 -0.08167756 -0.17231908
0.031730525 0.038993515 0.093504496 -0.14923315 0.043552738 -0.12310018 -0.09060574 -0.072673745
-0.009725212 0.08181502 -0.00988179 -0.07044601 -0.024345068 0.15528855 -0.036588375 -0.19824816
0.048937876 -0.062231615 -0.09507576 -0.14889707 -0.05890228 0.042635705 -0.22330892 0.035015568
-0.12629542 -0.056643255 -0.091425434 0.02160533 -0.1898495 0.30443895 -0.15929985 -0.07164653
-0.080845244 0.055670727 -0.049348153 -0.21834353 0.1705061 -0.10164282 -0.04811903 -0.18774949
0.054511137 0.03569905 0.08880706 -0.12522452 0.023509957 0.19957298 0.011742355 -0.08002939
00000000: d9e1 2abe eb07 bdbd f6fb 1e3e 68c2 a3be
00000010: e1bb 7e3c a56a fe3d 8014 56be 276d e6bd
00000020: 96a9 603e a2ee 6dbe f3c0 88bc 20df 0cbc
00000030: 7b34 d1bd 75f9 203c 825a 08be 0ffa f5be
00000040: 5e0c a6bb 3c69 0abe 8d50 d2be 5589 013f
00000050: 6c3e 193e bfef 07be 1919 debc 9238 623e
00000060: 49c9 19bd cef5 a7bd 2c40 23be 4370 6e3d
00000070: 17bc 02bc 5373 99be 661a fd3d 8bc9 c13e
00000080: 2496 f73c 0c59 48be 3b69 bd3d 171e 35be
00000090: bfcd 0fbe f52d d5bc c9de 33bc 5d4d 55be
000000a0: db64 203d 49c2 22bd badb eb3d 6b24 2dbe
000000b0: 8d34 afbd d32d bcbd 2fe2 0e3e 852c a2be
000000c0: 3091 bbbc d578 4bbd 1f03 5fbd 184e abbd
000000d0: d1c5 cdbe 3611 113d 716d 4d3e b2d1 b63d
000000e0: df4a 2c3e d3c4 95be 30f8 483d 3a0c 78bd
000000f0: 30b2 463e 6077 e2be 5be6 f7bd d9e1 813d
00000100: a899 b63d 5015 02be 30a6 4cbd 7e68 fa3d
00000110: 9441 a1bd 7ecc b4bd 2cbd ab3d a3e0 2cbe
00000120: c2f0 44be c3e1 8bbe 5aa0 d4bc 3a1e 19be
00000130: c0ba db3d e12a 0bbe 44ea cfbd 0d4d df3c
00000140: bf13 11b9 b2cb c23d 311a 973d 095b 883c
00000150: 43a0 12bc 90f4 af3c 50f2 2bbb 7d7b 1e3d
00000160: 3a1b fb3d 4e2e c43d 2b50 98bd 2296 8b3d
00000170: 3f9a 073d f30f 17bc d579 473d ef45 00bb
00000180: 5a03 a03d a72c 993d 7a9a 5d3e 809a cbbe
00000190: e025 11be ca84 f3bd 2b7f 06be d532 dfbc
000001a0: 405d 173e 1195 853d 2599 b1bc d893 913d
000001b0: 4695 57be 29f5 acbd 319c 56bb c251 aebe
000001c0: c1ef eb3d c4ca bbbd 2bb1 f1bd 480c 673d
000001d0: 974a 89bd c5ba 9ebc e40a 0c3e a57e 82bb
000001e0: 8991 e83d ea7d 893c 62af 8ebc e54f 173e
000001f0: 160c 4bbd 101d b5bd 63a2 933d 2954 f1bb
00000200: dc07 ad3d 8d55 bb3d 5dce 84bd 9323 8e3d
00000210: 3a4d e5bd 2826 91bc 7d46 b4bd cf07 0a3e
00000220: e0fa 793d 97f8 9f3d 1b69 02be 131f 1d3e
00000230: 7b88 1abe 13ef 80be 31a9 75bd f92e b63d
00000240: ae83 19bb bfe7 61be 03da 44bd e35d 283d
00000250: e917 a63c 0040 3cbd 95f8 fb3c f539 81bd
00000260: d8d1 e73c 67aa 64be 2061 403c c983 cabc
00000270: 5b03 37bd 07ab f5bc ffeb a7bc c009 893c
00000280: 875a a4bc 285d 813e a253 253e 305a 953e
00000290: eea7 33bd 5bde 2e3e 6b4c 31bd edb2 f23c
000002a0: 1118 113e 2b97 593e ae9c 94bc 5b4f 40bd
000002b0: 46e1 2f3e c53d 1d3c b71f 463d 0b4c 3c3e
000002c0: 3106 bf3d 4656 10be 8ed5 dabe e570 683e
000002d0: 18c8 afbd 9c62 943b 4ad1 5e3d fc25 fabd
000002e0: b36b 01be 1b88 34bd 4048 b63d 0972 563d
000002f0: a088 963e d270 88bd c6bb 33bd b69e a23e
00000300: 6783 323d 0b7e 093e aed3 ea3d 2a2e b9bd
00000310: 13df e6bd 7d6e 77bd 5efe dbbd 44bc 543c
00000320: 5fa9 623d 2eeb 7e3d d942 c3bd 7c6d bf3d
00000330: 8199 80be 4a92 293b 9146 a7bd 6a74 30be
00000340: def7 013d aab7 1f3d 497f bf3d 93d0 18be
00000350: 5b64 323d f21b fcbd 818f b9bd f9d5 94bd
00000360: 7f56 1fbc a28e a73d 3be7 21bc ff45 90bd
00000370: 4f6f c7bc f603 1f3e b1dd 15bd 9101 4bbe
00000380: 1573 483d 94e6 7ebd 14b7 c2bd 7978 18be
00000390: 8443 71bd c7a2 2e3d 18ab 64be 7c6c 0f3d
000003a0: 9653 01be c202 68bd 423d bbbd a9fd b03c
000003b0: e867 42be 6cdf 9b3e 801f 23be 6abb 92bd
000003c0: 3192 a5bd fd06 643d 4a21 4abd 7295 5fbe
000003d0: 2799 2e3e 1c2a d0bd 7618 45bd 6741 40be
000003e0: 1247 5f3d 2b39 123d 7ae0 b53d db3a 00be
000003f0: f497 c03c dc5c 4c3e 0263 403c 73e6 a3bd

onnx::Conv_131 f4 [32]
1.727686 0.13523206 1.290814 0.81956863 1.7259649 -0.44793567 1.0724282 0.22890133
0.7093495 0.3412291 -1.7982363 -0.042237 0.46037495 0.39740032 0.8577745 0.37666622
-0.9940027 0.68363804 0.32030004 0.09213847 -2.0520334 0.25850213 -0.9734051 -0.5173852
1.0479167 -1.1902089 -0.7143719 0.1316165 -0.0527052 -0.5428318 -0.39699605 0.3985716
00000000: d124 dd3f 467a 0a3e 6539 a53f 40cf 513f
00000010: 6bec dc3f d357 e5be 5445 893f 1c65 6a3e
00000020: ee97 353f 95b5 ae3e 9b2c e6bf b400 2dbd
00000030: 44b6 eb3e 0e78 cb3e 1c97 5b3f 65da c03e
00000040: f676 7ebf e702 2f3f 5efe a33e 18b3 bc3d
00000050: 8454 03c0 645a 843e 1431 79bf 5b73 04bf
00000060: 2222 863f c458 98bf 14e1 36bf 7ac6 063e
00000070: 68e1 57bd 06f7 0abf 1143 cbbe 9411 cc3e

onnx::Conv_133 f4 [64, 32, 1, 1]
0.04426216 0.11141414 -0.07737718 0.2858793 -0.32607728 -0.006378283 0.039470058 0.15187232
-0.20320271 -0.15472256 -0.203275 0.25677487 -0.39467654 -0.033298183 0.13852233 0.118565686
0.18701962 0.13058738 -0.118428856 0.13194185 -0.16615778 -0.046386395 -0.0015768778 0.0481283
0.22204587 0.13211575 0.31676468 -0.06563154 -0.22404145 -0.3901501 0.059731077 0.05164985
-0.024857355 -0.023006838 -0.29256457 0.042559054 0.013010736 -0.22568461 -0.09783419 0.15654314
0.23340353 -0.102100395 -0.10755669 -0.05840243 0.2994554 -0.014301127 0.019231392 0.15264076
0.004860695 -0.0971578 0.2163901 0.14070432 0.07185123 0.28709158 -0.44530717 0.06231428
0.12003971 -0.19341367 0.26421246 -0.10971609 -0.4745493 -0.23750566 -0.12326614 0.11658115
-0.077525616 0.24625486 0.053095147 0.13149478 0.1967921 -0.14375015 0.2626496 -0.052604146
0.06880022 0.26361847 -0.18295674 -0.06508138 0.0064849216 -0.24645458 0.12506965 0.20752907
-0.05107184 0.09476919 -0.12830418 0.2799372 -0.019538201 -0.07066446 -0.19109847 -0.11462975
-0.32835272 -0.06872124 -0.057295356 -0.011684016 -0.077019915 0.17156987 0.13621981 0.1858066
0.13876027 0.041516826 -0.1147599 -0.15987135 0.1416998 -0.1018913 -0.2769554 0.12555698
-0.23722458 0.21808024 -0.18516068 -0.10809064 -0.22557004 -0.09927627 -0.08097721 0.10255844
-0.4558071 0.19211875 0.06644906 0.14646587 0.06480799 -0.17399013 -0.34131187 0.10670968
-0.038819138 -0.0043311203 0.18557757 -0.12449906 0.18758215 0.3357618 0.092461996 0.37250087
-0.0933091 -0.3288842 0.1665307 0.023601122 -0.063894674 -0.13773285 0.2673816 -0.07399752
0.3369931 -0.09880434 0.036632877 0.09918913 0.07434697 0.22189817 0.18117753 -0.25276446
0.46975943 -0.11104378 0.41483882 -0.028159963 0.20085475 -0.4570579 -0.14488967 0.17929779
0.08942368 0.23851763 0.3796298 0.30091244 0.06613092 -0.027863553 0.10060901 -0.014587255
0.25840002 -0.13018446 0.10292815 -0.25457084 -0.091949515 0.005371085 0.28298795 0.20256647
0.0129110515 0.053409692 -0.11091942 0.17390619 -0.14957616 0.08953147 0.12239904 0.36562684
0.34367824 0.025951723 0.009304843 0.10478109 0.25518003 0.07385085 0.0611066 -0.1649219
0.037935138 0.11210339 -0.064572304 0.057466097 -0.07405377 -0.058513734 -0.05823177 -0.084113754
0.0016336998 -0.38462815 0.19706053 0.36439818 -0.38007545 0.3893108 0.06441734 -0.023741037
-0.051135067 0.2295232 0.15879226 -0.10011601 0.1616467 -0.39743012 0.27910525 0.04904179
-0.028277447 -0.23864774 -0.35930347 0.34964702 0.04463715 0.13023773 0.07728378 -0.19762738
0.16630183 0.25676697 0.08340331 -0.25810456 0.2312986 0.17699175 0.10761139 0.14570095
-0.019656172 0.11696016 -0.021182358 0.06940105 0.09575589 -0.049175266 -0.30495507 -0.23076954
-0.015156631 0.072902806 -0.2273083 -0.014685086 0.03401259 0.046870243 -0.054828204 0.16703564
-0.055432387 -0.095680095 0.056266133 0.12471673 0.138558 -0.05491304 -0.009464864 0.20191509
-0.059765007 0.27374193 0.20349416 -0.022332152 -0.1398336 -0.030043544 0.30567616 0.0308925
00000000: 3d4c 353d 192d e43d ed77 9ebd c65e 923e
00000010: 9af3 a6be ea00 d1bb 5bab 213d 6b84 1b3e
00000020: 5f14 50be 976f 1ebe 5227 50be ff77 833e
00000030: 0b13 cabe ad63 08bd ccd8 0d3e 91d2 f23d
00000040: 1282 3f3e b3b8 053e d48a f2bd c41b 073e
00000050: 4425 2abe a9ff 3dbd 3daf ceba 2e22 453d
00000060: fe5f 633e 5a49 073e fb2e a23e d469 86bd
00000070: 1f6b 65be c1c1 c7be 93a8 743d cb8e 533d
00000080: a7a1 cbbc d678 bcbc 06cb 95be 6752 2e3d
00000090: fb2a 553c de19 67be 4b5d c8bd d84c 203e
000000a0: 5601 6f3e 031a d1bd af46 dcbd 6337 6fbd
000000b0: 3852 993e 464f 6abc 278b 9d3c dc4d 1c3e
000000c0: 7746 9f3b abfa c6bd 5e95 5d3e cb14 103e
000000d0: bd26 933d abfd 923e 4dff e3be 423d 7f3d
000000e0: 61d7 f53d 3c0e 46be db46 873e d4b2 e0bd
000000f0: 20f8 f2be af34 73be f572 fcbd 19c2 ee3d
00000100: c0c5 9ebd 3c2a 7c3e 4c7a 593d 91a6 063e
00000110: de83 493e 3d33 13be 027a 863e 7277 57bd
00000120: 21e7 8c3d 00f9 863e 0359 3bbe 6349 85bd
00000130: 777f d43b 975e 7cbe 4212 003e 8082 543e
00000140: b530 51bd 5916 c23d 2c62 03be ee53 8f3e
00000150: 940e a0bc 87b8 90bd 51af 43be 01c3 eabd
00000160: d91d a8be b9bd 8cbd 89ae 6abd 516e 3fbc
00000170: 9ebc 9dbd 03b0 2f3e 357d 0b3e 1644 3e3e
00000180: 2c17 0e3e 8c0d 2a3d 3d07 ebbd 51b5 23be
00000190: c119 113e 63ac d0bd 19cd 8dbe 0292 003e
000001a0: 00eb 72be 6d50 5f3e c39a 3dbe a05e ddbd
000001b0: d5fb 66be 5b51 cbbd 61d7 a5bd 290a d23d
000001c0: 8c5f e9be c7ba 443e 7216 883d 26fb 153e
000001d0: 0dba 843d 782a 32be 6ec0 aebe 9b8a da3d
000001e0: d100 1fbd 12ec 8dbb 0c08 3e3e 5df9 febd
000001f0: 8915 403e f8e8 ab3e b75c bd3d 6fb8 be3e
00000200: d718 bfbd 8363 a8be 0687 2a3e 2457 c13c
00000210: 36db 82bd d709 0dbe 3ee6 883e 038c 97bd
00000220: 5c8a ac3e ee59 cabd 5b0c 163d ac23 cb3d
00000230: 3943 983d 4639 633e 9a86 393e 586a 81be
00000240: 4f84 f03e ec6a e3bd c165 d43e b9af e6bc
00000250: deac 4d3e 7e03 eabe f55d 14be d799 373e
00000260: c323 b73d f73d 743e d65e c23e 3211 9a3e
00000270: a66f 873d 1b42 e4bc 190c ce3d 62ff 6ebc
00000280: 024d 843e 134f 05be fecb d23d 1c57 82be
00000290: 0750 bcbd edff af3b cce3 903e 966d 4f3e
000002a0: e088 533c 1fc4 5a3d b929 e3bd 7714 323e
000002b0: 7e2a 19be 465c b73d 59ac fa3d 7133 bb3e
000002c0: 98f6 af3e b598 d43c 5773 183c 7897 d63d
000002d0: f5a6 823e 1d3f 973d ea4a 7a3d 49e1 28be
000002e0: e061 1b3d 7696 e53d 7c3e 84bd 9261 6b3d
000002f0: 81a9 97bd 19ac 6fbd 7084 6ebd d543 acbd
00000300: de21 d63a fbed c4be 3cca 493e 6692 ba3e
00000310: 4099 c2be bf53 c73e 3ded 833d 907c c2bc
00000320: 0173 51bd 2108 6b3e 709a 223e 9f09 cdbd
00000330: b686 253e f67b cbbe e2e6 8e3e 0be0 483d
00000340: 1ba6 e7bc 1360 74be a0f6 b7be ef04 b33e
00000350: 72d5 363d 0a5d 053e f546 9e3d d55e 4abe
00000360: 074b 2a3e f676 833e 5bcf aa3d 4826 84be
00000370: 8ad9 6c3e 533d 353e 5c63 dc3d a132 153e
00000380: fb05 a1bc cf88 ef3d a086 adbc 2322 8e3d
00000390: aa1b c43d 016c 49bd 1223 9cbe da4e 6cbe
000003a0: 8553 78bc 114e 953d 82c3 68be b799 70bc
000003b0: c950 0b3d 03fb 3f3d 8a93 60bd 640b 2b3e
000003c0: 120d 63bd edf3 c3bd 5177 663d 7c6b ff3d
000003d0: 26e2 0d3e 7fec 60bd 8412 1bbc d4c2 4e3e
000003e0: 27cc 74bd e727 8c3e c660 503e ebf1 b6bc
000003f0: 8a30 0fbe e11d f6bc 9681 9c3e 4512 fd3c

onnx::Conv_134 f4 [64]
0.77768743 1.1500975 1.248051 1.9096276 -1.1583344 -1.2683945 0.8924812 1.1447691
1.562617 2.2100692 -0.48356935 0.30825233 -0.10045242 0.66095346 0.5193369 -0.99754477
1.0712967 1.217575 -0.8221814 0.64572346 0.52030617 -0.97199005 -0.6838841 1.1021045
-0.26966417 -0.19130132 -0.03061068 0.8211192 1.1379414 0.68793696 1.6669651 1.0043947
0.9393995 -0.5084194 1.6057348 -0.9111842 0.7648396 -0.19334763 1.5841781 -0.10585281
0.2462807 -1.2703981 -0.94454557 -0.5670053 -1.0464343 0.678754 -0.1603236 0.63649404
1.3207544 -0.32042456 1.1320963 0.809901 1.0570967 0.8303166 -0.2566585 0.38239837
-0.20321184 2.245802 0.88228047 -0.70603395 0.14841932 0.33289188 0.303777 0.27277726
00000000: 8616 473f 6536 933f 23c0 9f3f ad6e f43f
00000010: 4d44 94bf c05a a2bf a679 643f cb87 923f
00000020: d503 c83f c671 0d40 6796 f7be 40d3 9d3e
00000030: 00ba cdbd 3f34 293f 43f3 043f 185f 7fbf
00000040: 4020 893f 7fd9 9b3f 7b7a 52bf 224e 253f
00000050: c932 053f 57d4 78bf 0713 2fbf c311 8d3f
00000060: 6c11 8abe 7ee4 43be 40c3 fabc de34 523f
00000070: 10a8 913f a31c 303f 1d5f d53f 0190 803f
00000080: 7c7c 703f c627 02bf b888 cd3f 5e43 69bf
00000090: 87cc 433f ecfc 45be 59c6 ca3f 5cc9 d8bd
000000a0: 0231 7c3e 689c a2bf bdcd 71bf 4227 11bf
000000b0: 8ff1 85bf d2c2 2d3f df2b 24be 46f1 223f
000000c0: 7b0e a93f b00e a4be 88e8 903f ac55 4f3f
000000d0: f24e 873f a18f 543f be68 83be b8c9 c33e
000000e0: c416 50be 38bb 0f40 22dd 613f a4be 34bf
000000f0: 3cfb 173e ce70 aa3e a988 9b3e 76a9 8b3e

onnx::Conv_136 f4 [64, 1, 1, 1]
-0.6425312 -0.83335984 0.60367405 -0.39857432 -0.6880509 -0.98304373 -0.50690097 -0.6621693
0.80399656 0.7629578 0.6668274 -0.8450077 -0.9209317 -0.7994324 0.56286407 0.61356986
0.6385676 -0.60674363 1.29547 -0.82876855 -0.24764691 -0.50716776 -0.5724435 0.44304422
0.566959 0.62566584 -1.0315297 -1.3849667 -0.6698653 0.67525864 -1.2696004 1.3920503
-0.45385763 0.5876369 0.7826759 0.90792525 -0.83738923 -0.7581961 0.57278365 -0.65052074
-0.7914078 0.34229383 -0.49364305 0.65414107 0.8858114 -0.81611043 -0.801395 0.63058573
0.8116062 -0.007955857 -0.946378 -0.15757748 0.29722166 -0.71785975 -0.50196856 -0.64962673
-0.5149346 0.40894425 0.31707957 -0.84343815 -0.32109055 0.5280762 -0.76570755 -0.7905592
00000000: ed7c 24bf 1257 55bf 628a 1a3f ef11 ccbe
00000010: 1b24 30bf c1a8 7bbf 43c4 01bf ed83 29bf
00000020: b8d2 4d3f 3451 433f 33b5 2a3f 6d52 58bf
00000030: 2ec2 6bbf 9aa7 4cbf dc17 103f ea12 1d3f
00000040: 2b79 233f 8d53 1bbf f6d1 a53f 2d2a 54bf
00000050: 2797 7dbe bfd5 01bf a88b 12bf b1d6 e23e
00000060: 3a24 113f a32b 203f 2a09 84bf 9746 b1bf
00000070: 4b7c 2bbf c0dd 2c3f 4482 a2bf b42e b23f
00000080: 0760 e8be 5f6f 163f 735d 483f ca6d 683f
00000090: 245f 56bf 2419 42bf f3a1 123f 8788 26bf
000000a0: b499 4abf 2341 af3e c8be fcbe ca75 273f
000000b0: 89c4 623f 9dec 50bf 3928 4dbf 116e 213f
000000c0: 6dc5 4f3f 4859 02bc d445 72bf fe5b 21be
000000d0: 702d 983e a8c5 37bf 0381 00bf f04d 26bf
000000e0: c1d2 03bf 2461 d13e 4158 a23e 90eb 57bf
000000f0: fb65 a4be 0030 073f 6905 44bf 1662 4abf

onnx::Conv_137 f4 [64]
0.7469732 1.2637268 -0.9439445 0.36001015 1.4221122 1.0141702 0.82818574 0.62216264
-1.289348 -1.5151545 -0.7753416 1.0425227 1.0572973 1.0941521 -0.9793399 -0.8275789
-0.90043044 1.3483458 -0.9564562 0.65463305 0.67234296 0.49882784 0.5917141 -0.43362576
-0.4508981 -0.72561413 1.3343927 1.9274305 1.3773148 -0.70346993 1.4984523 -1.7110921
1.0279243 -0.8157466 -1.1299716 -1.3324426 0.8668188 0.6322391 -0.2666128 0.9954759
1.3048685 -0.7116481 0.68797255 -0.65404385 -0.95944697 0.65676403 1.2823353 -0.45398238
-1.4242525 -0.12690404 1.4732717 -0.08106892 0.10343042 0.6431165 0.43644267 1.3166647
0.7549135 -0.29939827 -1.0865464 1.1768569 0.42310166 -0.6031511 0.7306077 1.0298177
00000000: a339 3f3f cdc1 a13f 59a6 71bf 4053 b83e
00000010: c607 b63f 54d0 813f fb03 543f 0d46 1f3f
00000020: 5b09 a5bf 95f0 c1bf c97c 46bf 6271 853f
00000030: 8555 873f 2d0d 8c3f 05b6 7abf 36dc 53bf
00000040: 9c82 66bf 9896 ac3f 50da 74bf 0896 273f
00000050: ab1e 2c3f 5d66 ff3e 937a 173f 3204 debe
00000060: 1edc e6be d9c1 39bf 61cd aa3f 0bb6 f63f
00000070: da4b b03f 9b16 34bf 49cd bf3f 1105 dbbf
00000080: 0693 833f c5d4 50bf e9a2 90bf 7b8d aabf
00000090: d6e7 5d3f 6cda 213f 7981 88be 82d7 7e3f
000000a0: ee05 a73f 922e 36bf f81e 303f 6b6f 27bf
000000b0: 519e 75bf b021 283f 9023 a43f 6170 e8be
000000c0: e84d b6bf 22f3 01be 2b94 bc3f 7607 a6bd
000000d0: 54d3 d33d 48a3 243f 6a75 df3e 7888 a83f
000000e0: 0342 413f bb4a 99be f413 8bbf 3fa3 963f
000000f0: c8a0 d83e 1c68 1abf 1b09 3b3f 11d1 833f

onnx::Conv_139 f4 [64, 1, 1, 1]
-0.88221616 -0.79815316 -1.4492822 -0.9396769 -2.067305 -1.7576432 -1.1354902 0.68678725
0.41281915 0.84941274 0.5905451 -1.6229991 -0.87949824 -0.26144838 0.70893586 0.5606551
-1.6555957 -1.1610664 -1.2209995 -1.1786766 -1.328419 -2.070847 0.58625776 -0.80460817
-1.301179 -1.1120124 -1.8406392 -1.7012217 -1.3365477 -1.9685186 -0.025721846 -1.623966
0.5579568 -1.0464071 -0.85892075 0.41889352 -0.06784231 -1.5781099 -1.1976653 -1.3444698
-2.2788723 -1.1351886 -1.2265934 -1.1810992 -1.2665873 0.67847055 0.8475573 0.83024794
-2.016355 -1.4340861 0.95434475 -1.2389266 -0.95161587 -1.4041048 0.6779368 -1.0559336
-1.5951312 0.67413056 -0.85189766 -1.8492135 -2.0366044 0.59079057 0.6639006 -3.9113317
00000000: ebd8 61bf c453 4cbf 1482 b9bf aa8e 70bf
00000010: ba4e 04c0 74fa e0bf be57 91bf 4ad1 2f3f
00000020: 085d d33e 1d73 593f f72d 173f 6fbe cfbf
00000030: cc26 61bf 90dc 85be d27c 353f 1887 0f3f
00000040: 8fea d3bf d39d 94bf b649 9cbf e0de 96bf
00000050: a209 aabf c288 04c0 fd14 163f cdfa 4dbf
00000060: 098d a6bf 6c56 8ebf 119a ebbf a2c1 d9bf
00000070: ff13 abbf 6bf8 fbbf 9fb6 d2bc 1ede cfbf
00000080: 42d6 0e3f abf0 85bf 3be2 5bbf 3679 d63e
00000090: e9f0 8abd 81ff c9bf 194d 99bf 9617 acbf
000000a0: 0bd9 11c0 dc4d 91bf 0301 9dbf 422e 97bf
000000b0: 881f a2bf 3fb0 2d3f 84f9 583f 218b 543f
000000c0: f60b 01c0 2290 b7bf f04f 743f 2695 9ebf
000000d0: 199d 73bf b5b9 b3bf 448d 2d3f d528 87bf
000000e0: 422d ccbf d293 2c3f f715 5abf 07b3 ecbf
000000f0: ba57 02c0 0d3e 173f 64f5 293f 4253 7ac0

onnx::Conv_140 f4 [64]
0.6574905 0.6288487 1.4047005 0.5095403 2.3266358 1.3343583 1.123864 -0.4644115
-0.23512524 -0.5556149 -0.5634934 1.2024012 0.46948555 0.18218924 -0.81807894 -0.7375892
1.2063073 1.1558746 0.82673085 0.6818711 1.2022151 1.1455734 -0.5428668 0.7320966
0.6246975 0.9140389 1.6443696 1.5093877 1.2775271 1.7129028 -0.047341883 1.5019059
-0.39317724 0.63883406 0.6518464 -0.50654745 -0.08246514 1.367372 1.1525213 1.2396684
2.6675174 0.53557867 0.8997298 1.031116 0.88173604 -0.35260078 -0.7674762 -0.9832641
0.92511976 0.74167717 -1.1456056 0.7521933 0.8809818 0.74642915 -0.37309045 0.82992494
0.8046554 -0.6529294 0.6777798 1.1886785 1.6194782 -0.5435294 -0.6012252 3.9724793
00000000: 4c51 283f 3afc 203f 3acd b33f 3c71 023f
00000010: 9ae7 1440 41cc aa3f c7da 8f3f 58c7 edbe
00000020: acc4 70be c73c 0ebf 1a41 10bf 48e8 993f
00000030: 6960 f03e d18f 3a3e 9f6d 51bf a5d2 3cbf
00000040: 4768 9a3f b3f3 933f a2a4 533f 1b8f 2e3f
00000050: 2fe2 993f 26a2 923f 52f9 0abf af6a 3b3f
00000060: 2dec 1f3f 74fe 693f b47a d23f 9e33 c13f
00000070: 0286 a33f 6640 db3f 90e9 41bd 743e c03f
00000080: 874e c9be a18a 233f 68df 263f 18ad 01bf
00000090: 7ce3 a8bd 0c06 af3f d185 933f 74ad 9e3f
000000a0: 9bb8 2a40 af1b 093f b154 663f 9cfb 833f
000000b0: 74b9 613f 1788 b4be 5279 44bf 32b7 7bbf
000000c0: a6d4 6c3f 8ede 3d3f 34a3 92bf bd8f 403f
000000d0: 0688 613f fb15 3f3f b605 bfbe f675 543f
000000e0: e5fd 4d3f 6226 27bf fa82 2d3f 9e26 983f
000000f0: 104b cf3f be24 0bbf e5e9 19bf 1a3d 7e40

onnx::Conv_142 f4 [64, 1, 3, 3]
-0.35188878 -0.14767045 0.33927748 -0.5452754 0.21483518 -0.04679734 -0.4026931 0.18652034
0.14935355 -0.44825318 0.1212222 -0.0026994986 0.4504154 0.5950515 0.037408948 0.21321763
0.039912455 -0.26471603 -0.89183056 -0.8579889 -0.32532063 0.2855342 -0.11193488 0.53984946
1.2790014 -0.41790208 -0.34662703 -0.5950687 0.7779041 0.28778508 -0.34309182 -0.5582565
-0.21747188 0.05320974 -0.03228033 -0.03853498 0.023413287 -0.42354295 0.14853898 0.33088323
0.024937699 0.07660527 0.6648156 0.5690876 0.45049888 -0.98119795 -0.056035828 -0.17067093
-0.99866664 -0.24346542 -0.28868675 -0.655319 -0.5839557 -0.09501578 0.054681253 -0.743902
-0.022036666 0.15253931 0.6018717 0.38031703 0.42330143 0.5685126 -0.5084431 0.08347533
-0.856491 -0.12538639 0.4472347 0.55643284 -0.111590244 -0.038633004 0.07718931 0.3108103
0.3033973 -0.31110737 0.5297316 0.8299704 -0.1895176 1.1188264 -0.42574725 -0.8539439
-0.63543385 0.31753153 0.56907904 0.43156007 -0.021972047 -0.06854077 -0.08872856 -0.34057444
0.26986712 0.6796725 0.034681562 -0.24962485 0.28312334 -0.22310095 0.017649002 0.23916155
0.36829707 0.49659708 -0.07875972 -0.018676704 -0.42720276 0.10536949 1.2814617 0.18763837
-0.6723432 0.89191383 -0.5332081 0.029910965 -0.55016315 -0.21625723 -1.1615789 0.24227366
-0.6573301 0.10571041 -0.32984456 -0.22700194 -1.3785415 0.119104415 0.44545814 -0.42199555
-0.2863524 0.21499 -0.57033247 -0.6695679 0.025957206 -0.11597621 -0.6591937 -0.49257284
-0.1685313 0.013643334 0.38854444 0.07096921 -0.13235438 0.43295905 -0.01107896 0.23339126
0.20918703 -0.020296453 0.04348787 0.21087304 0.9007425 0.67584103 0.14523183 -0.12148695
0.6281558 -0.06429716 -0.29071116 0.25414455 0.15507956 0.59622806 -0.45248365 -0.031164093
-0.22893563 -0.010914134 0.23828727 0.30309495 -0.30447137 0.35403657 0.25440407 0.16013393
0.19234839 0.6611185 0.3626716 0.63216424 0.45810512 -0.46872798 -0.1600919 -0.3708128
0.22957927 -0.7678924 -0.7857635 -0.1717552 -0.71753186 -0.5906623 -0.6360646 0.28443086
-0.26441962 -0.8607861 0.051585812 -0.1273238 -0.425874 -0.5433153 -0.19733195 -0.36161488
0.32720187 0.26178038 0.86760294 0.29851726 0.2521425 0.23040816 -0.6041488 0.6373743
0.23781857 0.08240506 0.8014358 0.5687264 -1.0693655 0.6173889 0.28968838 -0.10295752
-0.3998705 -0.12357517 0.4152723 -0.61208075 -0.11642745 -0.49239144 -0.34400016 -0.0316828
-0.19937557 0.14853102 -0.23961882 -0.13237533 0.42633325 0.17723523 0.5090347 0.15774485
0.31786686 0.06759036 0.36872518 -0.78462183 0.14667866 0.23182045 0.35657573 0.032264408
-0.70543325 0.05825208 0.11248361 -0.61939716 -0.40630472 -0.14053509 -0.4674464 -0.5066476
-0.5417406 -0.06724821 0.10088272 0.35732946 0.4180602 0.31480592 -0.35682973 -0.33355892
0.4434397 -0.16095139 -0.88808554 1.0945998 -0.6601894 -0.5754162 0.035224646 -0.16842435
0.55390525 -0.17621748 -0.36705822 0.02628709 0.26373878 0.22271737 -0.06367906 0.26461467
00000000: c42a b4be ec36 17be c7b5 ad3e 2b97 0bbf
00000010: c1fd 5b3e 91ae 3fbd ca2d cebe 30ff 3e3e
00000020: 23f0 183e 7181 e5be 5843 f83d 12ea 30bb
00000030: d99c e63e 4c55 183f 203a 193d b955 5a3e
00000040: 3e7b 233d dc88 87be 024f 64bf 29a5 5bbf
00000050: 6d90 a6be 8a31 923e 1d3e e5bd 9333 0a3f
00000060: 51b6 a33f 43f7 d5be 1979 b1be 6c56 18bf
00000070: b924 473f 9158 933e bba9 afbe e6e9 0ebf
00000080: f3b0 5ebe 75f2 593d 6138 04bd dbd6 1dbd
00000090: 39cd bf3c 9fda d8be 9a1a 183e 8769 a93e
000000a0: 254a cc3c 39e3 9c3d 5b31 2a3f baaf 113f
000000b0: caa7 e63e ca2f 7bbf d385 65bd 5cc4 2ebe
000000c0: 9ea8 7fbf 004f 79be c0ce 93be fcc2 27bf
000000d0: 1f7e 15bf a297 c2bd 73f9 5f3d 5d70 3ebf
000000e0: 3d86 b4bc 4433 1c3e 4414 1a3f eab8 c23e
000000f0: f7ba d83e 0b8a 113f 5429 02bf 1df5 aa3d
00000100: ff42 5bbf 4a65 00be f2fb e43e 6272 0e3f
00000110: 6d89 e4bd a43d 1ebd 6e15 9e3d 8722 9f3e
00000120: e456 9b3e 7749 9fbe 7d9c 073f f178 543f
00000130: e710 42be b435 8f3f 8bfb d9be 119c 5abf
00000140: cbab 22bf 7e93 a23e 2aaf 113f 71f5 dc3e
00000150: b9fe b3bc 1a5f 8cbd 52b7 b5bd c65f aebe
00000160: 062c 8a3e 04ff 2d3f 410e 0e3d a89d 7fbe
00000170: 8bf5 903e 9374 64be a494 903c c4e6 743e
00000180: 6f91 bc3e f941 fe3e c74c a1bd e3ff 98bc
00000190: 52ba dabe f6cb d73d f006 a43f 4624 403e
000001a0: af1e 2cbf 7754 643f 5380 08bf d707 f53c
000001b0: 7ed7 0cbf 8972 5dbe 9eae 94bf 9616 783e
000001c0: c946 28bf b37e d83d 63e1 a8be 3273 68be
000001d0: 0c74 b0bf 04ed f33d 1713 e43e cd0f d8be
000001e0: c89c 92be 5726 5c3e 4f01 12bf cd68 2bbf
000001f0: 35a4 d43c ef84 edbd ebc0 28bf 8232 fcbe
00000200: 7893 2cbe 4a88 5f3c 4cef c63e 4e58 913d
00000210: e887 07be cfac dd3e 8784 35bc 1efe 6e3e
00000220: 2035 563e bf44 a6bc 5620 323d 1aef 573e
00000230: 0f97 663f eb03 2d3f a7b7 143e 26ce f8bd
00000240: d2ce 203f 3bae 83bd 18d8 94be 3c1f 823e
00000250: 2dcd 1e3e 67a2 183f f0ab e7be d74b ffbc
00000260: 1a6e 6abe 32d1 32bc 9401 743e 432f 9b3e
00000270: ace3 9bbe 4844 b53e 4041 823e 26fa 233e
00000280: faf6 443e 103f 293f 18b0 b93e 84d5 213f
00000290: c18c ea3e 1dfd efbe 22ef 23be 2ddb bdbe
000002a0: d416 6b3e 9994 44bf cc27 49bf 98e0 2fbe
000002b0: 2bb0 37bf a535 17bf 21d5 22bf eca0 913e
000002c0: 0262 87be 7a5c 5cbf a54b 533d 2c61 02be
000002d0: 280c dabe b616 0bbf 6311 4abe 9625 b9be
000002e0: 0187 a73e 1408 863e 3a1b 5e3f 41d7 983e
000002f0: d218 813e 1ef0 6b3e 7fa9 1abf f62a 233f
00000300: b686 733e fcc3 a83d e62a 4d3f 0e98 113f
00000310: f8e0 88bf 330d 1e3f 0952 943e 64db d2bd
00000320: d4bb ccbe fb14 fdbd 929e d43e 53b1 1cbf
00000330: 8471 eebd bb1a fcbe ca20 b0be d3c5 01bd
00000340: 1c29 4cbe 8418 183e a35e 75be 668d 07be
00000350: 5a48 da3e 277d 353e 1950 023f de87 213e
00000360: 72bf a23e d16c 8a3d 8cc9 bc3e fadc 48bf
00000370: ee32 163e 5762 6d3e 1891 b63e af27 043d
00000380: 4697 34bf bc99 6e3d cf5d e63d d090 1ebf
00000390: 2c07 d0be 6ee8 0fbe 2255 efbe a8b3 01bf
000003a0: 83af 0abf 6eb9 89bd 999b ce3d e3f3 b63e
000003b0: fd0b d63e 3e2e a13e 63b2 b6be 3cc8 aabe
000003c0: 870a e33e 71d0 24be 9359 63bf d91b 8c3f
000003d0: 2c02 29bf 7a4e 13bf b847 103d 6f77 2cbe
000003e0: bccc 0d3f 5b72 34be 0eef bbbe 0658 d73c
000003f0: c508 873e 0610 643e 2b6a 82bd 937b 873e

onnx::Conv_143 f4 [64]
0.45126584 -0.8848628 0.8293203 0.3852424 -1.479447 2.094163 -0.4859536 -0.33345836
-0.3446622 -1.0299016 -0.9610987 -0.27800474 2.1352727 0.78614223 0.23662615 -1.7528083
-0.34005362 -1.9427438 0.6405315 1.2329086 -0.61341804 -0.61413866 0.5890217 -0.76002795
0.21010256 1.9139515 0.105388016 0.19877194 -0.7393414 1.5306379 -0.9580662 -0.07685594
-0.12431781 -0.46701872 2.3735745 0.39907116 0.31164202 -0.27978346 0.8983189 1.0986372
-1.7936641 0.2760511 0.3051798 1.5761403 0.5810703 0.9728896 1.2986081 -0.5929524
-0.1285688 -0.39017877 1.1987051 0.7114733 -1.515431 -1.2025161 -0.4314357 0.41230977
0.04905325 -0.8968878 0.035672884 -1.1667898 1.4268408 -0.016858663 -1.4490709 -0.07750896
00000000: 510c e73e 5e86 62bf 564e 543f 7e3e c53e
00000010: 855e bdbf c406 0640 e9ce f8be 0ebb aabe
00000020: 9077 b0be d1d3 83bf 900a 76bf a356 8ebe
00000030: 4fa8 0840 9e40 493f 204e 723e 065c e0bf
00000040: 821b aebe d4ab f8bf dff9 233f f3cf 9d3f
00000050: f708 1dbf 3138 1dbf 20ca 163f 3191 42bf
00000060: 2025 573e 5dfc f43f acd5 d73d df8a 4b3e
00000070: 7a45 3dbf f1eb c33f d443 75bf a666 9dbd
00000080: 569a febd 141d efbe a5e8 1740 0e53 cc3e
00000090: 8b8f 9f3e c73f 8fbe 3af8 653f 25a0 8c3f
000000a0: c996 e5bf 9256 8d3e 8740 9c3e f7be c93f
000000b0: 06c1 143f 4b0f 793f ca38 a63f bacb 17bf
000000c0: 8aa7 03be 83c5 c7be 2b6f 993f 1d23 363f
000000d0: a5f9 c1bf 0cec 99bf 24e5 dcbe 441a d33e
000000e0: 10ec 483d 709a 65bf bb1d 123d 5e59 95bf
000000f0: b8a2 b63f 2e1b 8abc 287b b9bf 05bd 9ebd
