model/2023_2_26_hj_num_2.onnx (onnx, 158742 bytes, 17 tensors)

onnx::Conv_83 f4 [16, 1, 3, 3]
0	0x3e4f58f8	0.20248783
1	0xbe93d253	-0.28871402
2	0x3e246fa2	0.1605821
3	0xbe0b2ce4	-0.13591343
4	0x3e882987	0.26594183
5	0x3f066fa1	0.5251408
6	0x3e62cc22	0.22148183
7	0x3f42277a	0.75841486
8	0x3f891c53	1.0711769
9	0xbfb2971f	-1.3952368
10	0x3ef0f6a7	0.4706318
11	0xbf932386	-1.1495216
12	0xbf9efc84	-1.2420812
13	0x3f283df9	0.6571956
14	0xbeff3734	-0.49846804
15	0x3fb96ec3	1.4486927
16	0x3edb95df	0.4288778
17	0x3e9a5eb5	0.3015038
18	0x3dbf3a96	0.09337346
19	0x3f5fcacf	0.87418836
20	0xbfbfc25a	-1.4981186
21	0x3fb82d10	1.4388752
22	0xbf192c53	-0.5983326
23	0xbe2301b2	-0.15918615
24	0xbfc89047	-1.566903
25	0x3ed0e836	0.40802163
26	0xbf8d0d35	-1.1019655
27	0x3e0ec9d5	0.1394418
28	0x40237c0a	2.5544457
29	0xbe0ab387	-0.13545047
30	0xbfeac7ca	-1.8342221
31	0x4043072b	3.0473125
32	0x3e6cd5c7	0.23128425
33	0xbf25f7d0	-0.64831257
34	0x3f1290fa	0.57252467
35	0xc0181a80	-2.3766174
36	0x3f9a9ed9	1.2079726
37	0xbe852e9a	-0.26012117
38	0xbdfcf74e	-0.12351857
39	0x3ea51de0	0.32249355
40	0x3ece4e14	0.40293944
41	0xbe7b72f6	-0.24555573
42	0x3fc35fee	1.526365
43	0xbf42c28a	-0.76078093
44	0x3f289aee	0.65861404
45	0xbd1b76d6	-0.037955128
46	0xbdabc748	-0.08387619
47	0xbf3a1ac4	-0.7269709
48	0x3f0f0aeb	0.55876034
49	0x3f801ff1	1.0009748
50	0x3cb42029	0.021987991
51	0xbdfbcd16	-0.122949764
52	0xbe63a94c	-0.2223255
53	0x3fb9b009	1.4506847
54	0xbebf73a4	-0.37392914
55	0xbf5e925f	-0.86942095
56	0xbfb36452	-1.401499
57	0xbf0a4134	-0.5400574
58	0x3f1fd058	0.6242728
59	0x3ec4f3f4	0.3846737
60	0xbf76d609	-0.9642034
61	0x3f8eb0c0	1.114769
62	0xbf2fcee4	-0.68675065
63	0x3ec62f5a	0.38708
64	0x3ef7d2a8	0.48402905
65	0xbdda978c	-0.106734365
66	0xbe3a522c	-0.18195409
67	0xbd8e94fe	-0.06962012
68	0x3f1d25aa	0.61385596
69	0x3f14968e	0.5804223
70	0x3f0db3ca	0.5535246
71	0x3ec95ef4	0.39330256
72	0x3f673df6	0.9032892
73	0xbee05d09	-0.4382098
74	0xbf1a9d9b	-0.60396737
75	0x3e82b2fb	0.25527176
76	0xbe205891	-0.15658785
77	0xbf87db41	-1.0613786
78	0xbfa9b518	-1.325839
79	0xbf0dd448	-0.5540204
80	0x3f33c45b	0.7022149
81	0x3d88f491	0.06687272
82	0x3ecc3384	0.39883053
83	0x3e4bd3be	0.19904992
84	0xbf50182c	-0.81286883
85	0x3dcc7de2	0.09984948
86	0xbe4095fb	-0.18807213
87	0xbf302674	-0.68808675
88	0xbf81eac8	-1.0149775
89	0x3ea7687c	0.32696903
90	0xbf80a518	-1.0050383
91	0x3f13bfd1	0.57714564
92	0xbf13bdab	-0.57711285
93	0x3cd13f12	0.02554277
94	0x3e6b9aad	0.23008223
95	0xbe17b4c3	-0.14815049
96	0x3d43c074	0.04779096
97	0x3ef320aa	0.47485858
98	0x3ffd6465	1.9796263
99	0xbe3e3f0c	-0.18578738
100	0x3f791085	0.9729083
101	0x3f109910	0.56483555
102	0x3fa07fd7	1.2539014
103	0x3e9085c1	0.28227046
104	0xbf1d0de9	-0.6134935
105	0x3f04b28b	0.51834935
106	0x3dc57127	0.09640723
107	0xbe77ae86	-0.24187669
108	0xbec54823	-0.38531598
109	0x3ebc56b2	0.36784893
110	0x3efd52c2	0.49477202
111	0x3eef1c91	0.46701482
112	0xbf260629	-0.6485315
113	0xbf3a72a5	-0.72831184
114	0xbef3547c	-0.47525394
115	0xbe99f36d	-0.30068532
116	0xbf2812b5	-0.65653545
117	0x40011c98	2.0173702
118	0xbf370082	-0.7148515
119	0x3fe7fe01	1.8124391
120	0xbfbca119	-1.4736663
121	0x3f72cdb7	0.94845146
122	0xbe49df35	-0.19714053
123	0xc00222e8	-2.0333805
124	0x3f6e5f71	0.9311438
125	0x3f581c6f	0.84418386
126	0x3f081af1	0.5316611
127	0x3f187ee0	0.59568596
128	0x3f8cf461	1.1012079
129	0xbe2d0b3f	-0.16898821
130	0x3f18d430	0.5969877
131	0x3e6f732c	0.23383778
132	0x3f1037b2	0.56334984
133	0xbcc2e1f6	-0.023789387
134	0xbf183995	-0.59462863
135	0x3f82df69	1.0224429
136	0xbfd63a7d	-1.6736599
137	0xc0135e64	-2.3026361
138	0x3f3d4205	0.7392886
139	0x3f7b27e8	0.9810777
140	0xbe0c46e0	-0.13698912
141	0x3f5f8e7c	0.8732679
142	0x3e717d59	0.23582973
143	0x3f083863	0.5321104

onnx::Conv_84 f4 [16]
0	0xbf402080	-0.7504959
1	0x3ee956d1	0.45574048
2	0x3ed69656	0.41911572
3	0xbed9e4de	-0.42557424
4	0xbf3446b6	-0.70420396
5	0xbf29181c	-0.66052413
6	0x3f270405	0.6524051
7	0xbf54ca50	-0.83121204
8	0x3f22005f	0.63281816
9	0x3f21fe57	0.63278717
10	0xbeb7863d	-0.35844603
11	0xbf340020	-0.7031269
12	0x3f28dfc8	0.65966463
13	0xbf15d81a	-0.5853287
14	0xbf329b76	-0.69768465
15	0xbe0344c3	-0.128192

onnx::Conv_86 f4 [16, 1, 3, 3]
0	0x3fb7e329	1.4366199
1	0x3e942035	0.28930822
2	0xbf935b64	-1.1512265
3	0xbf9f790b	-1.2458814
4	0x3e9b54f3	0.3033825
5	0x3dfb29d5	0.12263838
6	0xbf815d01	-1.0106508
7	0xbd9d905b	-0.07693549
8	0xbb712852	-0.0036797714
9	0xbfac17eb	-1.3444799
10	0xbdb06b4e	-0.08614217
11	0xbf2a1866	-0.6644348
12	0xbf1201f1	-0.5703421
13	0x3e190ac3	0.14945512
14	0xbd846747	-0.06465011
15	0xbee2326c	-0.44179094
16	0xbed68d6c	-0.4190477
17	0x3efed6e6	0.4977333
18	0x3f078f02	0.5295259
19	0x3fa601d7	1.2969311
20	0x3f0491a1	0.5178471
21	0xbe272710	-0.16323495
22	0x3f9ba3a1	1.215931
23	0x3fc19c43	1.5125812
24	0xbf1dc38c	-0.61626506
25	0xbf242d94	-0.64132047
26	0x3ebd73ea	0.37002498
27	0xbe62c17c	-0.22144121
28	0x3eaaa586	0.3332941
29	0xbe794a36	-0.24344715
30	0xbe707d35	-0.23485263
31	0x3ed7744e	0.4208092
32	0xbf17e660	-0.593359
33	0x3eae4f44	0.3404485
34	0xbe88d785	-0.26726928
35	0xbeb3d055	-0.35119882
36	0x3e9b49ed	0.30329838
37	0x3eabf4d0	0.33585215
38	0xbe31859c	-0.17336124
39	0x3f3ead2e	0.74483
40	0x3d264999	0.040597532
41	0xbe0bf4a2	-0.13667539
42	0x3f373efa	0.7158047
43	0xbe7df4c9	-0.2480041
44	0xbe6b4385	-0.22974975
45	0xbf5d1d99	-0.8637329
46	0xbf2ef25f	-0.6833858
47	0xbeb5fc35	-0.3554398
48	0xbf0cf16a	-0.5505587
49	0x3f2e5016	0.6809095
50	0x3e98a397	0.2981231
51	0x3e171878	0.14755428
52	0x3f73d6a9	0.9524942
53	0x3f867eb1	1.0507413
54	0x3e46d88c	0.19418544
55	0x3fa9e35b	1.3272508
56	0x3fb1b41a	1.3883088
57	0x3f67a172	0.9048072
58	0x3e5417be	0.20712182
59	0xbe719a83	-0.23594098
60	0xbed649a3	-0.41853055
61	0xc002651c	-2.0374212
62	0x3ee36bdf	0.44418237
63	0xbed67d63	-0.41892537
64	0xbef8ca2b	-0.48591742
65	0xbf0adc66	-0.5424255
66	0xbde47fca	-0.11157186
67	0xbe9a59bd	-0.3014659
68	0xbf12a67c	-0.57285285
69	0x3e0633e0	0.13105726
70	0x3ecd697c	0.4011954
71	0x3ea0ed01	0.3143082
72	0xbf0773dd	-0.5291117
73	0x3f21136a	0.6292025
74	0x3e3d58e1	0.18490936
75	0xbf176dd2	-0.5915195
76	0x3ef238de	0.4730901
77	0x3f439f00	0.7641449
78	0x3fa76042	1.307625
79	0x3eac3aa8	0.336385
80	0xbe8aaa63	-0.2708312
81	0x3f0872bc	0.5330007
82	0xbee773d5	-0.4520556
83	0xbd4181d0	-0.04724294
84	0x3f13817a	0.5761944
85	0xbeff9e4e	-0.49925464
86	0xbf61eac2	-0.88248837
87	0xbf50e610	-0.8160105
88	0xbf4c6be0	-0.79852104
89	0xbe8d396a	-0.27582866
90	0xbec15743	-0.37761888
91	0xbf3c959a	-0.73665774
92	0xbe1c1854	-0.15243655
93	0x3d1538e1	0.036431197
94	0x3e7f9b00	0.24961472
95	0xbf5f06c4	-0.871197
96	0x3e2b1bed	0.16709872
97	0xbcff76d5	-0.031184593
98	0x3dbd1ec5	0.092343844
99	0x3ebefbb5	0.37301412
100	0xbf1fe1cd	-0.6245392
101	0xbceb8a01	-0.028752329
102	0x3d5fce0c	0.05463986
103	0xbe60b939	-0.21945657
104	0x3f5a2cb5	0.8522447
105	0xbfb4f3bc	-1.4136882
106	0xbedab8df	-0.4271917
107	0x3f23c2cc	0.6396911
108	0x3ea743eb	0.32669005
109	0xbe8b618b	-0.27222857
110	0x3fb41e24	1.4071698
111	0xbf9abdee	-1.2089212
112	0x3fa843df	1.3145713
113	0x3ffc67d3	1.9719185
114	0xbf01b0a3	-0.5066015
115	0xbf9f66a2	-1.2453196
116	0xbfb9acab	-1.4505819
117	0xbc8a7b08	-0.016904369
118	0x3f14e2f7	0.5815882
119	0x3f4957dd	0.78649694
120	0xbf1c10d1	-0.6096316
121	0x3ea7cb1f	0.32772157
122	0xbf07d890	-0.53064823
123	0x3db124a7	0.08649569
124	0xbf27e964	-0.655905
125	0xbef4bcd1	-0.47800305
126	0xbdd73e62	-0.105099455
127	0x3f3911fd	0.7229307
128	0x3f12a2d5	0.5727971
129	0x3ef350e6	0.47522658
130	0x3f04d06e	0.5188054
131	0xbeea2ab1	-0.45735696
132	0xbe0bed35	-0.13664706
133	0xbf2c822f	-0.67386144
134	0xbf2cc213	-0.67483634
135	0x3f06c9c6	0.5265163
136	0x3e1d1e28	0.15343535
137	0x3ecb4942	0.3970433
138	0x3e01311c	0.1261639
139	0x3dabe036	0.08392374
140	0x3eebd222	0.46058756
141	0x3d5087f2	0.050910898
142	0x3e7c1638	0.24617851
143	0x3e915070	0.2838168

onnx::Conv_87 f4 [16]
0	0x3f2b13a6	0.66826856
1	0x3f88c980	1.0686493
2	0xbf8383e3	-1.0274624
3	0x3e02eb78	0.12785137
4	0xbef90a6e	-0.4864077
5	0xbe7d4ae0	-0.24735594
6	0xbf291d4a	-0.66060317
7	0x3f221dda	0.633268
8	0xbf81c9e3	-1.0139736
9	0x3f65137d	0.8948286
10	0x3f140cd7	0.5783209
11	0x3e9f0561	0.3105879
12	0xbeac8c46	-0.3370077
13	0x3e70d297	0.23517834
14	0xbdb8cd82	-0.090235725
15	0xbf2c7738	-0.67369413

onnx::Conv_89 f4 [32, 16, 3, 3]
0	0x3da06eae	0.078336105
1	0x3dc82e49	0.09774453
2	0xbc14b9ab	-0.00907747
3	0xbc7be0c5	-0.015373413
4	0xbbc6c92b	-0.0060664616
5	0xbd97f8e0	-0.07420516
6	0x3d44d4c0	0.048054457
7	0x3da81c05	0.08208469
8	0xbdd55c96	-0.1041805
9	0xbd53c8a7	-0.05170503
10	0x3d6fc2a5	0.058535237
11	0x3d635b7c	0.05550717
12	0x3debe5ec	0.115184635
13	0x3d49a5c4	0.049230352
14	0x3d14792a	0.036248364
15	0x3d5920f1	0.05300993
16	0x3d31455f	0.043279048
17	0xbc3cf584	-0.011533145
18	0xbd8b23cb	-0.06793936
19	0x3b2c67cb	0.0026306983
20	0xbda4bfbb	-0.08044382
21	0x3bb400da	0.0054932656
22	0xbd381c8d	-0.044949103
23	0x3cbdd951	0.023174914
24	0x3bc54ca9	0.0060211015
25	0x3c78290d	0.015146506
26	0xbc90e7a6	-0.017688584
27	0xbda43f58	-0.08019894
28	0xbc259b7d	-0.010107872
29	0xbb535f82	-0.0032252972
30	0xbd425a07	-0.047449138
31	0xbc0f43fe	-0.008744238
32	0x3ca47e76	0.020079833
33	0xbd9f8dbd	-0.07790706
34	0x3d35a2e1	0.044344787
35	0x3d1d2bc4	0.038371816
36	0xbcb70ae3	-0.022344058
37	0x3d82d81e	0.06388877
38	0x3c074d0d	0.008258116
39	0x3d5f6bee	0.05454629
40	0x3d851cd1	0.06499637
41	0xbc825f90	-0.015914708
42	0x3da49295	0.08035771
43	0xbb875c4d	-0.004130876
44	0x3cf64994	0.030064382
45	0xbd6061e3	-0.054780852
46	0xbdcd1ada	-0.10014887
47	0xbd0b5184	-0.034013286
48	0xbd94e5dc	-0.07270405
49	0xbd3845c6	-0.044988416
50	0x3d0c1bbc	0.034206137
51	0xbd87a615	-0.066234745
52	0x3d4dab15	0.050211985
53	0x3d6a69cd	0.057229806
54	0xbda48938	-0.08033985
55	0xbcc540e4	-0.024078794
56	0xb9b480d9	-0.00034428274
57	0xbda280a2	-0.07934691
58	0x3da9bffe	0.08288573
59	0x3c93476d	0.017978394
60	0x3c87202b	0.016494831
61	0x3d98da54	0.07463518
62	0xbce52a15	-0.027974168
63	0xbdce8622	-0.100841776
64	0xbe015b7e	-0.12632558
65	0xbd2d1b32	-0.042262264
66	0xbdae8883	-0.08522131
67	0xbd49e119	-0.049286935
68	0x3ca0d430	0.019632429
69	0x3a0b21d0	0.00053074677
70	0x3bf57666	0.007490921
71	0xbd2362ff	-0.039889332
72	0x3c06a765	0.008218621
73	0x3d2af3b9	0.04173634
74	0x3c78c0b4	0.015182663
75	0x3bf4f32c	0.0074752774
76	0x3bfd1d7d	0.0077244625
77	0xbd7f258d	-0.06229167
78	0xbc0b36e8	-0.008496977
79	0x3d35d36c	0.04439108
80	0x3c69fac0	0.014280975
81	0xbc8f21d9	-0.017472195
82	0xbc8640ec	-0.016388379
83	0x3cb9c232	0.022675607
84	0xbc4c94aa	-0.012486616
85	0x3d050fcc	0.03248577
86	0xbc846f7f	-0.016166447
87	0xbd427b68	-0.04748097
88	0xbd5e3a08	-0.05425456
89	0xbd43a571	-0.0477652
90	0xbde72c95	-0.112878
91	0x3b36ffb8	0.0027923416
92	0xbb152273	-0.002275613
93	0xbd164cb6	-0.03669425
94	0x3cb1b7b9	0.021694051
95	0xbd00f268	-0.031481177
96	0x3d1ab29f	0.037768003
97	0x3cf82a4b	0.030293604
98	0xbb3e8823	-0.0029072843
99	0x3e0ae775	0.13564856
100	0xbb3b1d63	-0.0028551451
101	0xbcbc8642	-0.023013238
102	0xbd8c6fb2	-0.06857242
103	0x3b531299	0.003220713
104	0x3dc3a3e8	0.09552747
105	0xbd3f7355	-0.04674085
106	0x3d6965dc	0.056981906
107	0x3d321b5a	0.043483116
108	0xbd704c22	-0.058666356
109	0xbde2531b	-0.11051007
110	0xbdac2e14	-0.08407226
111	0x3c67b1ba	0.014141494
112	0xbc1964d3	-0.009362417
113	0xbd6f00c5	-0.058350343
114	0x3cddf195	0.027092734
115	0x3b61fb98	0.0034482237
116	0xbc9b01fe	-0.018921848
117	0x3c510a5d	0.012758818
118	0x3cb3fe36	0.021971803
119	0xbd0eda99	-0.03487644
120	0x3bfc2651	0.0076949974
121	0xbd866d09	-0.065637656
122	0xbda17da4	-0.07885292
123	0x3daf1939	0.08549733
124	0x3c937d75	0.018004159
125	0xbc854274	-0.016267039
126	0x3e0eb073	0.13934498
127	0x3e2240e9	0.15845074
128	0x3d07333a	0.033007838
129	0x3e1283f7	0.14308153
130	0xbada0485	-0.0016633427
131	0xbd2865b7	-0.041112628
132	0x3dd3de6a	0.103451565
133	0x3c81c7eb	0.015842399
134	0xbda603d5	-0.081062
135	0xbe036a19	-0.12833442
136	0xbe355e5b	-0.17711775
137	0xbdcd3538	-0.10019916
138	0xbd3b80c7	-0.04577711
139	0xbd465529	-0.04842106
140	0x3d1511b7	0.036393847
141	0xb9a37484	-0.00031176594
142	0xbd649605	-0.055807132
143	0x3ce4d3b8	0.027932987
144	0xbd455438	-0.04817602
145	0xbb634fa7	-0.0034684928
146	0xbccb5dec	-0.024825059
147	0xbbe1a931	-0.0068866243
148	0x3c7528f1	0.0149633745
149	0x3cd987eb	0.026554069
150	0x3d869e68	0.06573182
151	0x3d16632b	0.036715668
152	0x3d6b763d	0.057485808
153	0xbd24dd38	-0.040250033
154	0xbdea5af4	-0.11443129
155	0xbdfde7bb	-0.12397715
156	0x3c8ac0d0	0.016937643
157	0xbcc97a64	-0.024594493
158	0x3d1bdf19	0.03805456
159	0xbbc55501	-0.006022096
160	0xbc4bd0bd	-0.012439904
161	0x3d7de9c7	0.061990526
162	0xbca23fc8	-0.019805804
163	0xbd07aa75	-0.033121545
164	0xbcf07f24	-0.0293575
165	0xbd6b3f61	-0.05743349
166	0xbd4abdd1	-0.04949743
167	0xbd1b39ac	-0.037896797
168	0xbd5117fa	-0.051048256
169	0x3b9a0152	0.0046998644
170	0x3bc29472	0.005938106
171	0x3d8486f8	0.06471056
172	0x3ca33d59	0.019926714
173	0x3a52c73e	0.00080405537
174	0x3a472f31	0.00075982796
175	0x3c1d6eed	0.009608966
176	0x3d39bd1f	0.045346376
177	0xbc375832	-0.011190461
178	0xbc5e9712	-0.013585823
179	0x39fe6257	0.00048519924
180	0x3c8387f0	0.016056031
181	0xbcb0afda	-0.021568228
182	0x3cdfe48e	0.027330663
183	0xba958bd4	-0.001140947
184	0x3caff1f8	0.021477684
185	0x3d1f147b	0.03883789
186	0x3cb03606	0.021510135
187	0x3c16219a	0.009163285
188	0xbcba1e37	-0.022719486
189	0x3ca63f86	0.020293962
190	0x3b8c4d08	0.004281644
191	0x3c9de657	0.019274874
192	0x3b816260	0.003948495
193	0xbd6ef46f	-0.05833858
194	0xbd0fd6e4	-0.035117045
195	0xbd372d64	-0.044721022
196	0xbc2ee74d	-0.010675264
197	0x3ca58559	0.020205187
198	0x3ced3389	0.028955238
199	0x3d7fd008	0.062454253
200	0x3d664497	0.056217756
201	0xbd0145c0	-0.03156066
202	0xbcfa9892	-0.03059033
203	0x3d024b99	0.031810377
204	0x3bc4b15e	0.006002589
205	0xbdcfa624	-0.10139111
206	0xbc927291	-0.017876895
207	0x3e065c70	0.131212
208	0x3dd84ea0	0.105618715
209	0x3d2b23b0	0.04178208
210	0x3b02df56	0.0019969544
211	0x3b0f3bc2	0.0021855687
212	0xbbf2fb10	-0.007415183
213	0xbd28e617	-0.041235056
214	0xbc3a222c	-0.011360686
215	0x37504b36	1.24152775e-05
216	0xbd7b370f	-0.061331805
217	0xbcdd1fc4	-0.026992686
218	0xbc4f048b	-0.0126353605
219	0xbc6cfb13	-0.014464158
220	0xbd9ca8ca	-0.076493815
221	0xbd807ec6	-0.0627418
222	0xbcb92447	-0.022600306
223	0xbcf74f90	-0.030189306
224	0xbd428d0f	-0.047497805
225	0x3a92f1e9	0.0011211011
226	0x3d01e5e5	0.031713385
227	0x3cf9101c	0.03040319
228	0x3b922b74	0.0044607464
229	0x3c89d20d	0.016823793
230	0x3bc835a5	0.0061099106
231	0x3cbe0561	0.023195924
232	0x3cec5eb7	0.028853757
233	0xbb9a2bea	-0.004704942
234	0xbcb1e8b9	-0.021717416
235	0x3be9329f	0.00711663
236	0xbcb998bf	-0.022655843
237	0xbda2726d	-0.07931981
238	0xbd04f9fe	-0.032464974
239	0xbc18df81	-0.009330631
240	0xbd18785c	-0.03722416
241	0x3c399bee	0.01132868
242	0x3d91f7b0	0.07127321
243	0x3b77e130	0.0037823431
244	0x3d521963	0.051293742
245	0x3d5ebb0b	0.054377597
246	0xbbddbec0	-0.006767124
247	0xbac33fc7	-0.0014896326
248	0xbc9551a9	-0.018227415
249	0xbd41e928	-0.047341496
250	0xbd5a1f19	-0.053252313
251	0xbd860d8c	-0.065455526
252	0x3d2340dc	0.039856777
253	0x3ccbdcc8	0.02488555
254	0xbd188dc3	-0.03724457
255	0xbcffa0ef	-0.031204669

onnx::Conv_90 f4 [32]
0	0xbdac19a6	-0.084033296
1	0x3c7d2080	0.015449643
2	0x3eecaafa	0.46224195
3	0xbe45a10a	-0.19299713
4	0x3f67a919	0.904924
5	0xbf5f068a	-0.8711935
6	0xbe5db9ec	-0.21652955
7	0xbe2a0776	-0.16604409
8	0xbef40b6c	-0.47664964
9	0xbe0be753	-0.13662462
10	0xbf55bfb3	-0.83495635
11	0x3d8e8bcc	0.06960258
12	0x3d1a3264	0.037645712
13	0xbecb5824	-0.39715683
14	0xbf6f1dce	-0.93404853
15	0x3ee65776	0.44988602
16	0xbfac41dd	-1.34576
17	0x3e947906	0.28998584
18	0xbf524dcf	-0.82149976
19	0xbf4a5fc2	-0.79052365
20	0x3f6f5946	0.93495595
21	0xbeaac384	-0.33352292
22	0xbfe2b280	-1.7710724
23	0xbeca6a04	-0.39534009
24	0xbe6bf59c	-0.23042911
25	0xbdc25a1e	-0.09489845
26	0xbad2e700	-0.0016090572
27	0x3f77bfaf	0.9677686
28	0x3eb18da1	0.34678367
29	0x3daad77c	0.08341882
30	0x3f2af1ce	0.66775215
31	0x3e13f89a	0.14450303

onnx::Conv_92 f4 [32, 1, 3, 3]
0	0x3f993796	1.1970088
1	0x3eb3e589	0.3513606
2	0xbf51d0ae	-0.81959045
3	0x3eb748d2	0.35797745
4	0xbf79009f	-0.9726657
5	0x3ebca474	0.36844218
6	0xbf5ecf3b	-0.8703496
7	0xbf5e079d	-0.86730367
8	0x3efc2939	0.492502
9	0x3ff87b17	1.9412564
10	0x3f5e4d51	0.86836725
11	0xbf4813af	-0.78155035
12	0xbfc5c4c4	-1.5450673
13	0x3f18c112	0.596696
14	0xbf74dcad	-0.95649225
15	0x3f5ddec2	0.86668026
16	0x3eb4de3f	0.3532581
17	0x3f34365c	0.70395446
18	0x3fa4efad	1.2885643
19	0x3fb2c4b7	1.3966283
20	0xbfbf4720	-1.4943581
21	0xbfb1d361	-1.3892633
22	0xbf5650ba	-0.8371693
23	0x3f9a8343	1.2071308
24	0xbdeb8020	-0.11499047
25	0x3f66090b	0.8985755
26	0x3ee65b68	0.44991612
27	0x3f8b313c	1.08744
28	0x3f2e810e	0.6816567
29	0x3e532157	0.20618187
30	0xbe15d263	-0.14631037
31	0x3db76bca	0.08956106
32	0x3f1a08e7	0.60169834
33	0xbeb673a3	-0.356351
34	0xbf09f646	-0.5389141
35	0xbe09a3c0	-0.13441372
36	0x3da182e8	0.078862965
37	0x3f027aae	0.50968444
38	0xbf84828a	-1.0352337
39	0xbf108d53	-0.56465644
40	0xbe732d21	-0.23747684
41	0xbf3a7b9a	-0.7284485
42	0xbfa9d48c	-1.3267989
43	0xbf1198c3	-0.5687372
44	0xbeef8e5f	-0.46788308
45	0xbf38e660	-0.72226524
46	0x3f285ca9	0.6576639
47	0x3f8247b4	1.0178132
48	0xbef2a9a3	-0.47395048
49	0x3e8e602f	0.27807757
50	0xbf655045	-0.89575607
51	0x3f99a83e	1.2004468
52	0x3f0aa47b	0.5415723
53	0x3c9861b6	0.01860128
54	0x3d275e18	0.04086122
55	0x3f4b49de	0.7940959
56	0x3ed050a1	0.40686515
57	0xbe8ac1f9	-0.27101114
58	0xbe87ef55	-0.26549783
59	0x3cc895ed	0.024485553
60	0xbf20d612	-0.62826645
61	0xbf1d1b67	-0.6136994
62	0xbce6ade0	-0.028159082
63	0x3e555bce	0.20835802
64	0xbf5e0e36	-0.86740434
65	0x3efe43f8	0.4966123
66	0x3f5b15e6	0.8558029
67	0x3f43f77d	0.7654951
68	0x3fc09849	1.5046474
69	0x3f970da8	1.1801043
70	0xbef20274	-0.47267497
71	0xbf3d4ad0	-0.7394228
72	0x3e67d256	0.2263883
73	0xbecb76a2	-0.39738947
74	0xbec4232a	-0.38308078
75	0x3f3c59a1	0.7357426
76	0x3e9164a4	0.28397095
77	0x3f03c8c0	0.51478195
78	0x3da45168	0.080233395
79	0x3f0fa455	0.56110126
80	0x3eeccc4f	0.46249625
81	0x3d02e708	0.03195861
82	0xbf7a5d82	-0.9779893
83	0x3fa3dd20	1.2801857
84	0xbf782fbe	-0.9694785
85	0xbfbadb68	-1.4598207
86	0xbdcd7c13	-0.10033431
87	0x3f1167ae	0.5679883
88	0xbf286e25	-0.6579307
89	0xbf3ffc32	-0.74994195
90	0xbede4dc7	-0.43418714
91	0xbf65326d	-0.8953007
92	0x3fb19803	1.3874515
93	0xbdb888ce	-0.090104684
94	0x3e23d3b3	0.15998726
95	0xbf413ace	-0.75480354
96	0xbfbd6a42	-1.4798052
97	0xbff3419f	-1.9004401
98	0x3feb4b9b	1.8382448
99	0xbef866fe	-0.48516077
100	0xbfae1812	-1.3601096
101	0x3e78aa31	0.24283673
102	0x3f737058	0.950933
103	0xbf218033	-0.6308624
104	0xbf7a4097	-0.97754806
105	0x3ee105f2	0.43949848
106	0x3e76d122	0.24103215
107	0xbf5f657b	-0.8726422
108	0x3f10a32d	0.56498986
109	0x3fa33f7c	1.2753749
110	0x3fa7b68d	1.3102585
111	0xbe852193	-0.26002178
112	0xbf523670	-0.82114315
113	0xbeaa311b	-0.3324059
114	0x3f01bc71	0.50678164
115	0x3dd0e465	0.10199813
116	0x3ed0e0ae	0.40796417
117	0x3f4fb80e	0.8114022
118	0x3fa5582a	1.291753
119	0x3e292a4b	0.1652004
120	0xbf2bcd89	-0.67110497
121	0x3dd50497	0.10401266
122	0x3f1ef9ec	0.621001
123	0x3e3561b6	0.17713055
124	0x3f51e38a	0.8198782
125	0x3f908f04	1.1293645
126	0x3fa667f6	1.3000476
127	0x3efddbd0	0.49581766
128	0x3f2a61cb	0.6655547
129	0x3e95ef83	0.29284295
130	0xbe1e1b58	-0.15440118
131	0x3f415314	0.7551739
132	0x3f2ffdb8	0.6874652
133	0xbc8b37d3	-0.016994392
134	0xbf7800a2	-0.96875966
135	0xbfdb0c5d	-1.7113148
136	0xbd7e43e8	-0.06207648
137	0xbf8f9539	-1.1217414
138	0xbe3079c6	-0.17233953
139	0xbf6fec09	-0.93719536
140	0x3d801296	0.06253545
141	0xbfa1e862	-1.2649043
142	0x3c0c9503	0.008580449
143	0xbf9ea8c1	-1.239525
144	0x3f6a4281	0.91507727
145	0xbf3d9bdf	-0.74065965
146	0x3ea7128c	0.32631338
147	0x3fa08812	1.2541525
148	0xbf7e5d01	-0.9936066
149	0x3f710dad	0.9416149
150	0x3f6e088d	0.929818
151	0xbefa1123	-0.488412
152	0xbf2c72fb	-0.67362946
153	0xbf66444c	-0.8994796
154	0x3f9e2bfd	1.2357174
155	0x3e3faeed	0.18719073
156	0x3ff6bb60	1.9275932
157	0xbf47a062	-0.779791
158	0x3fa11141	1.258339
159	0x3f989088	1.1919107
160	0xbfb776a6	-1.4333084
161	0xbec5ee4c	-0.3865837
162	0x3f0b92c9	0.5452085
163	0xbedb6919	-0.4285362
164	0xbe1a9af5	-0.15098174
165	0x3efec40e	0.49758953
166	0x3eec2581	0.46122363
167	0x3f1d8292	0.6152736
168	0x3f442d86	0.76631963
169	0x3f3a4d3b	0.72774094
170	0x3ccce9c0	0.025013804
171	0x3e868f1e	0.26281065
172	0xbf6babb1	-0.92058855
173	0x3f0df203	0.55447406
174	0x3ebb8c30	0.36630392
175	0xbf6bc38b	-0.9209525
176	0x3f71f76f	0.9451818
177	0x3e9e6cd4	0.30942404
178	0x3fc68fbc	1.5512614
179	0x3f0313c6	0.51202047
180	0xbf48d006	-0.7844242
181	0xbfaf8ded	-1.3715187
182	0xbe275008	-0.16339123
183	0x3f3e5717	0.7435164
184	0x3dd4bbe5	0.103874005
185	0x3f34ac27	0.70575184
186	0x3ff0e2ff	1.8819274
187	0x3c506088	0.012718327
188	0x3eaa9fd4	0.33325064
189	0x3da56a68	0.08076936
190	0x3fce2e73	1.6107925
191	0x3f934aa0	1.1507149
192	0x3ea96920	0.33088017
193	0x3e3a1f54	0.18176013
194	0xbe26c2fb	-0.16285317
195	0x3ec0fe4b	0.3769401
196	0xbf76bef2	-0.9638511
197	0xbda51bc4	-0.080619365
198	0xbce6db8c	-0.02818086
199	0xbc03d7ee	-0.008047087
200	0xbe8ccec0	-0.27501488
201	0xbe98b158	-0.29822803
202	0xbd502ee9	-0.050825987
203	0xbe512423	-0.20423941
204	0xbeafe27a	-0.34352475
205	0xbefa06b3	-0.48833236
206	0xbec0ce90	-0.37657595
207	0xbee6b426	-0.45059317
208	0x3f88863e	1.0665967
209	0xc002e70b	-2.0453517
210	0x3f67d319	0.90556484
211	0x3f163446	0.5867351
212	0xbeedf494	-0.4647566
213	0xbeaa773b	-0.3329409
214	0x3b037ce2	0.002006345
215	0x3fb9bef2	1.4511397
216	0xbe97ee64	-0.29674065
217	0xbf66963c	-0.9007299
218	0xbf8e528a	-1.1118939
219	0xbf243988	-0.64150286
220	0x3ef7d770	0.48406553
221	0xbc9c6f38	-0.019096002
222	0x3f16246d	0.5864933
223	0x3f79d1bd	0.9758566
224	0x3fd81097	1.6880063
225	0xbf09ea75	-0.5387338
226	0x3dec59f0	0.11540592
227	0x3f7df878	0.9920726
228	0xbf8a8caf	-1.0824183
229	0xbee72ed6	-0.4515292
230	0x3f26c6c8	0.65147066
231	0x3ee2bc6f	0.44284388
232	0x3e9574ef	0.29190776
233	0x3f068fc9	0.5256315
234	0xbf5349b8	-0.8253436
235	0xbf61979c	-0.8812196
236	0x3f8f9682	1.1217806
237	0x3f04cdb9	0.5187641
238	0x3f28b28a	0.6589743
239	0x3f9a4d13	1.2054771
240	0x3db479af	0.08812272
241	0xbeadd218	-0.3394935
242	0x3f0b13d7	0.5432715
243	0xbf8d5687	-1.1042031
244	0xbdff6c1f	-0.12471794
245	0x3f40bc9c	0.75287795
246	0xbf2cd66b	-0.67514676
247	0xbf7c0bd1	-0.9845553
248	0xbe8d1c49	-0.27560642
249	0x3f114a6a	0.5675417
250	0xbf673492	-0.9031459
251	0x3f8b5f46	1.088845
252	0xbfa4e66a	-1.2882817
253	0x3f74d611	0.9563914
254	0x3f8cc8f3	1.0998825
255	0xbfebfafb	-1.8435968

onnx::Conv_93 f4 [32]
0	0x3d7a2b62	0.06107653
1	0xbeaef0de	-0.34168142
2	0xbe2b04f1	-0.16701104
3	0xbe2be5be	-0.16786858
4	0x3f76973d	0.9632452
5	0xbec47b28	-0.3837521
6	0xbdca91d9	-0.098910995
7	0xbf35e150	-0.71046925
8	0xbec17a85	-0.37788787
9	0x3eb0d402	0.3453675
10	0x3e40dc18	0.18833959
11	0x3ea8c32f	0.32961413
12	0xbf08fa4e	-0.53506935
13	0xbf239b12	-0.63908494
14	0xbf0d423a	-0.5517918
15	0x3f56421c	0.83694625
16	0xbea03f01	-0.31298068
17	0xbedd9ab6	-0.43282098
18	0xbf274ad2	-0.6534854
19	0xbef3a0aa	-0.47583514
20	0xbe9b8cbd	-0.30380812
21	0xbeec5d35	-0.4616486
22	0x3e8dd58c	0.27701986
23	0xbe8b93a8	-0.2726109
24	0xbde169ac	-0.110064834
25	0xbe9e3560	-0.30900097
26	0xbecea36a	-0.4035905
27	0x3e3f98f0	0.18710685
28	0xbeda479f	-0.42632768
29	0xbea3a3d5	-0.3196093
30	0xbef52ff6	-0.47888154
31	0xbe5db438	-0.21650779

onnx::Conv_95 f4 [64, 32, 3, 3]
0	0x3b8e9dcb	0.0043523065
1	0x3cc7f067	0.024406625
2	0x3c144f9a	0.009052182
3	0x3c8560e0	0.016281545
4	0x3c8c7dda	0.017149854
5	0x3c054424	0.008133922
6	0x3ced1644	0.028941281
7	0x3cb01108	0.021492496
8	0x3c8d1e65	0.017226407
9	0x3ad20a9c	0.001602489
10	0xbc0858ef	-0.008321985
11	0xbc2d6e19	-0.010585331
12	0x3c6729ac	0.014109056
13	0xbacc4229	-0.0015583682
14	0x3a2a9de1	0.0006508511
15	0xbaec87b2	-0.0018045811
16	0xbb8073c6	-0.0039200513
17	0xbc30dc8e	-0.010794772
18	0x3b9bd978	0.004756149
19	0xbc61d57c	-0.013783809
20	0xbcced340	-0.025247216
21	0x3a50f56c	0.0007971141
22	0xbc9f4e30	-0.019446462
23	0xbcb906ca	-0.022586245
24	0xbc1f1c28	-0.009711303
25	0xbcc9b541	-0.024622561
26	0xbd08fe85	-0.033445854
27	0xbc567c69	-0.013091185
28	0xbbcf7787	-0.0063313874
29	0xbbacc53a	-0.0052725347
30	0xbc9d073c	-0.019168489
31	0xbc7cc253	-0.01542719
32	0xbcc452e5	-0.023965308
33	0xbc8c11e6	-0.017098378
34	0xbc9c04e1	-0.019045295
35	0xbbebb010	-0.007192619
36	0xbb9c5a92	-0.004771539
37	0x3bf00948	0.007325325
38	0xbc5a9ff9	-0.0133438045
39	0xbbfffda0	-0.007812217
40	0x3b9d7186	0.004804793
41	0xbb206aaf	-0.002447765
42	0x3b1e89fa	0.0024191127
43	0x3bced943	0.0063125207
44	0xbbc90214	-0.006134281
45	0xbacac4c7	-0.0015470021
46	0xbc6fb4a2	-0.014630469
47	0xbcc2bded	-0.023772204
48	0xbc15910a	-0.009128818
49	0xbc659091	-0.014011518
50	0xbc3d2d97	-0.011546514
51	0xb8d9580a	-0.00010363765
52	0xbbaa61df	-0.0051996554
53	0xbb26168d	-0.002534303
54	0xbcc7b848	-0.024379864
55	0xbc8645c3	-0.016390687
56	0xbc77a597	-0.015115163
57	0xbca0c923	-0.01962716
58	0xbc5a512f	-0.01332502
59	0xbbad2276	-0.005283649
60	0xbc623dbe	-0.013808666
61	0xbc3d08dc	-0.011537757
62	0x3acaa6c8	0.0015461082
63	0xbb8412dc	-0.0040305685
64	0x3a68904a	0.00088715984
65	0xbc47131a	-0.01215055
66	0x3cc14fc7	0.023597611
67	0x3c7b082b	0.015321772
68	0xba574f48	-0.0008213413
69	0x3c799287	0.015232689
70	0x3a93855a	0.0011254952
71	0xbc9a3228	-0.018822744
72	0xbc0443d2	-0.00807281
73	0xbbf54852	-0.007485428
74	0xbc8ab8ca	-0.016933817
75	0xbbc5e328	-0.006039042
76	0xb9c001fb	-0.0003662257
77	0xbc914420	-0.01773268
78	0xbbaf948b	-0.005358284
79	0xbbd51ad9	-0.0065034446
80	0x3b478b40	0.003044799
81	0x39cc2998	0.00038940902
82	0xbc10aba6	-0.008829987
83	0xbbc6ff20	-0.0060728937
84	0x3b3aaf5a	0.0028485865
85	0xbc41fb3a	-0.011839682
86	0xbb92d5c0	-0.0044810474
87	0xbcaab321	-0.020837368
88	0x3aec78ed	0.001804141
89	0xba8805dc	-0.0010377723
90	0xbc58cb0a	-0.013232002
91	0x3b96c8ed	0.004601589
92	0x3b9b47bc	0.004738776
93	0xbc84f46e	-0.016229834
94	0x3b35a54c	0.0027716933
95	0x3c9012b8	0.01758705
96	0xbbd494b9	-0.0064874557
97	0x3a473501	0.0007599146
98	0x3c0ceec0	0.008601844
99	0x3c100fb8	0.00879281
100	0x3c6a4f97	0.014301202
101	0x3c992171	0.018692704
102	0x3b773414	0.003772025
103	0x3bb0f939	0.0054008034
104	0x3c27f46e	0.010251148
105	0xbbe41d72	-0.006961518
106	0x3b9a3373	0.0047058403
107	0x3c9d01d2	0.019165907
108	0xbb6a66a8	-0.0035766754
109	0xbc048a88	-0.008089669
110	0xbc629ce1	-0.013831348
111	0x3c6bda07	0.0143952435
112	0x3b8b4ca3	0.004251079
113	0xbc22955a	-0.0099233035
114	0x3c019f09	0.007911452
115	0xbb15fc21	-0.0022885876
116	0xbc2567f1	-0.010095582
117	0x3c42a38d	0.011879814
118	0x3c80222b	0.015641293
119	0xbc036e90	-0.008021966
120	0x3c2cc8de	0.010545937
121	0xbbd14573	-0.006386453
122	0xbc9dc4cf	-0.019258885
123	0xbb1ef307	-0.0024253742
124	0xbc660825	-0.014040028
125	0xbc6fca58	-0.014635645
126	0xbc0a2c17	-0.008433363
127	0xbc57cf82	-0.013172032
128	0xbbb9a5e4	-0.0056655277
129	0xbca93c0e	-0.02065852
130	0xbcb568da	-0.022144724
131	0xbc052213	-0.0081258
132	0xbc89f7f5	-0.016841868
133	0xbcbcab70	-0.023030967
134	0x3b92b20c	0.0044767912
135	0x3c102def	0.008800014
136	0x3bd3c4b7	0.006462659
137	0x3c6d0822	0.014467271
138	0x3b92bc8c	0.004478043
139	0x3bf8d13c	0.007593302
140	0x3bcd46aa	0.0062645273
141	0x3ad9e1e9	0.0016623113
142	0xbb7315e9	-0.0037091917
143	0x3a2053bc	0.0006115993
144	0xbc479d0f	-0.012183442
145	0xbc4209f2	-0.011843191
146	0xbb1c9e5a	-0.0023898096
147	0xbc51c13e	-0.01280242
148	0x3aa6d993	0.0012729637
149	0xbbac3183	-0.0052549257
150	0x3bbb8272	0.0057223374
151	0x3c004ed5	0.007831295
152	0x3c3582fb	0.011078591
153	0xbc2dca99	-0.010607385
154	0xbc3bb608	-0.011456974
155	0xbc003c8d	-0.007826936
156	0xbbbc6ce1	-0.005750284
157	0xbc24fd55	-0.010070165
158	0xbc1f129b	-0.009709026
159	0x3c42d545	0.011891668
160	0x3ac37417	0.0014911917
161	0xbc6f533c	-0.014607247
162	0xbb4aad6c	-0.0030926121
163	0x3c22e313	0.009941834
164	0x3c86c0c3	0.016449338
165	0xbb61febc	-0.003448411
166	0x3b98b33e	0.004660039
167	0x3c875ef8	0.016524777
168	0x3c0dfcf2	0.008666264
169	0x3c4c812f	0.012481972
170	0x3c5c34ed	0.013440353
171	0x3a1dea50	0.000602399
172	0x3be9c350	0.007133879
173	0x3bcba381	0.0062145595
174	0xbb69990d	-0.0035644204
175	0x3c411af8	0.011786215
176	0xbba04e87	-0.0048921737
177	0x3c07f62c	0.008298438
178	0xbb8a89b4	-0.0042278413
179	0xbbf0da67	-0.0073502543
180	0x3c2017fd	0.009771344
181	0x3be83093	0.0070858686
182	0x3c996749	0.018726008
183	0xbacdd14b	-0.0015702633
184	0x3b901aa8	0.004397709
185	0x3b9cc581	0.0047842865
186	0x3c114ce8	0.008868434
187	0x3c5f5b44	0.013632599
188	0x3bab760c	0.005232578
189	0xbc80cfa1	-0.015724005
190	0xbc3f3bfc	-0.011672016
191	0xbc7fd74d	-0.015615297
192	0x3bb5f1aa	0.0055524902
193	0xbb8e48ad	-0.0043421597
194	0xbb3ca794	-0.0028786408
195	0xbc147315	-0.009060641
196	0xbbdf076b	-0.006806304
197	0xbbf6309c	-0.007513119
198	0xbb231780	-0.0024885833
199	0xbb12bffd	-0.0022392266
200	0x3b2e6c64	0.0026614899
201	0xbb081237	-0.002076281
202	0xbc042e86	-0.008067733
203	0x3bd6bc17	0.006553184
204	0xbc0b1139	-0.008487993
205	0x3b00b996	0.0019641868
206	0x3c2b1cba	0.010443861
207	0xbb8e12a9	-0.0043357206
208	0x3c250da4	0.010074053
209	0x3b84eac9	0.004056309
210	0x3c1e0648	0.009645052
211	0x3b6262b5	0.0034543697
212	0x3bad4ad4	0.005288461
213	0xbbedc5fe	-0.0072562685
214	0xbc2becf3	-0.010493505
215	0xbaf76c05	-0.0018876797
216	0x3c3b14ae	0.011418505
217	0x3c32ccae	0.010913057
218	0x3ab5cefa	0.0013870888
219	0x3c02b5ec	0.007977944
220	0x3b9446c4	0.0045250375
221	0x3a2acc8e	0.00065154664
222	0xbb3cab5d	-0.0028788664
223	0xbb802c61	-0.0039115404
224	0xbbe17048	-0.00687984
225	0x3b86fd34	0.0041195396
226	0x3a96327d	0.0011459138
227	0x3bec5880	0.0072126985
228	0x3b239bc4	0.002496467
229	0x3bc1c4a7	0.0059133354
230	0x3a4c90c8	0.00078035565
231	0xb80e9591	-3.3994733e-05
232	0xbb920973	-0.004456693
233	0x3b953b5c	0.0045541953
234	0x3bded415	0.0068001845
235	0x3c3a190f	0.0113585135
236	0x3be58f9b	0.0070056445
237	0xbbe29651	-0.006914892
238	0x3b3d9752	0.0028929305
239	0x3bd9e4c8	0.0066495873
240	0xbc0273ae	-0.0079621505
241	0xba5d31fd	-0.000843793
242	0x3a958a1d	0.0011408959
243	0xbbc79928	-0.0060912557
244	0x3bb183cd	0.005417323
245	0x3bd20a9e	0.006409957
246	0x3bbe2c77	0.0058036405
247	0x3bcbd9d6	0.0062210364
248	0x3ba35676	0.004984672
249	0x3c1d1c42	0.009589257
250	0xbb2976d2	-0.0025858176
251	0xbb22d8fa	-0.0024848566
252	0xbbcc4235	-0.0062334784
253	0xbc303463	-0.0107546775
254	0xbc39620d	-0.011314881
255	0xba614d7f	-0.00085946167

onnx::Conv_96 f4 [64]
0	0xbd505a80	-0.050867558
1	0xbcd852e2	-0.02640671
2	0xbe363a1c	-0.17795604
3	0xbea0e80c	-0.31427038
4	0x3f2849ee	0.6573781
5	0x3dc21b9a	0.09477921
6	0xbd849a08	-0.06474692
7	0x3d249bd0	0.040187657
8	0xbe85c7b4	-0.26128924
9	0xbf0ea183	-0.557152
10	0x3ed179c0	0.409132
11	0xbda4b59e	-0.08042453
12	0x3e918755	0.28423563
13	0xbe3b21f2	-0.18274668
14	0xbe9053e8	-0.28189015
15	0xbd8ab93e	-0.067736134
16	0xbe043e89	-0.1291448
17	0xbddff710	-0.10935795
18	0x3e32d309	0.17463316
19	0xbe407376	-0.18794045
20	0xbea37cf3	-0.31931266
21	0xbee5bc97	-0.44870445
22	0x3e00ea39	0.12589349
23	0xbc3751a0	-0.0111888945
24	0xbd8532e0	-0.06503844
25	0xbb21f800	-0.002471447
26	0xbe21cce2	-0.15800813
27	0xbd9fabea	-0.07796462
28	0x3b980e78	0.0046403967
29	0xbe51c45d	-0.20485063
30	0xbdb0bf4c	-0.08630237
31	0xbe71102d	-0.23541327
32	0x3e44c724	0.19216591
33	0xbd718cd8	-0.05897221
34	0x3e1913cb	0.14948957
35	0xbe3bbbd1	-0.18333365
36	0xbd837dfa	-0.064205125
37	0x3dba29f2	0.09090032
38	0x3ed4be79	0.4155157
39	0xbe01f5ce	-0.12691423
40	0xbc79b560	-0.015240997
41	0x3e5b77ab	0.21432368
42	0x3ef33c5e	0.47506994
43	0x3e058e99	0.13042678
44	0xbd41fbee	-0.0473594
45	0xbd66417c	-0.056214795
46	0xbded305a	-0.11581488
47	0xbdd74bbe	-0.105124936
48	0xbea01a1a	-0.31269914
49	0x3e4ecf20	0.201962
50	0xbd3a9f3c	-0.045562014
51	0x3e02328d	0.12714596
52	0xbc8f1920	-0.017468035
53	0x3db71850	0.08940184
54	0xbdb3b898	-0.08775443
55	0xbe87a7b6	-0.2649514
56	0xbeb8524e	-0.36000293
57	0x3eaacde6	0.33360213
58	0xbd3040e9	-0.043030653
59	0xbd459b58	-0.04824385
60	0xbd23539c	-0.039874658
61	0xbe162d36	-0.14665684
62	0xbe28d0e7	-0.1648594
63	0xbd39d0f6	-0.045365296

onnx::Conv_98 f4 [64, 1, 3, 3]
0	0xbfef0e2c	-1.86762
1	0xbfb64557	-1.4239911
2	0xc015965f	-2.337303
3	0xbf564239	-0.836948
4	0x3e2aea43	0.16690926
5	0x3e62aefd	0.22137065
6	0x3ed54dd0	0.4166093
7	0xbe369d9a	-0.17833558
8	0xbf44b4cc	-0.76838374
9	0x3edc7f19	0.43065718
10	0x3ea15b68	0.3151505
11	0x3de8ea1c	0.11372778
12	0x3e7bdac5	0.24595173
13	0xbd76e3e4	-0.060275927
14	0x3e73fbdc	0.23826545
15	0x3ef5a930	0.47980642
16	0xbe030828	-0.1279608
17	0xbae18681	-0.0017206223
18	0xbef1048a	-0.47073776
19	0x3eff6448	0.49881196
20	0x3f8048ab	1.0022177
21	0xbf428bed	-0.7599476
22	0xbf0a6cc3	-0.5407221
23	0xbe775dc4	-0.24156862
24	0x3efe4435	0.49661413
25	0xbeef1762	-0.46697527
26	0xbefaa226	-0.48951834
27	0x3e5a8f9b	0.21343844
28	0xbe53c94b	-0.20682256
29	0xbdc5d0ed	-0.0965899
30	0x3e71cc17	0.2361301
31	0x3c993d18	0.01870589
32	0x3e3be325	0.18348368
33	0x3f03945a	0.5139824
34	0xbd28ad03	-0.04118062
35	0x3f2a5684	0.6653826
36	0x3fe72b1c	1.8060031
37	0xbec1d797	-0.37859794
38	0x3e7331a2	0.23749402
39	0x4025f588	2.593111
40	0xbe20f306	-0.15717706
41	0x3de7f2e3	0.11325624
42	0x3d976a1e	0.07393287
43	0x3e6092f0	0.21931052
44	0x3e2eecd5	0.17082532
45	0x3f6712c0	0.90262985
46	0xbf0c09ce	-0.5470246
47	0x3f9c432a	1.2207997
48	0xbe90f69e	-0.28313154
49	0x3d2d9c9d	0.042385686
50	0xbe0075be	-0.12544915
51	0xbf88d2e8	-1.0689363
52	0xbf1715f7	-0.5901789
53	0xbf7524f1	-0.95759493
54	0xbf838e72	-1.0277846
55	0xbf5b3f71	-0.8564368
56	0xbf592abe	-0.84830844
57	0xbdc46f20	-0.09591508
58	0x3c1daf9f	0.009624391
59	0x3e91f395	0.2850615
60	0x3f57de7c	0.8432386
61	0xbf34a028	-0.7055688
62	0x3f33ca45	0.70230514
63	0xbee730e1	-0.4515448
64	0xbf0ebec1	-0.5575982
65	0xbd672840	-0.05643487
66	0xbe78da15	-0.24301942
67	0xbe0a3c04	-0.13499457
68	0xbd90c87d	-0.0706949
69	0x3f10df0d	0.5659035
70	0xbe899f05	-0.26879135
71	0xbf170904	-0.5899813
72	0x3ee1105c	0.43957794
73	0xbf705a96	-0.93888223
74	0x3f857894	1.0427423
75	0x3fe148d0	1.7600346
76	0xbfa061ca	-1.2529843
77	0x3fa3ef33	1.2807373
78	0x3cc2c311	0.023774656
79	0x3f32fe4c	0.69919276
80	0x3f5e2732	0.8677856
81	0x3ebd0c19	0.36923292
82	0x3e80204a	0.25024635
83	0x3f343298	0.703897
84	0xbc5b90a6	-0.013401186
85	0x3bc02dc3	0.00586483
86	0xbe30fe00	-0.17284393
87	0x3e990bf4	0.29891932
88	0xbd111e46	-0.03542926
89	0x3eab6627	0.33476374
90	0xbe8150cc	-0.25256956
91	0x3e063c71	0.13108994
92	0x3f1f83d0	0.62310505
93	0xbf2192ec	-0.6311481
94	0xbea41558	-0.32047534
95	0xbe8bbbd9	-0.27291754
96	0xbf73344e	-0.95001686
97	0xbf10fe48	-0.56638
98	0x3eac9c6d	0.33713093
99	0xbf6dda26	-0.92910993
100	0xbf4b1527	-0.7932915
101	0xbf7d7770	-0.9901037
102	0xbfb589b4	-1.4182649
103	0xbee5a666	-0.44853514
104	0xbfa17676	-1.2614276
105	0xbf90b76c	-1.1305976
106	0x3f321613	0.6956493
107	0xbe88cc2c	-0.2671827
108	0x405b05c4	3.422227
109	0xc00abe10	-2.1678505
110	0x40050197	2.078222
111	0xc003214e	-2.0489078
112	0x4000767b	2.0072315
113	0xbef339da	-0.47505075
114	0x4019207f	2.3926084
115	0xbeeda125	-0.46412006
116	0x4080b4e5	4.022082
117	0x3ed1b047	0.409548
118	0xc0534897	-3.3013055
119	0x40653664	3.5814447
120	0x40242451	2.5647166
121	0xbf737125	-0.9509452
122	0x3ff06dcf	1.8783511
123	0x3d73536b	0.059405725
124	0xbf0c82b8	-0.5488696
125	0x3fb3244a	1.399545
126	0xbec7fd7d	-0.39060584
127	0xbe1626b0	-0.14663196
128	0x3f80caf5	1.0061938
129	0xbe732037	-0.23742758
130	0x3eb35406	0.35025042
131	0xbefecc1f	-0.49765107
132	0xbf2b5e4b	-0.66940755
133	0xbe5fee9f	-0.2186837
134	0xbf1f4d7a	-0.62227595
135	0x3f758b20	0.9591541
136	0xbeac5ea4	-0.33665955
137	0x3fc9fc62	1.5780146
138	0x4090edec	4.529043
139	0xbfa6fa42	-1.3045123
140	0xbeb0a892	-0.3450361
141	0xbf59aa3a	-0.8502537
142	0x4079764d	3.8978455
143	0xbfd60adf	-1.6722068
144	0xc088573f	-4.26065
145	0xc01ea225	-2.4786465
146	0xc022cf6e	-2.5439105
147	0xc06d8154	-3.7110186
148	0xc022a1fc	-2.5411367
149	0x3fdf625c	1.7451892
150	0xc04bd8b9	-3.1851027
151	0xbf30ac8a	-0.69013274
152	0xbf98b83d	-1.1931225
153	0x3ed43c49	0.41452244
154	0x3c95c3cf	0.018281845
155	0x3e48319c	0.19550174
156	0xbdeb2f7e	-0.11483668
157	0xbf64d6f5	-0.893905
158	0xbeb23a07	-0.34809896
159	0x3ddab374	0.10678759
160	0x3f537978	0.8260722
161	0xbeeec5fc	-0.46635425
162	0xbeac38b7	-0.3363702
163	0xbe86d9c7	-0.26338026
164	0x3ebe7e79	0.37205866
165	0xbefdc9db	-0.49568066
166	0xbe266690	-0.16250062
167	0xbeabb135	-0.33533636
168	0xbed7f457	-0.42178604
169	0xbe9f7eed	-0.31151524
170	0x3e6dedda	0.23235264
171	0x3e9433a2	0.28945643
172	0xbdbc432e	-0.09192501
173	0xbd867ede	-0.06567167
174	0x3f57e4fb	0.8433377
175	0xbf6d777b	-0.9276044
176	0xbf0ef8ac	-0.55848193
177	0x3f8d5520	1.1041603
178	0xbdc1afa8	-0.09457332
179	0x3f9d3977	1.2283162
180	0xbe9402c9	-0.28908375
181	0xbe90ee86	-0.2830698
182	0xbf715be1	-0.9428082
183	0xbf178284	-0.59183526
184	0xbde88a1a	-0.11354466
185	0xbead43b2	-0.3384071
186	0x3e7e7440	0.24849033
187	0xbe4a277c	-0.19741625
188	0x3ed2d4dc	0.41178024
189	0xbf3820f8	-0.71925306
190	0xbf61fd2a	-0.8827692
191	0x3a27618b	0.00063850795
192	0xbeb35345	-0.35024467
193	0xbf40f527	-0.7537407
194	0x3e9bd13c	0.3043307
195	0x3ef80853	0.4844385
196	0x3ebe826b	0.37208876
197	0x3e56f351	0.20991255
198	0x402d0d26	2.7039275
199	0xc003322f	-2.049938
200	0x400a6558	2.1624355
201	0xbfde3a9f	-1.736164
202	0x4040c0e9	3.0117743
203	0xbf530478	-0.82428694
204	0x3f582447	0.84430355
205	0x403d8b7c	2.9616385
206	0x3f558847	0.8341107
207	0x3ef95efa	0.48705274
208	0x3f45e5b1	0.77303606
209	0xbdffad6a	-0.12484248
210	0xbe8bc914	-0.27301848
211	0xbf11083f	-0.5665321
212	0xbed2c089	-0.41162518
213	0xbf865a65	-1.0496336
214	0xbf754ff6	-0.95825136
215	0xbe936f90	-0.28796053
216	0x406cef96	3.7021232
217	0xc05de664	-3.467187
218	0xc006fe09	-2.109255
219	0xc01383c0	-2.3049164
220	0xbeac9493	-0.33707103
221	0xbfc9d3c2	-1.5767748
222	0xc03778d1	-2.866749
223	0xc01f6fee	-2.4912066
224	0xc05d3067	-3.4560792
225	0x3fe8f59e	1.8199956
226	0x3fe5d3e4	1.7955289
227	0x3f96d9f1	1.178526
228	0xbe2cb0a4	-0.16864258
229	0x3f0afaa2	0.54288685
230	0xbfcab424	-1.5836225
231	0xbf807181	-1.0034639
232	0xbfa84d3c	-1.314857
233	0xbfcac423	-1.5841106
234	0xbd870fc0	-0.06594801
235	0x3e73ad29	0.23796524
236	0x3efbb63c	0.4916247
237	0x3f95de33	1.1708435
238	0xbeba19f5	-0.3634793
239	0xbe959544	-0.29215443
240	0xbe8e4d1f	-0.27793214
241	0x3e57bfea	0.21069303
242	0x3e2a05fb	0.16603844
243	0x3c14a850	0.009073332
244	0x3f2b8666	0.6700195
245	0x4017f715	2.3744557
246	0xc00b3b6b	-2.1755016
247	0xbfb7431c	-1.4317355
248	0xc01a316a	-2.409266
249	0xbe4ade95	-0.19811471
250	0xbfd642dc	-1.6739154
251	0xbf13343d	-0.57501584
252	0x3ed51396	0.41616505
253	0xbe9450d9	-0.28967932
254	0xbdbe42ca	-0.09290083
255	0xbed729d2	-0.42024094

onnx::Conv_99 f4 [64]
0	0x3f45edc8	0.7731595
1	0xbf741b9f	-0.95354646
2	0x3ef372dc	0.47548568
3	0xbf9b9fc9	-1.2158138
4	0xc04bd807	-3.1850603
5	0x3f2e441f	0.68072695
6	0x3f0ff4ca	0.56232893
7	0x3f14cd9a	0.58126223
8	0xbf0ea7a4	-0.5572455
9	0xbfb9506a	-1.4477665
10	0x3f9e0530	1.2345333
11	0x3f67799d	0.9041994
12	0xc01eaf4d	-2.4794495
13	0xbde527dc	-0.11189243
14	0x3f0e5735	0.5560182
15	0xbe7c4f8b	-0.24639718
16	0x3f24b739	0.64342076
17	0x3e450f6c	0.19244164
18	0x3f728415	0.9473279
19	0xbf21f537	-0.63264793
20	0x3eecfc10	0.46286058
21	0x3f4ecf17	0.80784744
22	0xbf9b73ad	-1.2144676
23	0x3f5b936e	0.85771835
24	0x3ebe9174	0.37220347
25	0x3e3f061c	0.18654674
26	0xbf193f91	-0.5986262
27	0x3f279940	0.65468216
28	0x3e49f47a	0.19722167
29	0x3f6870a9	0.90796906
30	0x3f280090	0.6562586
31	0xbebed89f	-0.37274644
32	0xbf762791	-0.96154124
33	0x3e7467a1	0.23867656
34	0xbf2dd4dd	-0.6790293
35	0x3f0bee0a	0.54660094
36	0x3e5a8bd6	0.21342406
37	0x3ed4deff	0.41576383
38	0x3e3b87fa	0.1831359
39	0x3d921e78	0.07134718
40	0x3fa6ff87	1.3046731
41	0x3f21d5b7	0.6321673
42	0xc091b576	-4.553401
43	0xbebb8cd2	-0.36630875
44	0x3e24f5fc	0.1610946
45	0x3e16ab23	0.14713721
46	0xbd69f3e3	-0.057117354
47	0xbed88a68	-0.42293096
48	0x3f3be9ac	0.7340343
49	0x4009e1f7	2.1544168
50	0x3ef6b2f8	0.48183417
51	0x3f83e649	1.0304652
52	0xbeb53881	-0.35394672
53	0xbf346a71	-0.70474917
54	0x3ebe90db	0.3721989
55	0x3f935fea	1.1513646
56	0x3f698f1e	0.91234004
57	0xc008900e	-2.1337924
58	0xbf68cb53	-0.9093525
59	0x3eaf46b7	0.3423364
60	0x3f0260f5	0.50929195
61	0xbed5f00b	-0.417847
62	0xbe7ddc4a	-0.24791065
63	0xbf7f511a	-0.99733126

onnx::Conv_101 f4 [64, 1, 3, 3]
0	0xbdc18c67	-0.09450608
1	0xbc1a2501	-0.0094082365
2	0xbe190879	-0.14944638
3	0xbf24a97f	-0.6432113
4	0x3dad468f	0.084607236
5	0xbe8e6400	-0.2781067
6	0x3f925c90	1.1434498
7	0x3ff716e5	1.9303862
8	0xbf73c6b8	-0.95225096
9	0x3d6da619	0.05801973
10	0xbe1fb66f	-0.15596937
11	0x3e00afcf	0.12567066
12	0x3d4ec448	0.050480157
13	0xbdfb298a	-0.12263782
14	0xbe683197	-0.22675167
15	0xbdc5a966	-0.09651451
16	0xbd8050b8	-0.06265396
17	0x3d1aac3a	0.037761904
18	0xbdace7d9	-0.08442659
19	0xbc616d6c	-0.013758998
20	0xbe7b49f8	-0.24539936
21	0x3d426d6a	0.047467627
22	0xbec71f4c	-0.38891065
23	0xbf02c56a	-0.5108248
24	0x3e126140	0.1429491
25	0x3d098337	0.0335724
26	0xbe7f1db2	-0.24913672
27	0xbea98399	-0.33108214
28	0xbeb77eb1	-0.35838845
29	0x3eaa95e2	0.33317477
30	0x3d136193	0.035981726
31	0xbdfb7f58	-0.12280148
32	0x3eb98191	0.36231664
33	0xbcac82e7	-0.021058513
34	0xbe5c0db0	-0.21489596
35	0x3eb8b4bd	0.36075392
36	0x3de19138	0.110140264
37	0x3dffa76d	0.12483106
38	0x3ea82d0a	0.32846862
39	0xbe837488	-0.25674844
40	0x3cb18818	0.02167134
41	0x3dc4171c	0.0957472
42	0xbdc5d7e2	-0.09660317
43	0x3e3453d1	0.17610098
44	0x3e55866b	0.20852058
45	0xbd995b5a	-0.07488127
46	0x3ceacdf9	0.028662669
47	0xbdcefdb2	-0.10106982
48	0x3ee2af79	0.442745
49	0x3ebe61bb	0.37183937
50	0xbbfadd4b	-0.0076557747
51	0xbdab7366	-0.0837162
52	0xbba1575c	-0.004923744
53	0xbe992a50	-0.29915094
54	0x3bae2944	0.005314978
55	0x3c362b04	0.011118654
56	0x3e939c90	0.28830385
57	0x3e19ba48	0.15012467
58	0x3ef26442	0.47342116
59	0xbde2e708	-0.11079222
60	0x3ec75cce	0.38937992
61	0xbd9354d5	-0.07193915
62	0x3e05d118	0.13068044
63	0xbd1fe063	-0.03903235
64	0x3e68c0a8	0.22729743
65	0x3f18731a	0.5955063
66	0x3dc067a9	0.093947716
67	0xbe333e47	-0.17504226
68	0xbe6973d1	-0.22798087
69	0x3dff790c	0.1247426
70	0xbde36dae	-0.11104904
71	0x3e29b7bc	0.16573995
72	0x3e8c46a9	0.2739766
73	0xbec6f500	-0.38858795
74	0xbf24f347	-0.6443371
75	0xbef6b537	-0.4818513
76	0x3cce2d9f	0.025168238
77	0xbe3c788e	-0.18405363
78	0xbd2a8d61	-0.041638736
79	0x3e260abb	0.16215031
80	0xbd477824	-0.04869856
81	0x3d8ce941	0.06880427
82	0x3dbdf752	0.09275688
83	0x3e92c5b5	0.28666463
84	0x3ce6b66c	0.028163157
85	0xbd8f690d	-0.07002459
86	0x3ddbe08c	0.10736188
87	0xbcdf0f3d	-0.027228946
88	0xbdf1bb81	-0.11803342
89	0xbd421209	-0.04738048
90	0x3e01cc75	0.1267565
91	0x3d87a10a	0.06622513
92	0xbd03b445	-0.03215434
93	0x3e7bd17b	0.24591629
94	0x3db01cae	0.0859922
95	0xbdececc1	-0.11568595
96	0x3ea0e989	0.31428173
97	0x3d98be65	0.0745819
98	0xbdcae0b5	-0.09906141
99	0x3f674136	0.9033388
100	0x3e376b25	0.17911966
101	0x3f06880e	0.5255135
102	0x3efa434d	0.4887947
103	0xbcf8090e	-0.030277755
104	0xbf12b0a7	-0.573008
105	0xbe32be03	-0.17455296
106	0xbd41544a	-0.047199525
107	0x3de0e639	0.109814115
108	0xbf3bb86c	-0.7332828
109	0xbf5609e4	-0.8360884
110	0xbf6f5bbc	-0.9349935
111	0x3f7b5930	0.98182964
112	0x3f098337	0.5371584
113	0x3ec5144f	0.38492057
114	0xbc0626d9	-0.008187973
115	0x3f68c12d	0.9091976
116	0x3f5d00b6	0.8632921
117	0x3ed33bd7	0.41256592
118	0xbededb36	-0.4352662
119	0xbf205758	-0.62633276
120	0xbecf6265	-0.40504757
121	0x3f250ee5	0.6447585
122	0x3ebfe0b6	0.37476128
123	0x3f9317ba	1.1491616
124	0xbc8c22a5	-0.017106364
125	0x3f9629a4	1.1731458
126	0xbe809ccb	-0.25119624
127	0x3e08eb28	0.13370955
128	0xbea02f68	-0.31286168
129	0xbdf93f66	-0.121702954
130	0x3e81036f	0.25197932
131	0xbe332b78	-0.17497051
132	0xbe7a3cbd	-0.24437232
133	0xbd988ee5	-0.0744913
134	0xbe366721	-0.17812778
135	0x3f970929	1.179967
136	0x3f0d4446	0.551823
137	0x3f3b814f	0.73244184
138	0x3ec9ef21	0.39440253
139	0x3ec9c03f	0.39404485
140	0x3ee2b40f	0.44278
141	0xbde0a1a6	-0.10968332
142	0x3ef8e1fe	0.48609918
143	0x3e806016	0.25073308
144	0x3fa98116	1.3242519
145	0x3f8aca42	1.0842974
146	0xbf83de73	-1.0302261
147	0x3fbd7691	1.4801809
148	0x3feccc81	1.849991
149	0xbe8369df	-0.2566671
150	0xbf8b20e6	-1.0869415
151	0x3fac33f9	1.3453361
152	0xbead28b7	-0.33820125
153	0xbca0bce5	-0.019621322
154	0x3cae6b40	0.021291375
155	0x3dc95c45	0.09832052
156	0x3b9010fe	0.004396557
157	0xbe19be45	-0.15013988
158	0xbea8a0ef	-0.32935283
159	0xbe1019e4	-0.14072376
160	0x3de2a045	0.11065725
161	0xbeb40204	-0.35157788
162	0x3d811e99	0.06304664
163	0x3e39c0da	0.18139973
164	0x3e2d202b	0.16906802
165	0xbe586a0e	-0.21134207
166	0xbe0489af	-0.12943147
167	0x3dbbc980	0.091692924
168	0xbe859fc1	-0.26098445
169	0x3e07e6b0	0.13271594
170	0xbdb9139a	-0.09036942
171	0x3dc8e83d	0.09809921
172	0xbebeef52	-0.37291962
173	0x3e495cc9	0.19664301
174	0x3e9c0c5b	0.30478176
175	0x3e3934f7	0.1808661
176	0xbe2f115b	-0.17096464
177	0x3eb47aaf	0.3524985
178	0x3e0729d5	0.13199551
179	0x3e65d5f4	0.22444898
180	0x3e886be3	0.2664481
181	0xbc607aa3	-0.013701114
182	0x3dce84c0	0.10083914
183	0x3d2a27e2	0.04154194
184	0x3e2b7aff	0.16746138
185	0x3ea3fc06	0.32028216
186	0xbeadf644	-0.33976948
187	0xbf0edb23	-0.55803126
188	0xbea66d16	-0.325051
189	0xba01486e	-0.00049317523
190	0xbcc63598	-0.024195477
191	0xbdcfe46a	-0.101509884
192	0xbe0436c8	-0.12911522
193	0xbe398d14	-0.18120223
194	0x3cd3d6ec	0.025859319
195	0xbe229e93	-0.15880804
196	0xbdb38d62	-0.08767201
197	0xbdff91b7	-0.12478965
198	0x3f11413e	0.56740177
199	0x3eca42ae	0.39503998
200	0x3e231953	0.15927629
201	0x3e40c9fe	0.18827054
202	0x3f38d15c	0.7219446
203	0xbe9dcf37	-0.30822155
204	0x3f07b9a1	0.5301762
205	0x3ccefd39	0.02526723
206	0xbf111d25	-0.56685096
207	0x3ee5436e	0.44778007
208	0x3c1cb462	0.009564491
209	0x3e86af99	0.26305845
210	0xbd37eb32	-0.044902034
211	0xbefdb0e1	-0.4954901
212	0xbe6e1ae7	-0.2325245
213	0xbf1e2e8a	-0.6178976
214	0xba0fa856	-0.0005480101
215	0x3e3e4d53	0.18584184
216	0xbfb368a5	-1.401631
217	0x3ff6e7c2	1.9289477
218	0xbf84ed6d	-1.0384957
219	0xbf9d0268	-1.2266359
220	0xbfda0c40	-1.7034988
221	0xbed9ca88	-0.42537332
222	0xbf9743de	-1.1817586
223	0xbf15bc08	-0.5849004
224	0xbd9d9dc3	-0.07696106
225	0xbf05c99c	-0.52260756
226	0xbf47dba6	-0.7806953
227	0xbed45fbe	-0.41479295
228	0x3ee12614	0.43974364
229	0x3f5c1a28	0.8597741
230	0xbe9b1b93	-0.30294475
231	0xbd85e26c	-0.06537327
232	0xbf2594cf	-0.6468019
233	0xbf7e8329	-0.99418885
234	0x3a986194	0.001162576
235	0x3deb0ef5	0.11477462
236	0x3e21a70d	0.15786381
237	0xbe9cc450	-0.30618525
238	0x3de72a3f	0.11287355
239	0xbd1cc218	-0.03827104
240	0xbe362db7	-0.17790876
241	0xbe9c9439	-0.30581835
242	0x3e89fe4c	0.26951826
243	0x3f8d64e3	1.1046413
244	0x3e9415b0	0.28922796
245	0x3fac424c	1.3457732
246	0x3f653c79	0.895454
247	0xbf5e32e0	-0.8679638
248	0xbdea187c	-0.11430451
249	0x3e54edcf	0.20793842
250	0xbf9c8bb5	-1.2230135
251	0xbeac1001	-0.3360596
252	0x3cffc031	0.031219574
253	0xbd88d706	-0.066816375
254	0xbd868445	-0.06568197
255	0x3c9b3617	0.01894669

onnx::Conv_102 f4 [64]
0	0xbdf51f8e	-0.11968909
1	0x3e8a17af	0.26971194
2	0x3e02a8ca	0.127597
3	0xbe4abc88	-0.19798481
4	0xbee51c3a	-0.44748098
5	0xbd8243c8	-0.063605845
6	0xbe955f03	-0.2917405
7	0xbe51d8b2	-0.20492819
8	0x3e4f6774	0.20254308
9	0xbe9417e6	-0.28924483
10	0xbed3ebb0	-0.41390753
11	0xbe557d0c	-0.20848483
12	0xbed45272	-0.4146915
13	0xbe5aceea	-0.21367994
14	0x3e85218d	0.2600216
15	0xbe98c5db	-0.29838452
16	0xbe172285	-0.14759262
17	0x3ea9cfc0	0.33166313
18	0x3c3d4a74	0.011553396
19	0xbea35a5e	-0.31904882
20	0x3daceb09	0.08443267
21	0x3ea4ea11	0.32209828
22	0xbebad06b	-0.36487135
23	0x3e59419e	0.21216437
24	0x3d9e278b	0.07722386
25	0x3ea30b30	0.31844473
26	0x3e7878e1	0.24264862
27	0xbdadf8a7	-0.08494692
28	0x3e5cb899	0.21554793
29	0x3e9b6831	0.3035293
30	0xbe167037	-0.14691244
31	0x3e659ee9	0.224239
32	0xbe568db5	-0.20952494
33	0xbdf01915	-0.11723534
34	0x3dd970ec	0.10617241
35	0xbe126499	-0.14296187
36	0xbe84df70	-0.2595172
37	0x3d0e973d	0.0348122
38	0xbe745568	-0.23860705
39	0xbe917d95	-0.28416124
40	0x3e5db5c6	0.21651372
41	0x3e5efdac	0.21776456
42	0xbeddf817	-0.4335334
43	0x3ebb6d6d	0.36606923
44	0xbe25d86a	-0.16195837
45	0xbe5e9b57	-0.21738945
46	0xbe6c55df	-0.23079632
47	0x3e293839	0.16525353
48	0x3e452a68	0.19254458
49	0xbf0694b7	-0.5257067
50	0xbe8a80f2	-0.27051502
51	0x3ea44465	0.3208343
52	0x3d5b28d9	0.053505752
53	0xbeb12080	-0.34595108
54	0x3dd2d10c	0.10293779
55	0xbe5e1191	-0.21686389
56	0x3e907fde	0.28222555
57	0x3e93b1b1	0.28846505
58	0x3e8a2085	0.26977935
59	0xbe899bbc	-0.26876628
60	0xbe877183	-0.2645379
61	0xbe75a909	-0.23990263
62	0x3e3d0539	0.18459024
63	0x3e520e5a	0.20513287
