model/2023_2_26_hj_num_2_fp16.onnx (onnx, 101223 bytes, 17 tensors)

onnx::Conv_83 f2 [16, 1, 3, 3]
0	0x327b	0.2025
1	0xb49f	-0.2888
2	0x3123	0.1605
3	0xb059	-0.1359
4	0x3441	0.2659
5	0x3833	0.525
6	0x3316	0.2214
7	0x3a11	0.7583
8	0x3c49	1.071
9	0xbd95	-1.3955
10	0x3788	0.4707
11	0xbc99	-1.149
12	0xbcf8	-1.242
13	0x3942	0.657
14	0xb7fa	-0.4985
15	0x3dcb	1.448
16	0x36dd	0.429
17	0x34d3	0.3015
18	0x2dfa	0.0934
19	0x3afe	0.874
20	0xbdfe	-1.498
21	0x3dc1	1.438
22	0xb8c9	-0.598
23	0xb118	-0.1592
24	0xbe45	-1.567
25	0x3687	0.408
26	0xbc68	-1.102
27	0x3076	0.1394
28	0x411c	2.555
29	0xb056	-0.1355
30	0xbf56	-1.834
31	0x4218	3.047
32	0x3367	0.2313
33	0xb930	-0.6484
34	0x3895	0.5728
35	0xc0c1	-2.377
36	0x3cd5	1.208
37	0xb429	-0.26
38	0xafe8	-0.12354
39	0x3529	0.3225
40	0x3672	0.4028
41	0xb3dc	-0.2456
42	0x3e1b	1.526
43	0xba16	-0.7607
44	0x3945	0.6587
45	0xa8dc	-0.03796
46	0xad5e	-0.08386
47	0xb9d1	-0.727
48	0x3878	0.5586
49	0x3c01	1.001
50	0x25a1	0.02199
51	0xafde	-0.1229
52	0xb31d	-0.2223
53	0x3dce	1.451
54	0xb5fc	-0.374
55	0xbaf5	-0.8696
56	0xbd9b	-1.401
57	0xb852	-0.54
58	0x38ff	0.6245
59	0x3628	0.3848
60	0xbbb7	-0.9644
61	0x3c76	1.115
62	0xb97e	-0.6865
63	0x3631	0.387
64	0x37bf	0.4841
65	0xaed5	-0.10675
66	0xb1d3	-0.182
67	0xac75	-0.06964
68	0x38e9	0.614
69	0x38a5	0.5806
70	0x386e	0.5537
71	0x364b	0.3933
72	0x3b3a	0.9033
73	0xb703	-0.4382
74	0xb8d5	-0.604
75	0x3416	0.2554
76	0xb103	-0.1566
77	0xbc3f	-1.062
78	0xbd4e	-1.326
79	0xb86f	-0.554
80	0x399e	0.702
81	0x2c48	0.0669
82	0x3662	0.399
83	0x325f	0.1991
84	0xba81	-0.813
85	0x2e64	0.09985
86	0xb205	-0.1881
87	0xb981	-0.688
88	0xbc0f	-1.015
89	0x353b	0.327
90	0xbc05	-1.005
91	0x389e	0.577
92	0xb89e	-0.577
93	0x268a	0.02554
94	0x335d	0.2301
95	0xb0be	-0.1482
96	0x2a1e	0.0478
97	0x3799	0.4749
98	0x3feb	1.9795
99	0xb1f2	-0.1858
100	0x3bc9	0.973
101	0x3885	0.565
102	0x3d04	1.254
103	0x3484	0.2822
104	0xb8e8	-0.6133
105	0x3826	0.5186
106	0x2e2c	0.09644
107	0xb3bd	-0.2418
108	0xb62a	-0.3853
109	0x35e3	0.368
110	0x37eb	0.4949
111	0x3779	0.467
112	0xb930	-0.6484
113	0xb9d4	-0.7285
114	0xb79b	-0.4753
115	0xb4d0	-0.3008
116	0xb941	-0.6567
117	0x4009	2.018
118	0xb9b8	-0.715
119	0x3f40	1.8125
120	0xbde5	-1.474
121	0x3b96	0.948
122	0xb24f	-0.1971
123	0xc011	-2.033
124	0x3b73	0.931
125	0x3ac1	0.844
126	0x3841	0.5317
127	0x38c4	0.5957
128	0x3c68	1.102
129	0xb168	-0.169
130	0x38c7	0.597
131	0x337c	0.2339
132	0x3882	0.5635
133	0xa617	-0.02379
134	0xb8c2	-0.5947
135	0x3c17	1.022
136	0xbeb2	-1.674
137	0xc09b	-2.303
138	0x39ea	0.7393
139	0x3bd9	0.981
140	0xb062	-0.137
141	0x3afc	0.873
142	0x338c	0.2358
143	0x3842	0.532

onnx::Conv_84 f2 [16]
0	0xba01	-0.7505
1	0x374b	0.4558
2	0x36b5	0.4192
3	0xb6cf	-0.4255
4	0xb9a2	-0.704
5	0xb949	-0.6606
6	0x3938	0.6523
7	0xbaa6	-0.831
8	0x3910	0.633
9	0x3910	0.633
10	0xb5bc	-0.3584
11	0xb9a0	-0.703
12	0x3947	0.6597
13	0xb8af	-0.5854
14	0xb995	-0.6978
15	0xb01a	-0.1282

onnx::Conv_86 f2 [16, 1, 3, 3]
0	0x3dbf	1.437
1	0x34a1	0.2893
2	0xbc9b	-1.151
3	0xbcfc	-1.246
4	0x34db	0.3035
5	0x2fd9	0.1226
6	0xbc0b	-1.011
7	0xaced	-0.07697
8	0x9b89	-0.00368
9	0xbd61	-1.345
10	0xad83	-0.0861
11	0xb951	-0.6646
12	0xb890	-0.5703
13	0x30c8	0.1494
14	0xac23	-0.06464
15	0xb712	-0.442
16	0xb6b4	-0.419
17	0x37f7	0.4978
18	0x383c	0.5293
19	0x3d30	1.297
20	0x3825	0.518
21	0xb139	-0.1632
22	0x3cdd	1.216
23	0x3e0d	1.513
24	0xb8ee	-0.616
25	0xb921	-0.641
26	0x35ec	0.37
27	0xb316	-0.2214
28	0x3555	0.3333
29	0xb3ca	-0.2434
30	0xb384	-0.2349
31	0x36bc	0.421
32	0xb8bf	-0.5933
33	0x3572	0.3403
34	0xb447	-0.2673
35	0xb59f	-0.3513
36	0x34da	0.3032
37	0x3560	0.336
38	0xb18c	-0.1733
39	0x39f5	0.7446
40	0x2932	0.0406
41	0xb060	-0.1367
42	0x39ba	0.716
43	0xb3f0	-0.248
44	0xb35a	-0.2297
45	0xbae9	-0.864
46	0xb978	-0.6836
47	0xb5b0	-0.3555
48	0xb868	-0.551
49	0x3973	0.681
50	0x34c5	0.298
51	0x30b9	0.1476
52	0x3b9f	0.9526
53	0x3c34	1.051
54	0x3237	0.1942
55	0x3d4f	1.327
56	0x3d8e	1.389
57	0x3b3d	0.905
58	0x32a1	0.2072
59	0xb38d	-0.236
60	0xb6b2	-0.4185
61	0xc013	-2.037
62	0x371b	0.444
63	0xb6b4	-0.419
64	0xb7c6	-0.4858
65	0xb857	-0.5425
66	0xaf24	-0.1116
67	0xb4d3	-0.3015
68	0xb895	-0.5728
69	0x3032	0.1311
70	0x366b	0.4011
71	0x3507	0.3142
72	0xb83c	-0.5293
73	0x3909	0.6294
74	0x31eb	0.1849
75	0xb8bb	-0.5913
76	0x3792	0.4731
77	0x3a1d	0.764
78	0x3d3b	1.308
79	0x3562	0.3364
80	0xb455	-0.2708
81	0x3844	0.533
82	0xb73c	-0.4521
83	0xaa0c	-0.04724
84	0x389c	0.576
85	0xb7fd	-0.4993
86	0xbb0f	-0.8823
87	0xba87	-0.816
88	0xba63	-0.7983
89	0xb46a	-0.276
90	0xb60b	-0.3777
91	0xb9e5	-0.737
92	0xb0e1	-0.1525
93	0x28aa	0.03644
94	0x33fd	0.2496
95	0xbaf8	-0.871
96	0x3159	0.1671
97	0xa7fc	-0.03119
98	0x2de9	0.09235
99	0x35f8	0.373
100	0xb8ff	-0.6245
101	0xa75c	-0.02875
102	0x2afe	0.05463
103	0xb306	-0.2195
104	0x3ad1	0.852
105	0xbda8	-1.414
106	0xb6d6	-0.4272
107	0x391e	0.6396
108	0x353a	0.3267
109	0xb45b	-0.2722
110	0x3da1	1.407
111	0xbcd6	-1.209
112	0x3d42	1.314
113	0x3fe3	1.972
114	0xb80e	-0.507
115	0xbcfb	-1.245
116	0xbdcd	-1.45
117	0xa454	-0.0169
118	0x38a7	0.5815
119	0x3a4b	0.7866
120	0xb8e1	-0.61
121	0x353e	0.3276
122	0xb83f	-0.531
123	0x2d89	0.0865
124	0xb93f	-0.656
125	0xb7a6	-0.478
126	0xaeba	-0.1051
127	0x39c9	0.723
128	0x3895	0.5728
129	0x379b	0.4753
130	0x3827	0.519
131	0xb751	-0.4573
132	0xb05f	-0.1366
133	0xb964	-0.674
134	0xb966	-0.675
135	0x3836	0.5264
136	0x30e9	0.1534
137	0x365a	0.397
138	0x300a	0.1262
139	0x2d5f	0.0839
140	0x375f	0.4607
141	0x2a84	0.0509
142	0x33e1	0.2462
143	0x348b	0.284

onnx::Conv_87 f2 [16]
0	0x3959	0.6685
1	0x3c46	1.068
2	0xbc1c	-1.027
3	0x3017	0.1278
4	0xb7c8	-0.4863
5	0xb3ea	-0.2473
6	0xb949	-0.6606
7	0x3911	0.6333
8	0xbc0e	-1.014
9	0x3b29	0.895
10	0x38a0	0.578
11	0x34f8	0.3105
12	0xb564	-0.337
13	0x3387	0.2352
14	0xadc6	-0.0902
15	0xb964	-0.674

onnx::Conv_89 f2 [32, 16, 3, 3]
0	0x2d03	0.0783
1	0x2e41	0.0977
2	0xa0a6	-0.00908
3	0xa3df	-0.01537
4	0x9e36	-0.006065
5	0xacc0	-0.0742
6	0x2a27	0.04807
7	0x2d41	0.0821
8	0xaeab	-0.1042
9	0xaa9e	-0.0517
10	0x2b7e	0.05853
11	0x2b1b	0.0555
12	0x2f5f	0.1152
13	0x2a4d	0.04922
14	0x28a4	0.03625
15	0x2ac9	0.053
16	0x298a	0.04327
17	0xa1e8	-0.011536
18	0xac59	-0.06793
19	0x1963	0.00263
20	0xad26	-0.08044
21	0x1da0	0.005493
22	0xa9c1	-0.04495
23	0x25ef	0.02318
24	0x1e2a	0.00602
25	0x23c1	0.015144
26	0xa487	-0.01768
27	0xad22	-0.0802
28	0xa12d	-0.01011
29	0x9a9b	-0.003225
30	0xaa13	-0.04745
31	0xa07a	-0.00874
32	0x2524	0.02008
33	0xacfc	-0.0779
34	0x29ad	0.04434
35	0x28e9	0.03836
36	0xa5b8	-0.02234
37	0x2c17	0.0639
38	0x203a	0.008255
39	0x2afb	0.05453
40	0x2c29	0.065
41	0xa413	-0.01591
42	0x2d25	0.0804
43	0x9c3b	-0.00413
44	0x27b2	0.03006
45	0xab03	-0.05478
46	0xae69	-0.10016
47	0xa85b	-0.03403
48	0xaca7	-0.0727
49	0xa9c2	-0.04498
50	0x2861	0.0342
51	0xac3d	-0.0662
52	0x2a6d	0.0502
53	0x2b53	0.05722
54	0xad24	-0.0803
55	0xa62a	-0.02408
56	0x8da4	-0.0003443
57	0xad14	-0.07935
58	0x2d4e	0.0829
59	0x249a	0.01797
60	0x2439	0.0165
61	0x2cc7	0.07465
62	0xa729	-0.02797
63	0xae74	-0.1008
64	0xb00b	-0.1263
65	0xa969	-0.04227
66	0xad74	-0.0852
67	0xaa4f	-0.0493
68	0x2507	0.01964
69	0x1059	0.0005307
70	0x1fac	0.007492
71	0xa91b	-0.0399
72	0x2035	0.00822
73	0x2958	0.04175
74	0x23c6	0.01518
75	0x1fa8	0.007477
76	0x1fe9	0.007725
77	0xabf9	-0.0623
78	0xa05a	-0.0085
79	0x29af	0.0444
80	0x2350	0.01428
81	0xa479	-0.01747
82	0xa432	-0.01639
83	0x25ce	0.02267
84	0xa265	-0.01249
85	0x2828	0.03247
86	0xa423	-0.01616
87	0xaa14	-0.0475
88	0xaaf2	-0.05426
89	0xaa1d	-0.04776
90	0xaf39	-0.11285
91	0x19b8	0.002792
92	0x98a9	-0.002275
93	0xa8b2	-0.03668
94	0x258e	0.0217
95	0xa808	-0.0315
96	0x28d6	0.03778
97	0x27c1	0.03029
98	0x99f4	-0.002907
99	0x3057	0.1356
100	0x99d9	-0.002855
101	0xa5e4	-0.02301
102	0xac63	-0.06854
103	0x1a99	0.003222
104	0x2e1d	0.0955
105	0xa9fc	-0.04675
106	0x2b4b	0.05698
107	0x2991	0.0435
108	0xab82	-0.05865
109	0xaf13	-0.11053
110	0xad61	-0.08405
111	0x233e	0.014145
112	0xa0cb	-0.00936
113	0xab78	-0.05835
114	0x26f0	0.0271
115	0x1b10	0.003448
116	0xa4d8	-0.01892
117	0x2288	0.01276
118	0x25a0	0.02197
119	0xa877	-0.03488
120	0x1fe1	0.007694
121	0xac33	-0.0656
122	0xad0c	-0.07886
123	0x2d79	0.0855
124	0x249c	0.018
125	0xa42a	-0.01627
126	0x3076	0.1394
127	0x3112	0.1584
128	0x283a	0.03302
129	0x3094	0.1431
130	0x96d0	-0.001663
131	0xa943	-0.0411
132	0x2e9f	0.10345
133	0x240e	0.01584
134	0xad30	-0.08105
135	0xb01b	-0.1283
136	0xb1ab	-0.1771
137	0xae6a	-0.1002
138	0xa9dc	-0.04578
139	0xaa33	-0.04843
140	0x28a9	0.0364
141	0x8d1c	-0.0003119
142	0xab25	-0.05582
143	0x2727	0.02794
144	0xaa2b	-0.0482
145	0x9b1a	-0.003468
146	0xa65b	-0.02483
147	0x9f0d	-0.006886
148	0x23a9	0.01496
149	0x26cc	0.02655
150	0x2c35	0.06573
151	0x28b3	0.0367
152	0x2b5c	0.0575
153	0xa927	-0.04025
154	0xaf53	-0.11444
155	0xafef	-0.12396
156	0x2456	0.01694
157	0xa64c	-0.0246
158	0x28df	0.03806
159	0x9e2b	-0.006023
160	0xa25f	-0.01244
161	0x2bef	0.06198
162	0xa512	-0.0198
163	0xa83d	-0.0331
164	0xa784	-0.02936
165	0xab5a	-0.05743
166	0xaa56	-0.0495
167	0xa8da	-0.0379
168	0xaa89	-0.05106
169	0x1cd0	0.0047
170	0x1e15	0.00594
171	0x2c24	0.0647
172	0x251a	0.01993
173	0x1296	0.000804
174	0x1239	0.0007596
175	0x20eb	0.009605
176	0x29ce	0.04535
177	0xa1bb	-0.01119
178	0xa2f5	-0.01359
179	0x0ff3	0.0004852
180	0x241c	0.01605
181	0xa585	-0.02156
182	0x26ff	0.02733
183	0x94ac	-0.001141
184	0x2580	0.02148
185	0x28f9	0.03885
186	0x2582	0.02151
187	0x20b1	0.00916
188	0xa5d1	-0.02272
189	0x2532	0.0203
190	0x1c62	0.00428
191	0x24ef	0.01927
192	0x1c0b	0.00395
193	0xab78	-0.05835
194	0xa87f	-0.03513
195	0xa9b9	-0.0447
196	0xa177	-0.01067
197	0x252c	0.0202
198	0x276a	0.02896
199	0x2bff	0.06247
200	0x2b32	0.0562
201	0xa80a	-0.03156
202	0xa7d5	-0.0306
203	0x2812	0.0318
204	0x1e26	0.006004
205	0xae7d	-0.1014
206	0xa494	-0.01788
207	0x3033	0.1312
208	0x2ec2	0.1056
209	0x2959	0.04178
210	0x1817	0.001997
211	0x187a	0.002186
212	0x9f98	-0.007416
213	0xa947	-0.04123
214	0xa1d1	-0.01136
215	0x00d0	1.24e-05
216	0xabda	-0.06134
217	0xa6e9	-0.027
218	0xa278	-0.012634
219	0xa368	-0.014465
220	0xace5	-0.0765
221	0xac04	-0.06274
222	0xa5c9	-0.0226
223	0xa7ba	-0.03018
224	0xaa14	-0.0475
225	0x1498	0.0011215
226	0x280f	0.0317
227	0x27c9	0.03041
228	0x1c91	0.00446
229	0x244f	0.01683
230	0x1e42	0.00611
231	0x25f0	0.0232
232	0x2763	0.02885
233	0x9cd1	-0.004704
234	0xa58f	-0.02171
235	0x1f4a	0.00712
236	0xa5cd	-0.02266
237	0xad14	-0.07935
238	0xa828	-0.03247
239	0xa0c7	-0.00933
240	0xa8c4	-0.03723
241	0x21cd	0.01133
242	0x2c90	0.0713
243	0x1bbf	0.003782
244	0x2a91	0.0513
245	0x2af6	0.05438
246	0x9eee	-0.006767
247	0x961a	-0.00149
248	0xa4ab	-0.01823
249	0xaa0f	-0.04733
250	0xaad1	-0.05325
251	0xac30	-0.0654
252	0x291a	0.03986
253	0x265f	0.02489
254	0xa8c4	-0.03723
255	0xa7fd	-0.0312

onnx::Conv_90 f2 [32]
0	0xad61	-0.08405
1	0x23e9	0.01545
2	0x3765	0.4622
3	0xb22d	-0.193
4	0x3b3d	0.905
5	0xbaf8	-0.871
6	0xb2ee	-0.2166
7	0xb150	-0.166
8	0xb7a0	-0.4766
9	0xb05f	-0.1366
10	0xbaae	-0.835
11	0x2c74	0.0696
12	0x28d2	0.03766
13	0xb65b	-0.3972
14	0xbb79	-0.934
15	0x3733	0.45
16	0xbd62	-1.346
17	0x34a4	0.29
18	0xba92	-0.8213
19	0xba53	-0.7905
20	0x3b7b	0.935
21	0xb556	-0.3335
22	0xbf16	-1.771
23	0xb653	-0.3953
24	0xb360	-0.2305
25	0xae13	-0.0949
26	0x9697	-0.001609
27	0x3bbe	0.968
28	0x358c	0.3467
29	0x2d57	0.08344
30	0x3958	0.668
31	0x30a0	0.1445

onnx::Conv_92 f2 [32, 1, 3, 3]
0	0x3cca	1.197
1	0x359f	0.3513
2	0xba8f	-0.82
3	0x35ba	0.358
4	0xbbc8	-0.9727
5	0x35e5	0.3684
6	0xbaf6	-0.87
7	0xbaf0	-0.867
8	0x37e1	0.4924
9	0x3fc4	1.941
10	0x3af2	0.868
11	0xba41	-0.7817
12	0xbe2e	-1.545
13	0x38c6	0.5967
14	0xbba7	-0.9565
15	0x3aef	0.8667
16	0x35a7	0.3533
17	0x39a2	0.704
18	0x3d27	1.288
19	0x3d96	1.396
20	0xbdfa	-1.494
21	0xbd8f	-1.39
22	0xbab3	-0.8374
23	0x3cd4	1.207
24	0xaf5c	-0.115
25	0x3b30	0.8984
26	0x3733	0.45
27	0x3c5a	1.088
28	0x3974	0.6816
29	0x3299	0.2062
30	0xb0af	-0.1464
31	0x2dbb	0.08954
32	0x38d0	0.6016
33	0xb5b4	-0.3564
34	0xb850	-0.539
35	0xb04d	-0.1344
36	0x2d0c	0.07886
37	0x3814	0.51
38	0xbc24	-1.035
39	0xb884	-0.5645
40	0xb399	-0.2374
41	0xb9d4	-0.7285
42	0xbd4f	-1.327
43	0xb88d	-0.569
44	0xb77c	-0.4678
45	0xb9c7	-0.722
46	0x3943	0.6577
47	0x3c12	1.018
48	0xb795	-0.4739
49	0x3473	0.278
50	0xbb2b	-0.896
51	0x3ccd	1.2
52	0x3855	0.5415
53	0x24c3	0.0186
54	0x293b	0.04086
55	0x3a5a	0.794
56	0x3683	0.407
57	0xb456	-0.271
58	0xb43f	-0.2654
59	0x2645	0.02449
60	0xb907	-0.6284
61	0xb8e9	-0.614
62	0xa735	-0.02815
63	0x32ab	0.2084
64	0xbaf0	-0.867
65	0x37f2	0.4966
66	0x3ad9	0.856
67	0x3a20	0.7656
68	0x3e05	1.505
69	0x3cb8	1.18
70	0xb790	-0.4727
71	0xb9ea	-0.7393
72	0x333f	0.2264
73	0xb65c	-0.3975
74	0xb621	-0.383
75	0x39e3	0.736
76	0x348b	0.284
77	0x381e	0.5146
78	0x2d23	0.08026
79	0x387d	0.561
80	0x3766	0.4624
81	0x2817	0.03195
82	0xbbd3	-0.978
83	0x3d1f	1.28
84	0xbbc1	-0.969
85	0xbdd7	-1.46
86	0xae6c	-0.10034
87	0x388b	0.568
88	0xb943	-0.6577
89	0xba00	-0.75
90	0xb6f2	-0.434
91	0xbb2a	-0.8955
92	0x3d8d	1.388
93	0xadc4	-0.0901
94	0x311f	0.16
95	0xba0a	-0.755
96	0xbdeb	-1.4795
97	0xbf9a	-1.9
98	0x3f5a	1.838
99	0xb7c3	-0.485
100	0xbd71	-1.36
101	0x33c5	0.2428
102	0x3b9c	0.951
103	0xb90c	-0.631
104	0xbbd2	-0.9775
105	0x3708	0.4395
106	0x33b7	0.2411
107	0xbafb	-0.8726
108	0x3885	0.565
109	0x3d1a	1.275
110	0x3d3e	1.311
111	0xb429	-0.26
112	0xba92	-0.8213
113	0xb552	-0.3325
114	0x380e	0.507
115	0x2e87	0.102
116	0x3687	0.408
117	0x3a7e	0.8115
118	0x3d2b	1.292
119	0x3149	0.1652
120	0xb95e	-0.671
121	0x2ea8	0.104
122	0x38f8	0.621
123	0x31ab	0.1771
124	0x3a8f	0.82
125	0x3c84	1.129
126	0x3d33	1.3
127	0x37ef	0.4958
128	0x3953	0.6655
129	0x34af	0.2927
130	0xb0f1	-0.1544
131	0x3a0b	0.7554
132	0x3980	0.6875
133	0xa45a	-0.017
134	0xbbc0	-0.9688
135	0xbed8	-1.711
136	0xabf2	-0.06207
137	0xbc7d	-1.122
138	0xb184	-0.1724
139	0xbb7f	-0.937
140	0x2c01	0.06256
141	0xbd0f	-1.265
142	0x2065	0.00858
143	0xbcf5	-1.239
144	0x3b52	0.915
145	0xb9ed	-0.7407
146	0x3539	0.3264
147	0x3d04	1.254
148	0xbbf3	-0.9937
149	0x3b88	0.9414
150	0x3b70	0.9297
151	0xb7d1	-0.4885
152	0xb964	-0.674
153	0xbb32	-0.8994
154	0x3cf1	1.235
155	0x31fd	0.1871
156	0x3fb6	1.928
157	0xba3d	-0.78
158	0x3d09	1.259
159	0x3cc5	1.192
160	0xbdbc	-1.434
161	0xb62f	-0.3865
162	0x385d	0.5454
163	0xb6db	-0.4285
164	0xb0d5	-0.151
165	0x37f6	0.4976
166	0x3761	0.4612
167	0x38ec	0.615
168	0x3a21	0.766
169	0x39d2	0.7275
170	0x2667	0.02501
171	0x3434	0.2627
172	0xbb5d	-0.9204
173	0x3870	0.5547
174	0x35dc	0.3662
175	0xbb5e	-0.921
176	0x3b90	0.9453
177	0x34f3	0.3093
178	0x3e34	1.551
179	0x3819	0.512
180	0xba47	-0.7847
181	0xbd7c	-1.371
182	0xb13b	-0.1635
183	0x39f3	0.7437
184	0x2ea6	0.1039
185	0x39a5	0.7056
186	0x3f87	1.882
187	0x2283	0.01272
188	0x3555	0.3333
189	0x2d2b	0.08075
190	0x3e71	1.61
191	0x3c9a	1.15
192	0x354b	0.3308
193	0x31d1	0.1818
194	0xb136	-0.1628
195	0x3608	0.377
196	0xbbb6	-0.964
197	0xad29	-0.0806
198	0xa737	-0.02818
199	0xa01f	-0.00805
200	0xb466	-0.275
201	0xb4c6	-0.2983
202	0xaa81	-0.0508
203	0xb289	-0.2042
204	0xb57f	-0.3435
205	0xb7d0	-0.4883
206	0xb606	-0.3765
207	0xb736	-0.4507
208	0x3c44	1.066
209	0xc017	-2.045
210	0x3b3f	0.906
211	0x38b2	0.587
212	0xb770	-0.4648
213	0xb554	-0.333
214	0x181c	0.002007
215	0x3dce	1.451
216	0xb4bf	-0.2966
217	0xbb35	-0.901
218	0xbc73	-1.112
219	0xb922	-0.6416
220	0x37bf	0.4841
221	0xa4e3	-0.01909
222	0x38b1	0.5864
223	0x3bcf	0.976
224	0x3ec1	1.688
225	0xb84f	-0.5386
226	0x2f63	0.1154
227	0x3bf0	0.992
228	0xbc54	-1.082
229	0xb739	-0.4514
230	0x3936	0.6514
231	0x3716	0.4429
232	0x34ac	0.292
233	0x3834	0.5254
234	0xba9a	-0.825
235	0xbb0d	-0.8813
236	0x3c7d	1.122
237	0x3826	0.5186
238	0x3946	0.659
239	0x3cd2	1.205
240	0x2da4	0.08813
241	0xb56f	-0.3396
242	0x3859	0.5435
243	0xbc6b	-1.1045
244	0xaffb	-0.1247
245	0x3a06	0.753
246	0xb967	-0.6753
247	0xbbe0	-0.9844
248	0xb469	-0.2756
249	0x388a	0.5674
250	0xbb3a	-0.9033
251	0x3c5b	1.089
252	0xbd27	-1.288
253	0x3ba7	0.9565
254	0x3c66	1.1
255	0xbf60	-1.844

onnx::Conv_93 f2 [32]
0	0x2bd1	0.06107
1	0xb578	-0.3418
2	0xb158	-0.167
3	0xb15f	-0.1678
4	0x3bb5	0.9634
5	0xb624	-0.3838
6	0xae55	-0.09894
7	0xb9af	-0.7104
8	0xb60c	-0.378
9	0x3587	0.3455
10	0x3207	0.1884
11	0x3546	0.3296
12	0xb848	-0.535
13	0xb91d	-0.639
14	0xb86a	-0.552
15	0x3ab2	0.837
16	0xb502	-0.313
17	0xb6ed	-0.4329
18	0xb93a	-0.6533
19	0xb79d	-0.4758
20	0xb4dc	-0.3037
21	0xb763	-0.4617
22	0x346f	0.277
23	0xb45d	-0.2727
24	0xaf0b	-0.11005
25	0xb4f2	-0.309
26	0xb675	-0.4036
27	0x31fd	0.1871
28	0xb6d2	-0.4263
29	0xb51d	-0.3196
30	0xb7a9	-0.4788
31	0xb2ee	-0.2166

onnx::Conv_95 f2 [64, 32, 3, 3]
0	0x1c75	0.004353
1	0x2640	0.02441
2	0x20a2	0.00905
3	0x242b	0.01628
4	0x2464	0.01715
5	0x202a	0.00813
6	0x2769	0.02895
7	0x2581	0.0215
8	0x2469	0.01723
9	0x1690	0.001602
10	0xa043	-0.00832
11	0xa16b	-0.01058
12	0x2339	0.01411
13	0x9662	-0.001558
14	0x1155	0.000651
15	0x9764	-0.001804
16	0x9c04	-0.00392
17	0xa187	-0.010796
18	0x1cdf	0.004757
19	0xa30f	-0.01379
20	0xa677	-0.02525
21	0x1288	0.0007973
22	0xa4fa	-0.01944
23	0xa5c8	-0.02258
24	0xa0f9	-0.00971
25	0xa64e	-0.02463
26	0xa848	-0.03345
27	0xa2b4	-0.01309
28	0x9e7c	-0.006332
29	0x9d66	-0.005272
30	0xa4e8	-0.01917
31	0xa3e6	-0.01543
32	0xa623	-0.02397
33	0xa461	-0.0171
34	0xa4e0	-0.01904
35	0x9f5e	-0.007195
36	0x9ce3	-0.004772
37	0x1f80	0.007324
38	0xa2d5	-0.01334
39	0xa000	-0.007812
40	0x1cec	0.004807
41	0x9903	-0.002447
42	0x18f4	0.002419
43	0x1e77	0.006313
44	0x9e48	-0.006134
45	0x9656	-0.001547
46	0xa37e	-0.01463
47	0xa616	-0.02377
48	0xa0ad	-0.00913
49	0xa32d	-0.014015
50	0xa1e9	-0.01154
51	0x86cb	-0.00010365
52	0x9d53	-0.0052
53	0x9931	-0.002535
54	0xa63e	-0.02438
55	0xa432	-0.01639
56	0xa3bd	-0.015114
57	0xa506	-0.01962
58	0xa2d3	-0.01333
59	0x9d69	-0.005283
60	0xa312	-0.01381
61	0xa1e8	-0.011536
62	0x1655	0.001546
63	0x9c21	-0.004032
64	0x1345	0.0008874
65	0xa239	-0.01215
66	0x260a	0.02359
67	0x23d8	0.01532
68	0x92ba	-0.000821
69	0x23cd	0.015236
70	0x149c	0.001125
71	0xa4d2	-0.01883
72	0xa022	-0.00807
73	0x9faa	-0.007484
74	0xa456	-0.01694
75	0x9e2f	-0.00604
76	0x8e00	-0.0003662
77	0xa48a	-0.01773
78	0x9d7d	-0.00536
79	0x9ea9	-0.006504
80	0x1a3c	0.003044
81	0x0e61	0.0003893
82	0xa085	-0.00883
83	0x9e38	-0.006073
84	0x19d5	0.002848
85	0xa210	-0.01184
86	0x9c97	-0.004482
87	0xa556	-0.02084
88	0x1764	0.001804
89	0x9440	-0.001038
90	0xa2c6	-0.01323
91	0x1cb6	0.0046
92	0x1cda	0.004738
93	0xa428	-0.01624
94	0x19ad	0.002771
95	0x2481	0.0176
96	0x9ea5	-0.00649
97	0x123a	0.00076
98	0x2067	0.0086
99	0x2080	0.00879
100	0x2352	0.0143
101	0x24c9	0.01869
102	0x1bba	0.003773
103	0x1d88	0.0054
104	0x2140	0.010254
105	0x9f21	-0.00696
106	0x1cd2	0.004707
107	0x24e8	0.01917
108	0x9b53	-0.003576
109	0xa024	-0.00809
110	0xa315	-0.01383
111	0x235f	0.0144
112	0x1c5a	0.00425
113	0xa115	-0.009926
114	0x200d	0.00791
115	0x98b0	-0.002289
116	0xa12b	-0.01009
117	0x2215	0.01188
118	0x2401	0.01564
119	0xa01b	-0.00802
120	0x2166	0.010544
121	0x9e8a	-0.006386
122	0xa4ee	-0.01926
123	0x98f8	-0.002426
124	0xa330	-0.01404
125	0xa37e	-0.01463
126	0xa051	-0.00843
127	0xa2be	-0.01317
128	0x9dcd	-0.005665
129	0xa54a	-0.02066
130	0xa5ab	-0.02214
131	0xa029	-0.008125
132	0xa450	-0.01685
133	0xa5e5	-0.02303
134	0x1c96	0.00448
135	0x2081	0.0088
136	0x1e9e	0.006462
137	0x2368	0.014465
138	0x1c96	0.00448
139	0x1fc7	0.007595
140	0x1e6a	0.006264
141	0x16cf	0.001662
142	0x9b99	-0.00371
143	0x1103	0.000612
144	0xa23d	-0.012184
145	0xa210	-0.01184
146	0x98e5	-0.00239
147	0xa28e	-0.0128
148	0x1537	0.001273
149	0x9d62	-0.005257
150	0x1ddc	0.005722
151	0x2002	0.00783
152	0x21ac	0.01108
153	0xa16e	-0.010605
154	0xa1de	-0.01146
155	0xa002	-0.00783
156	0x9de3	-0.00575
157	0xa128	-0.01007
158	0xa0f9	-0.00971
159	0x2217	0.011894
160	0x161c	0.001492
161	0xa37b	-0.01461
162	0x9a55	-0.003092
163	0x2117	0.00994
164	0x2436	0.01645
165	0x9b10	-0.003448
166	0x1cc6	0.00466
167	0x243b	0.01653
168	0x2070	0.00867
169	0x2264	0.01248
170	0x22e2	0.01344
171	0x10ef	0.0006022
172	0x1f4e	0.007133
173	0x1e5d	0.006214
174	0x9b4d	-0.003565
175	0x2209	0.01179
176	0x9d02	-0.00489
177	0x2040	0.0083
178	0x9c54	-0.004227
179	0x9f87	-0.00735
180	0x2101	0.00977
181	0x1f42	0.007088
182	0x24cb	0.01872
183	0x966f	-0.001571
184	0x1c81	0.0044
185	0x1ce6	0.004784
186	0x208a	0.008865
187	0x22fb	0.01363
188	0x1d5c	0.005234
189	0xa406	-0.01572
190	0xa1fa	-0.01167
191	0xa3ff	-0.01562
192	0x1db0	0.005554
193	0x9c72	-0.00434
194	0x99e5	-0.002878
195	0xa0a4	-0.00906
196	0x9ef8	-0.006805
197	0x9fb2	-0.007515
198	0x9919	-0.00249
199	0x9896	-0.00224
200	0x1973	0.00266
201	0x9841	-0.002077
202	0xa021	-0.008064
203	0x1eb6	0.006554
204	0xa059	-0.00849
205	0x1806	0.001965
206	0x2159	0.010445
207	0x9c71	-0.004337
208	0x2128	0.01007
209	0x1c27	0.004055
210	0x20f0	0.00964
211	0x1b13	0.003454
212	0x1d6a	0.005287
213	0x9f6e	-0.007256
214	0xa15f	-0.01049
215	0x97bb	-0.001887
216	0x21d9	0.01142
217	0x2196	0.01091
218	0x15ae	0.001387
219	0x2016	0.00798
220	0x1ca2	0.004524
221	0x1156	0.0006514
222	0x99e5	-0.002878
223	0x9c01	-0.00391
224	0x9f0c	-0.00688
225	0x1c38	0.00412
226	0x14b2	0.001146
227	0x1f63	0.007214
228	0x191d	0.002497
229	0x1e0e	0.005913
230	0x1265	0.0007806
231	0x823a	-3.4e-05
232	0x9c90	-0.004456
233	0x1caa	0.004555
234	0x1ef7	0.0068
235	0x21d1	0.01136
236	0x1f2c	0.007004
237	0x9f15	-0.006916
238	0x19ed	0.002893
239	0x1ecf	0.00665
240	0xa014	-0.007965
241	0x92ea	-0.000844
242	0x14ac	0.001141
243	0x9e3d	-0.006092
244	0x1d8c	0.005417
245	0x1e90	0.00641
246	0x1df1	0.005802
247	0x1e5f	0.00622
248	0x1d1b	0.004986
249	0x20e9	0.00959
250	0x994c	-0.002586
251	0x9917	-0.002485
252	0x9e62	-0.006233
253	0xa182	-0.01076
254	0xa1cb	-0.011314
255	0x930a	-0.0008593

onnx::Conv_96 f2 [64]
0	0xaa83	-0.05087
1	0xa6c3	-0.02641
2	0xb1b2	-0.178
3	0xb507	-0.3142
4	0x3942	0.657
5	0x2e11	0.0948
6	0xac25	-0.06476
7	0x2925	0.0402
8	0xb42e	-0.2612
9	0xb875	-0.557
10	0x368c	0.4092
11	0xad26	-0.08044
12	0x348c	0.2842
13	0xb1d9	-0.1827
14	0xb483	-0.282
15	0xac56	-0.06775
16	0xb022	-0.1292
17	0xaf00	-0.1094
18	0x3197	0.1747
19	0xb204	-0.188
20	0xb51c	-0.3193
21	0xb72e	-0.4487
22	0x3007	0.1259
23	0xa1bb	-0.01119
24	0xac2a	-0.06506
25	0x9910	-0.002472
26	0xb10e	-0.158
27	0xacfd	-0.07794
28	0x1cc0	0.00464
29	0xb28e	-0.2048
30	0xad86	-0.0863
31	0xb389	-0.2355
32	0x3226	0.1921
33	0xab8c	-0.05896
34	0x30c9	0.1495
35	0xb1de	-0.1833
36	0xac1c	-0.0642
37	0x2dd1	0.0909
38	0x36a6	0.4155
39	0xb010	-0.127
40	0xa3ce	-0.01524
41	0x32dc	0.2144
42	0x379a	0.475
43	0x302c	0.1304
44	0xaa10	-0.04736
45	0xab32	-0.0562
46	0xaf6a	-0.11584
47	0xaeba	-0.1051
48	0xb501	-0.3127
49	0x3276	0.2019
50	0xa9d5	-0.04556
51	0x3012	0.1272
52	0xa479	-0.01747
53	0x2db9	0.0894
54	0xad9e	-0.08777
55	0xb43d	-0.265
56	0xb5c3	-0.36
57	0x3556	0.3335
58	0xa982	-0.04303
59	0xaa2d	-0.04825
60	0xa91b	-0.0399
61	0xb0b1	-0.1466
62	0xb147	-0.1649
63	0xa9cf	-0.04538

onnx::Conv_98 f2 [64, 1, 3, 3]
0	0xbf78	-1.867
1	0xbdb2	-1.424
2	0xc0ad	-2.338
3	0xbab2	-0.837
4	0x3157	0.1669
5	0x3315	0.2213
6	0x36aa	0.4165
7	0xb1b5	-0.1783
8	0xba26	-0.7686
9	0x36e4	0.4307
10	0x350b	0.3152
11	0x2f47	0.1137
12	0x33df	0.246
13	0xabb7	-0.06027
14	0x33a0	0.2383
15	0x37ad	0.4797
16	0xb018	-0.1279
17	0x970c	-0.00172
18	0xb788	-0.4707
19	0x37fb	0.4988
20	0x3c02	1.002
21	0xba14	-0.76
22	0xb853	-0.5405
23	0xb3bb	-0.2416
24	0x37f2	0.4966
25	0xb779	-0.467
26	0xb7d5	-0.4895
27	0x32d4	0.2134
28	0xb29e	-0.2068
29	0xae2f	-0.0966
30	0x338e	0.2361
31	0x24ca	0.0187
32	0x31df	0.1835
33	0x381d	0.514
34	0xa945	-0.04117
35	0x3953	0.6655
36	0x3f39	1.806
37	0xb60f	-0.3787
38	0x339a	0.2375
39	0x4130	2.594
40	0xb108	-0.1572
41	0x2f40	0.1133
42	0x2cbb	0.0739
43	0x3305	0.2194
44	0x3177	0.1708
45	0x3b39	0.903
46	0xb860	-0.547
47	0x3ce2	1.221
48	0xb488	-0.2832
49	0x296d	0.0424
50	0xb004	-0.1255
51	0xbc47	-1.069
52	0xb8b9	-0.5903
53	0xbba9	-0.9575
54	0xbc1c	-1.027
55	0xbada	-0.8564
56	0xbac9	-0.848
57	0xae23	-0.0959
58	0x20ed	0.00962
59	0x3490	0.2852
60	0x3abf	0.8433
61	0xb9a5	-0.7056
62	0x399e	0.702
63	0xb73a	-0.4517
64	0xb876	-0.5576
65	0xab39	-0.05643
66	0xb3c7	-0.243
67	0xb052	-0.135
68	0xac86	-0.0707
69	0x3887	0.566
70	0xb44d	-0.2688
71	0xb8b8	-0.59
72	0x3709	0.4397
73	0xbb83	-0.939
74	0x3c2c	1.043
75	0x3f0a	1.76
76	0xbd03	-1.253
77	0x3d1f	1.28
78	0x2616	0.02377
79	0x3998	0.699
80	0x3af1	0.8677
81	0x35e8	0.3691
82	0x3401	0.2502
83	0x39a2	0.704
84	0xa2dd	-0.013405
85	0x1e01	0.005863
86	0xb188	-0.1729
87	0x34c8	0.2988
88	0xa889	-0.03543
89	0x355b	0.3347
90	0xb40b	-0.2527
91	0x3032	0.1311
92	0x38fc	0.623
93	0xb90d	-0.6313
94	0xb521	-0.3206
95	0xb45e	-0.273
96	0xbb9a	-0.95
97	0xb888	-0.5664
98	0x3565	0.3372
99	0xbb6f	-0.929
100	0xba59	-0.7935
101	0xbbec	-0.99
102	0xbdac	-1.418
103	0xb72d	-0.4485
104	0xbd0c	-1.262
105	0xbc86	-1.131
106	0x3991	0.696
107	0xb446	-0.267
108	0x42d8	3.422
109	0xc056	-2.168
110	0x4028	2.078
111	0xc019	-2.049
112	0x4004	2.008
113	0xb79a	-0.475
114	0x40c9	2.393
115	0xb76d	-0.464
116	0x4406	4.023
117	0x368e	0.4097
118	0xc29a	-3.3
119	0x432a	3.582
120	0x4121	2.564
121	0xbb9c	-0.951
122	0x3f83	1.878
123	0x2b9b	0.05942
124	0xb864	-0.549
125	0x3d99	1.399
126	0xb640	-0.3906
127	0xb0b1	-0.1466
128	0x3c06	1.006
129	0xb399	-0.2374
130	0x359b	0.3503
131	0xb7f6	-0.4976
132	0xb95b	-0.6694
133	0xb2ff	-0.2186
134	0xb8fa	-0.622
135	0x3bac	0.959
136	0xb563	-0.3367
137	0x3e50	1.578
138	0x4487	4.527
139	0xbd38	-1.305
140	0xb585	-0.345
141	0xbacd	-0.85
142	0x43cc	3.898
143	0xbeb0	-1.672
144	0xc443	-4.26
145	0xc0f5	-2.479
146	0xc116	-2.543
147	0xc36c	-3.71
148	0xc115	-2.541
149	0x3efb	1.745
150	0xc25f	-3.186
151	0xb985	-0.69
152	0xbcc6	-1.193
153	0x36a2	0.4146
154	0x24ae	0.01828
155	0x3242	0.1956
156	0xaf59	-0.1148
157	0xbb27	-0.894
158	0xb592	-0.3481
159	0x2ed6	0.1068
160	0x3a9c	0.826
161	0xb776	-0.4663
162	0xb562	-0.3364
163	0xb437	-0.2634
164	0x35f4	0.372
165	0xb7ee	-0.4956
166	0xb133	-0.1625
167	0xb55e	-0.3354
168	0xb6c0	-0.4219
169	0xb4fc	-0.3115
170	0x336f	0.2323
171	0x34a2	0.2896
172	0xade2	-0.0919
173	0xac34	-0.0657
174	0x3abf	0.8433
175	0xbb6c	-0.9277
176	0xb878	-0.5586
177	0x3c6b	1.1045
178	0xae0d	-0.09454
179	0x3cea	1.229
180	0xb4a0	-0.289
181	0xb487	-0.283
182	0xbb8b	-0.943
183	0xb8bc	-0.592
184	0xaf44	-0.1135
185	0xb56a	-0.3384
186	0x33f4	0.2485
187	0xb251	-0.1974
188	0x3697	0.4119
189	0xb9c1	-0.719
190	0xbb10	-0.883
191	0x113b	0.0006385
192	0xb59b	-0.3503
193	0xba08	-0.754
194	0x34df	0.3044
195	0x37c0	0.4844
196	0x35f4	0.372
197	0x32b8	0.21
198	0x4168	2.703
199	0xc01a	-2.05
200	0x4053	2.162
201	0xbef2	-1.736
202	0x4206	3.012
203	0xba98	-0.824
204	0x3ac1	0.844
205	0x41ec	2.96
206	0x3aac	0.834
207	0x37cb	0.487
208	0x3a2f	0.773
209	0xaffd	-0.1248
210	0xb45e	-0.273
211	0xb888	-0.5664
212	0xb696	-0.4116
213	0xbc33	-1.05
214	0xbbaa	-0.958
215	0xb49b	-0.2878
216	0x4367	3.701
217	0xc2ef	-3.467
218	0xc038	-2.11
219	0xc09c	-2.305
220	0xb565	-0.3372
221	0xbe4f	-1.577
222	0xc1bc	-2.867
223	0xc0fb	-2.49
224	0xc2ea	-3.457
225	0x3f48	1.82
226	0x3f2f	1.796
227	0x3cb7	1.179
228	0xb166	-0.1687
229	0x3858	0.543
230	0xbe56	-1.584
231	0xbc04	-1.004
232	0xbd42	-1.314
233	0xbe56	-1.584
234	0xac38	-0.0659
235	0x339d	0.2379
236	0x37de	0.4917
237	0x3caf	1.171
238	0xb5d1	-0.3635
239	0xb4ad	-0.2922
240	0xb472	-0.2778
241	0x32be	0.2107
242	0x3150	0.166
243	0x20a5	0.00907
244	0x395c	0.67
245	0x40c0	2.375
246	0xc05a	-2.176
247	0xbdba	-1.432
248	0xc0d2	-2.41
249	0xb257	-0.1981
250	0xbeb2	-1.674
251	0xb89a	-0.575
252	0x36a9	0.4163
253	0xb4a3	-0.2898
254	0xadf2	-0.0929
255	0xb6b9	-0.4202

onnx::Conv_99 f2 [64]
0	0x3a2f	0.773
1	0xbba1	-0.9536
2	0x379c	0.4756
3	0xbcdd	-1.216
4	0xc25f	-3.186
5	0x3972	0.6807
6	0x3880	0.5625
7	0x38a6	0.581
8	0xb875	-0.557
9	0xbdcb	-1.448
10	0x3cf0	1.234
11	0x3b3c	0.9043
12	0xc0f5	-2.479
13	0xaf29	-0.1119
14	0x3873	0.556
15	0xb3e2	-0.2463
16	0x3926	0.6436
17	0x3228	0.1924
18	0x3b94	0.9473
19	0xb910	-0.633
20	0x3768	0.463
21	0x3a76	0.8076
22	0xbcdc	-1.215
23	0x3add	0.858
24	0x35f5	0.3723
25	0x31f8	0.1865
26	0xb8ca	-0.5986
27	0x393d	0.655
28	0x3250	0.1973
29	0x3b44	0.908
30	0x3940	0.6562
31	0xb5f7	-0.3728
32	0xbbb1	-0.9614
33	0x33a3	0.2386
34	0xb96f	-0.679
35	0x385f	0.5464
36	0x32d4	0.2134
37	0x36a7	0.4158
38	0x31dc	0.1831
39	0x2c91	0.07135
40	0x3d38	1.305
41	0x390f	0.6323
42	0xc48e	-4.555
43	0xb5dc	-0.3662
44	0x3128	0.1611
45	0x30b5	0.1471
46	0xab50	-0.05713
47	0xb6c4	-0.4229
48	0x39df	0.734
49	0x404f	2.154
50	0x37b6	0.482
51	0x3c1f	1.03
52	0xb5aa	-0.354
53	0xb9a3	-0.7046
54	0x35f5	0.3723
55	0x3c9b	1.151
56	0x3b4c	0.912
57	0xc045	-2.135
58	0xbb46	-0.909
59	0x357a	0.3423
60	0x3813	0.5093
61	0xb6b0	-0.418
62	0xb3ef	-0.2479
63	0xbbfb	-0.9976

onnx::Conv_101 f2 [64, 1, 3, 3]
0	0xae0c	-0.0945
1	0xa0d1	-0.00941
2	0xb0c8	-0.1494
3	0xb925	-0.643
4	0x2d6a	0.0846
5	0xb473	-0.278
6	0x3c93	1.144
7	0x3fb9	1.931
8	0xbb9e	-0.952
9	0x2b6d	0.058
10	0xb0fe	-0.156
11	0x3005	0.1256
12	0x2a76	0.05048
13	0xafd9	-0.1226
14	0xb342	-0.2268
15	0xae2d	-0.0965
16	0xac03	-0.0627
17	0x28d5	0.03775
18	0xad67	-0.0844
19	0xa30b	-0.013756
20	0xb3da	-0.2454
21	0x2a13	0.04745
22	0xb639	-0.389
23	0xb816	-0.5107
24	0x3093	0.143
25	0x284c	0.03357
26	0xb3f9	-0.2491
27	0xb54c	-0.331
28	0xb5bc	-0.3584
29	0x3555	0.3333
30	0x289b	0.03598
31	0xafdc	-0.1228
32	0x35cc	0.3623
33	0xa564	-0.02106
34	0xb2e0	-0.2148
35	0x35c6	0.3608
36	0x2f0d	0.11017
37	0x2ffd	0.1248
38	0x3541	0.3284
39	0xb41c	-0.2568
40	0x258c	0.02167
41	0x2e21	0.09576
42	0xae2f	-0.0966
43	0x31a3	0.1761
44	0x32ac	0.2085
45	0xaccb	-0.0749
46	0x2756	0.02866
47	0xae78	-0.1011
48	0x3715	0.4426
49	0x35f3	0.3718
50	0x9fd7	-0.007656
51	0xad5c	-0.08374
52	0x9d0b	-0.004925
53	0xb4c9	-0.299
54	0x1d71	0.005314
55	0x21b1	0.011116
56	0x349d	0.2883
57	0x30ce	0.1501
58	0x3793	0.4734
59	0xaf17	-0.1108
60	0x363b	0.3894
61	0xac9b	-0.07196
62	0x302f	0.1307
63	0xa8ff	-0.03903
64	0x3346	0.2273
65	0x38c4	0.5957
66	0x2e03	0.09393
67	0xb19a	-0.175
68	0xb34c	-0.228
69	0x2ffc	0.12476
70	0xaf1b	-0.111
71	0x314e	0.1658
72	0x3462	0.274
73	0xb638	-0.3887
74	0xb928	-0.6445
75	0xb7b6	-0.482
76	0x2671	0.02516
77	0xb1e4	-0.1841
78	0xa954	-0.04163
79	0x3130	0.1621
80	0xaa3c	-0.0487
81	0x2c67	0.0688
82	0x2df0	0.0928
83	0x3496	0.2866
84	0x2736	0.02817
85	0xac7b	-0.07
86	0x2edf	0.10736
87	0xa6f8	-0.02722
88	0xaf8e	-0.11804
89	0xaa11	-0.0474
90	0x300e	0.1267
91	0x2c3d	0.0662
92	0xa81e	-0.03217
93	0x33df	0.246
94	0x2d81	0.086
95	0xaf67	-0.11566
96	0x3507	0.3142
97	0x2cc6	0.0746
98	0xae57	-0.09906
99	0x3b3a	0.9033
100	0x31bb	0.1791
101	0x3834	0.5254
102	0x37d2	0.4888
103	0xa7c0	-0.03027
104	0xb896	-0.573
105	0xb196	-0.1746
106	0xaa0b	-0.0472
107	0x2f07	0.1098
108	0xb9de	-0.7334
109	0xbab0	-0.836
110	0xbb7b	-0.935
111	0x3bdb	0.982
112	0x384c	0.537
113	0x3629	0.385
114	0xa031	-0.00819
115	0x3b46	0.909
116	0x3ae8	0.8633
117	0x369a	0.4126
118	0xb6f7	-0.4353
119	0xb903	-0.6265
120	0xb67b	-0.405
121	0x3928	0.6445
122	0x35ff	0.3748
123	0x3c99	1.149
124	0xa461	-0.0171
125	0x3cb1	1.173
126	0xb405	-0.2512
127	0x3047	0.1337
128	0xb501	-0.3127
129	0xafca	-0.1217
130	0x3408	0.252
131	0xb199	-0.1749
132	0xb3d2	-0.2444
133	0xacc4	-0.07446
134	0xb1b3	-0.1781
135	0x3cb8	1.18
136	0x386a	0.552
137	0x39dc	0.7324
138	0x364f	0.3943
139	0x364e	0.394
140	0x3716	0.4429
141	0xaf05	-0.1097
142	0x37c7	0.486
143	0x3403	0.2507
144	0x3d4c	1.324
145	0x3c56	1.084
146	0xbc1f	-1.03
147	0x3dec	1.48
148	0x3f66	1.85
149	0xb41b	-0.2566
150	0xbc59	-1.087
151	0x3d62	1.346
152	0xb569	-0.3381
153	0xa506	-0.01962
154	0x2573	0.02129
155	0x2e4b	0.0983
156	0x1c81	0.0044
157	0xb0ce	-0.1501
158	0xb545	-0.3293
159	0xb081	-0.1407
160	0x2f15	0.11066
161	0xb5a0	-0.3516
162	0x2c09	0.06305
163	0x31ce	0.1814
164	0x3169	0.1691
165	0xb2c3	-0.2113
166	0xb024	-0.1294
167	0x2dde	0.0917
168	0xb42d	-0.261
169	0x303f	0.1327
170	0xadc9	-0.0904
171	0x2e47	0.0981
172	0xb5f7	-0.3728
173	0x324b	0.1967
174	0x34e0	0.3047
175	0x31ca	0.1809
176	0xb179	-0.171
177	0x35a4	0.3525
178	0x3039	0.132
179	0x332f	0.2245
180	0x3443	0.2664
181	0xa304	-0.0137
182	0x2e74	0.1008
183	0x2951	0.04153
184	0x315c	0.1675
185	0x3520	0.3203
186	0xb570	-0.3398
187	0xb877	-0.558
188	0xb533	-0.325
189	0x900a	-0.000493
190	0xa632	-0.0242
191	0xae7f	-0.1015
192	0xb022	-0.1292
193	0xb1cc	-0.1812
194	0x269f	0.02586
195	0xb115	-0.1588
196	0xad9c	-0.08765
197	0xaffd	-0.1248
198	0x388a	0.5674
199	0x3652	0.395
200	0x3119	0.1593
201	0x3206	0.1882
202	0x39c7	0.722
203	0xb4ee	-0.308
204	0x383e	0.5303
205	0x2678	0.02527
206	0xb889	-0.567
207	0x372a	0.4478
208	0x20e6	0.00957
209	0x3435	0.263
210	0xa9bf	-0.0449
211	0xb7ee	-0.4956
212	0xb371	-0.2325
213	0xb8f1	-0.6177
214	0x907d	-0.000548
215	0x31f2	0.1858
216	0xbd9b	-1.401
217	0x3fb7	1.929
218	0xbc27	-1.038
219	0xbce8	-1.227
220	0xbed0	-1.703
221	0xb6ce	-0.4253
222	0xbcba	-1.182
223	0xb8ae	-0.585
224	0xaced	-0.07697
225	0xb82e	-0.5225
226	0xba3f	-0.781
227	0xb6a3	-0.4148
228	0x3709	0.4397
229	0x3ae1	0.86
230	0xb4d9	-0.303
231	0xac2f	-0.06537
232	0xb92d	-0.647
233	0xbbf4	-0.994
234	0x14c3	0.001163
235	0x2f58	0.11475
236	0x310d	0.1578
237	0xb4e6	-0.3062
238	0x2f39	0.11285
239	0xa8e6	-0.03827
240	0xb1b1	-0.1779
241	0xb4e5	-0.306
242	0x3450	0.2695
243	0x3c6b	1.1045
244	0x34a1	0.2893
245	0x3d62	1.346
246	0x3b2a	0.8955
247	0xbaf2	-0.868
248	0xaf51	-0.1143
249	0x32a7	0.2079
250	0xbce4	-1.223
251	0xb561	-0.3362
252	0x27fe	0.03122
253	0xac47	-0.06683
254	0xac34	-0.0657
255	0x24da	0.01895

onnx::Conv_102 f2 [64]
0	0xafa9	-0.1197
1	0x3451	0.2698
2	0x3015	0.1276
3	0xb256	-0.198
4	0xb729	-0.4475
5	0xac12	-0.0636
6	0xb4ab	-0.2917
7	0xb28f	-0.205
8	0x327b	0.2025
9	0xb4a1	-0.2893
10	0xb69f	-0.4138
11	0xb2ac	-0.2085
12	0xb6a3	-0.4148
13	0xb2d6	-0.2136
14	0x3429	0.26
15	0xb4c6	-0.2983
16	0xb0b9	-0.1476
17	0x354e	0.3315
18	0x21ea	0.01155
19	0xb51b	-0.319
20	0x2d67	0.0844
21	0x3527	0.322
22	0xb5d7	-0.365
23	0x32ca	0.2122
24	0x2cf1	0.0772
25	0x3518	0.3184
26	0x33c4	0.2427
27	0xad70	-0.08496
28	0x32e6	0.2156
29	0x34db	0.3035
30	0xb0b4	-0.147
31	0x332d	0.2242
32	0xb2b4	-0.2095
33	0xaf81	-0.11725
34	0x2ecc	0.1062
35	0xb093	-0.143
36	0xb427	-0.2595
37	0x2875	0.03482
38	0xb3a3	-0.2386
39	0xb48c	-0.2842
40	0x32ee	0.2166
41	0x32f8	0.2178
42	0xb6f0	-0.4336
43	0x35db	0.366
44	0xb12f	-0.162
45	0xb2f5	-0.2174
46	0xb363	-0.2308
47	0x314a	0.1653
48	0x3229	0.1925
49	0xb835	-0.526
50	0xb454	-0.2705
51	0x3522	0.3208
52	0x2ad9	0.0535
53	0xb589	-0.346
54	0x2e97	0.10297
55	0xb2f1	-0.2169
56	0x3484	0.2822
57	0x349e	0.2886
58	0x3451	0.2698
59	0xb44d	-0.2688
60	0xb43c	-0.2646
61	0xb3ad	-0.2399
62	0x31e8	0.1846
63	0x3290	0.2051

onnx::Conv_104 f2 [32, 128, 1, 1]
0	0xb5a1	-0.3518
1	0x2634	0.02423
2	0xb110	-0.1582
3	0x296d	0.0424
4	0x2d81	0.086
5	0xb52d	-0.3235
6	0x3496	0.2866
7	0x302c	0.1304
8	0x33a8	0.2393
9	0xac09	-0.06305
10	0xb327	-0.2235
11	0x95fb	-0.00146
12	0xa5a1	-0.02199
13	0x340b	0.2527
14	0xb017	-0.1278
15	0xad95	-0.0872
16	0xb4fd	-0.3118
17	0xb189	-0.173
18	0xb556	-0.3335
19	0x30b8	0.1475
20	0x2b02	0.05475
21	0x2a82	0.05084
22	0xa619	-0.02382
23	0x2d40	0.08203
24	0x2ac0	0.05273
25	0x1f8f	0.00738
26	0xb19a	-0.175
27	0xacaa	-0.0729
28	0xb417	-0.2556
29	0x3683	0.407
30	0xb074	-0.1392
31	0x3074	0.1392
32	0x2ed0	0.10645
33	0x3246	0.196
34	0x3165	0.1686
35	0x25c3	0.0225
36	0xb308	-0.2197
37	0xaa8b	-0.05112
38	0xaf92	-0.1183
39	0x340f	0.2537
40	0x31ef	0.1854
41	0xb124	-0.1606
42	0xb16b	-0.1693
43	0xb410	-0.254
44	0x2d6f	0.0849
45	0x3444	0.2666
46	0x2d87	0.08636
47	0x2100	0.009766
48	0xb3a1	-0.2384
49	0x2ad9	0.0535
50	0xb60f	-0.3787
51	0x3451	0.2698
52	0x2f74	0.11646
53	0x3336	0.2253
54	0x1cd4	0.004715
55	0x36f8	0.4355
56	0x306c	0.1382
57	0xaba4	-0.0597
58	0x3216	0.1902
59	0xb043	-0.1332
60	0xb3ba	-0.2415
61	0xb0d0	-0.1504
62	0xafd3	-0.12225
63	0xa9f4	-0.0465
64	0xa28a	-0.01277
65	0xb147	-0.1649
66	0x2fe0	0.12305
67	0x302d	0.1305
68	0xa66a	-0.02505
69	0xa00a	-0.00789
70	0x27c8	0.0304
71	0x24ee	0.01926
72	0xae00	-0.09375
73	0xb0d4	-0.1509
74	0xab89	-0.05887
75	0xa391	-0.01478
76	0xae87	-0.102
77	0x2281	0.0127
78	0xa813	-0.03183
79	0x2ccb	0.0749
80	0x9f3d	-0.00707
81	0x337c	0.2339
82	0xae09	-0.0943
83	0xabd3	-0.06113
84	0x3052	0.135
85	0x22c9	0.01325
86	0x22d4	0.013336
87	0x2d8f	0.08685
88	0xa8ff	-0.03903
89	0xaf85	-0.1175
90	0xa6e2	-0.02689
91	0xaeb1	-0.10455
92	0x2efb	0.1091
93	0xa139	-0.0102
94	0xaca3	-0.07245
95	0x2690	0.02563
96	0x29f0	0.0464
97	0xb152	-0.1663
98	0x3052	0.135
99	0x25d2	0.02274
100	0xaca9	-0.0728
101	0xae40	-0.09766
102	0x2ec2	0.1056
103	0xae8c	-0.1023
104	0x2d7a	0.0856
105	0x2f2c	0.11206
106	0xa83f	-0.03317
107	0x235a	0.01436
108	0x24bc	0.0185
109	0x2a50	0.04932
110	0x285c	0.03406
111	0x2b35	0.0563
112	0x2a2f	0.0483
113	0x28e3	0.03818
114	0x98da	-0.002369
115	0x90c3	-0.0005813
116	0x2ca7	0.0727
117	0x2a32	0.0484
118	0xaa12	-0.04742
119	0xb012	-0.1272
120	0x2a23	0.04794
121	0x27ca	0.03043
122	0x2af4	0.05432
123	0xb01d	-0.1285
124	0x1ab0	0.003265
125	0xa6da	-0.02676
126	0x2960	0.042
127	0x912c	-0.0006313
128	0xb06e	-0.1384
129	0xa9e8	-0.04614
130	0xad04	-0.07837
131	0x3409	0.2522
132	0x26a7	0.02599
133	0x34b0	0.293
134	0xa579	-0.02138
135	0xac21	-0.0645
136	0xb29d	-0.2067
137	0x3373	0.2328
138	0x3256	0.198
139	0xad2f	-0.081
140	0xad33	-0.08124
141	0x9ee6	-0.006737
142	0xa4a0	-0.01807
143	0xb0e0	-0.1523
144	0x37d6	0.4897
145	0xad94	-0.08716
146	0x34d0	0.3008
147	0xa889	-0.03543
148	0x30f2	0.1545
149	0xad8b	-0.0866
150	0x3186	0.1726
151	0xb043	-0.1332
152	0x293c	0.0409
153	0xa436	-0.01645
154	0xb2a4	-0.2075
155	0xb559	-0.3342
156	0xab93	-0.05917
157	0x30b6	0.1472
158	0x3683	0.407
159	0xa60c	-0.02362
160	0xad2d	-0.0809
161	0x3173	0.1703
162	0x29e6	0.04608
163	0xab2d	-0.05606
164	0x3435	0.263
165	0xb3bd	-0.2418
166	0xb16a	-0.1692
167	0x2fe5	0.12335
168	0x343e	0.2651
169	0xb0c4	-0.1489
170	0xb031	-0.131
171	0x2b54	0.05725
172	0xa87c	-0.03503
173	0x2c3b	0.0661
174	0xb425	-0.259
175	0x1894	0.002235
176	0xb0a5	-0.1451
177	0x9bff	-0.003904
178	0xaa7e	-0.05072
179	0xacb4	-0.0735
180	0xb2a0	-0.207
181	0xa8bc	-0.037
182	0x2de2	0.0919
183	0x31e4	0.1841
184	0x9547	-0.001288
185	0xa9b3	-0.04453
186	0xb025	-0.1295
187	0xa2c8	-0.013245
188	0xa4bc	-0.0185
189	0xa5e3	-0.023
190	0xad5f	-0.0839
191	0x30d3	0.1508
192	0x2571	0.02126
193	0xaa7f	-0.05075
194	0x2fac	0.1199
195	0x2cbe	0.0741
196	0xac07	-0.0629
197	0x2c3d	0.0662
198	0xada4	-0.08813
199	0x268b	0.02556
200	0x302e	0.1306
201	0x14b9	0.001153
202	0xa068	-0.008606
203	0x2e69	0.10016
204	0x2879	0.03494
205	0x2cd6	0.07556
206	0x2af6	0.05438
207	0x2a51	0.04935
208	0xaa0c	-0.04724
209	0x25b1	0.02223
210	0x2c6d	0.06915
211	0xaa79	-0.05057
212	0x292e	0.04047
213	0x142e	0.00102
214	0xaa8e	-0.0512
215	0x967b	-0.001582
216	0x292d	0.04044
217	0xac5e	-0.06824
218	0xac05	-0.0628
219	0xa655	-0.02473
220	0xaadd	-0.05362
221	0xa622	-0.02396
222	0xb310	-0.2207
223	0x2748	0.02844
224	0xad14	-0.07935
225	0xaf98	-0.11865
226	0x2fc8	0.1216
227	0x2d93	0.0871
228	0x2451	0.01686
229	0xa822	-0.0323
230	0x2cd4	0.07544
231	0x2b99	0.05936
232	0x242e	0.01633
233	0xac16	-0.06384
234	0x2a39	0.0486
235	0x9acb	-0.003317
236	0xaaab	-0.0521
237	0xadf2	-0.0929
238	0xa735	-0.02815
239	0xa925	-0.0402
240	0x2e72	0.1007
241	0x2acc	0.0531
242	0x281e	0.03217
243	0x291f	0.04
244	0x27a8	0.0299
245	0xa656	-0.02475
246	0x2c72	0.06946
247	0xa92e	-0.04047
248	0xa541	-0.02052
249	0x29bb	0.04477
250	0x2c80	0.0703
251	0x24ed	0.01924
252	0xab71	-0.05814
253	0xa799	-0.02968
254	0x2f66	0.1156
255	0x2660	0.0249

onnx::Conv_105 f2 [32]
0	0x3c1b	1.026
1	0x39ea	0.7393
2	0x3cf0	1.234
3	0x3c60	1.094
4	0x3c58	1.086
5	0x3cd8	1.211
6	0x3d27	1.288
7	0x3c0b	1.011
8	0x3a44	0.783
9	0x3d58	1.336
10	0x3c92	1.143
11	0x3b2e	0.8975
12	0x3c14	1.02
13	0x3c8f	1.14
14	0x3e66	1.6
15	0x3c7b	1.12
16	0x3e08	1.508
17	0x3e5f	1.593
18	0x3ca1	1.157
19	0x3b1e	0.8896
20	0x395f	0.6714
21	0x3c88	1.133
22	0x3c42	1.064
23	0x3ce1	1.22
24	0x3d7c	1.371
25	0x3e03	1.503
26	0x3d5a	1.338
27	0x3d6f	1.358
28	0x3bfc	0.998
29	0x3a0d	0.7563
30	0x3a78	0.8086
31	0x3c5f	1.093

onnx::MatMul_106 f2 [32, 6]
0	0xb93b	-0.654
1	0x340f	0.2537
2	0x3800	0.5
3	0xbc93	-1.144
4	0x37ab	0.4792
5	0xbbab	-0.9585
6	0x3524	0.3213
7	0x392f	0.648
8	0xbb97	-0.9487
9	0xb5b5	-0.3567
10	0xba3f	-0.781
11	0xbbb1	-0.9614
12	0xaba6	-0.05975
13	0xbc34	-1.051
14	0xb9f6	-0.745
15	0x38d0	0.6016
16	0x3a9a	0.825
17	0xbabd	-0.8423
18	0x3384	0.2349
19	0xbb47	-0.9097
20	0x3b35	0.901
21	0xb4f6	-0.31
22	0xb950	-0.664
23	0xbba0	-0.953
24	0x34f6	0.31
25	0xbbe5	-0.987
26	0xb9cc	-0.7246
27	0xb871	-0.555
28	0xb35f	-0.2303
29	0x39e6	0.7373
30	0x2c59	0.06793
31	0x37e2	0.4927
32	0xbc0b	-1.011
33	0xba54	-0.791
34	0x39c6	0.7217
35	0xbaf7	-0.8706
36	0xb8a0	-0.578
37	0x35fe	0.3745
38	0x398d	0.694
39	0x3521	0.3206
40	0xbc67	-1.101
41	0xbb07	-0.8784
42	0x3259	0.1984
43	0xb8a1	-0.5786
44	0x3b22	0.8916
45	0xb8dc	-0.6074
46	0xb8ee	-0.616
47	0xbb84	-0.9395
48	0x38d5	0.604
49	0xb68f	-0.41
50	0xb821	-0.516
51	0x2f77	0.11664
52	0xb96b	-0.6772
53	0xb9a9	-0.7075
54	0x365b	0.3972
55	0xbb78	-0.9336
56	0xb5ca	-0.3618
57	0xb8ec	-0.615
58	0x3a1e	0.7646
59	0xb8ee	-0.616
60	0xb67d	-0.4055
61	0x37ed	0.4954
62	0xba49	-0.7856
63	0xbbfe	-0.999
64	0xb3c6	-0.2429
65	0x3a75	0.807
66	0x3288	0.2041
67	0x35dd	0.3665
68	0xbc6f	-1.108
69	0xba0d	-0.7563
70	0xbbd8	-0.9805
71	0x382d	0.522
72	0x36f5	0.4348
73	0x3989	0.692
74	0xb949	-0.6606
75	0xbb7f	-0.937
76	0xb660	-0.3984
77	0xb51b	-0.319
78	0xba3c	-0.7793
79	0xb70e	-0.441
80	0xba01	-0.7505
81	0x38c8	0.5977
82	0x39bb	0.7163
83	0xb81f	-0.515
84	0xbb27	-0.894
85	0xb861	-0.5474
86	0x396c	0.6777
87	0xb4fd	-0.3118
88	0x396d	0.678
89	0xb8f8	-0.621
90	0x282d	0.03262
91	0xbb52	-0.915
92	0x357d	0.343
93	0xbc03	-1.003
94	0xb9d5	-0.729
95	0x37cb	0.487
96	0xb87f	-0.562
97	0x34aa	0.2915
98	0xbc97	-1.147
99	0x33f5	0.2487
100	0xbca1	-1.157
101	0x393b	0.654
102	0x36f2	0.434
103	0xb820	-0.5156
104	0xb9fd	-0.7485
105	0x3a7e	0.8115
106	0xb935	-0.651
107	0xb94f	-0.6636
108	0xab90	-0.05908
109	0xba8e	-0.8193
110	0xb408	-0.252
111	0x3abb	0.8413
112	0xb86b	-0.5522
113	0xb905	-0.6274
114	0x38ff	0.6245
115	0xb9be	-0.718
116	0xa764	-0.02887
117	0xab92	-0.05914
118	0xb856	-0.542
119	0xbb53	-0.9155
120	0x36a5	0.4153
121	0x3963	0.6733
122	0xb601	-0.3752
123	0xbb96	-0.948
124	0xb907	-0.6284
125	0xb922	-0.6416
126	0x36b3	0.4187
127	0xbba8	-0.957
128	0xbb0b	-0.8804
129	0x39e8	0.7383
130	0xb8f2	-0.618
131	0xb878	-0.5586
132	0xbb9f	-0.9526
133	0x377a	0.4673
134	0xb8c9	-0.598
135	0x3916	0.6357
136	0xb6f4	-0.4346
137	0xb878	-0.5586
138	0xb6e8	-0.4316
139	0xbcc6	-1.193
140	0xba9b	-0.8257
141	0xb970	-0.6797
142	0x3887	0.566
143	0x392b	0.646
144	0xace5	-0.0765
145	0xba2b	-0.771
146	0x3827	0.519
147	0xbbf1	-0.9927
148	0xb8f8	-0.621
149	0x38df	0.609
150	0xbc49	-1.071
151	0x3241	0.1954
152	0xb509	-0.3147
153	0x36aa	0.4165
154	0xba10	-0.758
155	0x3a55	0.7915
156	0xbbfc	-0.998
157	0xba8d	-0.819
158	0x3895	0.5728
159	0x358d	0.347
160	0xb908	-0.629
161	0x36fe	0.437
162	0x3434	0.2627
163	0xba50	-0.789
164	0xb836	-0.5264
165	0xbc0a	-1.01
166	0x3aa7	0.8315
167	0xb515	-0.3176
168	0xbc06	-1.006
169	0x370b	0.4402
170	0x3972	0.6807
171	0xb589	-0.346
172	0xba8a	-0.8174
173	0xb8fc	-0.623
174	0x35e3	0.368
175	0x3985	0.69
176	0xb7a1	-0.4768
177	0xba87	-0.816
178	0xb65f	-0.3982
179	0xbac7	-0.847
180	0xbc30	-1.047
181	0x3700	0.4375
182	0xb8d7	-0.605
183	0xb6ca	-0.4243
184	0x3978	0.6836
185	0xb5ca	-0.3618
186	0x36aa	0.4165
187	0xb8bd	-0.5923
188	0xb86a	-0.552
189	0x3a87	0.816
190	0xbb07	-0.8784
191	0xb969	-0.6763
